trained_model/01_HalfCheetah/TD3_Baseline_critic.pth (torch, 582258 bytes, 10 tensors)

q1_fc1.weight f4 [256, 23]
000000 21 b4 31 40 76 9b 48 c0 16 ba 03 c0 8a a4 04 3f
       2.7766192 -3.1344886 -2.0582328 0.51813567
000010 6e 46 d3 be d2 34 c7 3f 2e 5e 8b be 09 2e 14 be
       -0.4126467 1.5562994 -0.2722029 -0.14470686
000020 e3 a5 46 bf ae 1e 67 be c5 31 46 3f dd dc 80 3d
       -0.77596873 -0.22570297 0.7741969 0.06292126
000030 f2 22 7d 3e 3c 5e 36 3e c0 c3 2b 3e 8c 9c a1 3d
       0.24720362 0.17809385 0.16773891 0.07891187
000040 d2 9c 3d be b0 60 06 3f a4 4b 23 3e 77 dd 6f be
       -0.18516853 0.52491283 0.15946823 -0.23424326
000050 8e 8c 23 bf a6 d1 07 be ee 46 6d bf 74 66 05 c0
       -0.63886344 -0.13263568 -0.92686355 -2.0843782
000060 e5 da 92 bf 80 29 66 bf 09 c2 bc bf 27 00 57 bf
       -1.1473051 -0.89907074 -1.4746715 -0.8398461
000070 30 a2 c9 3d 74 42 56 bc bb 34 a5 3f 5e ab c6 bc
       0.09845388 -0.013077367 1.2906717 -0.024251636
000080 48 db be be e2 b7 d8 3d 64 9e 24 3d 14 9c 81 bd
       -0.37276673 0.10581948 0.040190116 -0.06328598
000090 b4 32 60 3d a3 63 ad bc 63 5d eb bc 94 89 c1 3d
       0.054735854 -0.021165675 -0.028731054 0.09450069
0000a0 49 6c 43 bf af 62 23 3f df bc 31 3e 55 75 16 be
       -0.76337105 0.63822454 0.17357205 -0.14693196
0000b0 88 54 e9 3d 9f d4 dd bd 2b d1 4b c0 6f 28 01 c0
       0.11393076 -0.1083157 -3.1846416 -2.0180929
0000c0 2a ee 26 bf 96 07 60 bf 00 7b ad be 23 4e 9f bf
       -0.6520716 -0.87511575 -0.33882904 -1.244572
0000d0 41 ea 68 bd 97 a2 87 be d4 e5 ab be 9f d5 9a bd
       -0.056864027 -0.26491234 -0.33573782 -0.07560276
0000e0 ca d3 91 be 23 cc c5 3c 68 8f e9 bc 5b 91 99 3d
       -0.28481895 0.024145192 -0.028510764 0.074984275
0000f0 b1 a4 22 3d ec 63 d6 3d 00 24 29 3e 92 f0 e4 3e
       0.039707843 0.10468277 0.16517639 0.4471479
000100 d4 94 a1 3d f4 d3 de be fb 7a 11 bf 4d 85 19 3d
       0.07889715 -0.43521082 -0.5682828 0.03748064
000110 f8 85 2d bf 78 65 13 40 2e 0e 1a 3f cb 6b 46 3d
       -0.67782545 2.3030682 0.60177886 0.048442643
000120 ef 09 32 3f 27 1a ab be 4b 7f 1d bd c0 4c 6f bf
       0.6954641 -0.3341839 -0.038451474 -0.93476486
000130 c4 26 51 bd 38 63 c2 be dc b8 e0 3e fd ef 23 3f
       -0.05106236 -0.37966323 0.43891037 0.6403807
000140 57 cf d5 bd b2 3e 96 3e f9 81 d4 3c 2f 8a bc bd
       -0.104399376 0.29344708 0.025940882 -0.09206044
000150 b6 2b c5 be bb 81 47 bd 52 7e f8 3e ad 96 b0 3e
       -0.3850991 -0.048707705 0.48533875 0.34489956
000160 14 34 a8 3f ea f9 e9 bc bd 35 b8 3e 72 1b df 3c
       1.3140893 -0.028561551 0.359785 0.027234767
000170 fc 93 73 bf e0 6d d6 bf a4 d0 f2 3e 1c 7c 8f bf
       -0.9514768 -1.6752281 0.47424805 -1.120975
000180 ac 73 71 3f a9 d2 05 be a9 74 f2 3e 1c 59 0c be
       0.94317126 -0.13068642 0.4735463 -0.13705868
000190 68 0c 10 be e1 3b a7 bf b0 e2 4d 3b 2d 8b b3 bd
       -0.14067233 -1.3065149 0.0031415634 -0.0876678
0001a0 15 04 38 be ba 07 29 3e 82 92 04 3e b4 fa e6 bd
       -0.17970307 0.16506854 0.12946513 -0.112782866
0001b0 b6 36 b1 bd eb 09 28 be 11 09 cd ba be 14 90 3e
       -0.086530134 -0.16410033 -0.0015642961 0.28140825
0001c0 1c ae 9a 3f cf 15 05 3f 49 70 99 3e 1e ed 90 bf
       1.2084384 0.519864 0.2996848 -1.1322362
0001d0 5c 1a 00 c0 fd 78 2a be 74 dd 66 3e f4 1f 5b 3f
       -2.0016088 -0.16647716 0.22545415 0.8559563
0001e0 d5 a2 50 3e fe 95 a0 3c 26 ad 32 bf 6f 42 be be
       0.20374615 0.019602772 -0.69795454 -0.3716006
0001f0 21 83 59 bf 83 ce 1c 3f d5 87 ce 3d 38 9a 0e be
       -0.8496571 0.6125261 0.10084502 -0.13926017
000200 6e 22 f7 3d f3 ed 41 3d 21 33 8b 3e 88 62 9a 3d
       0.12067114 0.047346067 0.27187446 0.075383246
000210 a4 8c 7d 3e 43 13 98 3e f6 18 96 3e 46 d7 84 bc
       0.24760681 0.29702196 0.2931592 -0.016215932
000220 24 bb b0 be 70 95 d3 be 83 c8 0a 40 5f 03 51 c0
       -0.34517777 -0.4132495 2.1684883 -3.2658308
000230 51 45 0b be 0f c2 07 be a5 2f 17 3d 7b 8d e9 3d
       -0.13600661 -0.13257621 0.03691067 0.114039384
000240 7f 5e 8d 3f 5e 0a 03 bf 20 80 93 be ba d9 88 3f
       1.1044463 -0.51187694 -0.2880869 1.0691445
000250 1a 62 ae bd ef cc 73 bd 93 a3 b0 3d 37 e9 d2 3d
       -0.08514805 -0.05952161 0.08624949 0.102983885
000260 12 9f a9 3e 48 5e 59 bd c2 18 61 3e 01 5a 18 3f
       0.33129174 -0.05306843 0.219821 0.59512335
000270 bf 72 7f be 71 d9 ca be 3c ed 1b be 57 15 a8 be
       -0.24946116 -0.3961902 -0.15227216 -0.3282878
000280 28 4f 60 3d e3 3a aa c0 01 7e 14 40 38 83 42 3f
       0.05476299 -5.3196883 2.3201907 0.75981474
000290 e1 1b 96 3e 4b 18 f4 bd 18 8e 90 bf 4d 64 f1 bf
       0.29318145 -0.11918696 -1.1293364 -1.8858734
0002a0 3b d0 08 bf c9 a1 5e be d8 2c b3 be 0c 8e 8c bc
       -0.53442734 -0.21741404 -0.3499515 -0.017157577
0002b0 97 e5 91 3d bb 98 16 3d c7 d9 55 3c 4f 2d 0c 3e
       0.07123869 0.03676675 0.01305241 0.13689159
0002c0 3f ef 87 3d 05 a1 e5 3b 7a 38 36 be 39 da 44 3d
       0.066374294 0.0070077204 -0.17794982 0.048059676
0002d0 eb 27 22 bd f1 e8 18 bf b9 cd 67 3d ac 9f 57 bd
       -0.03958885 -0.5973044 0.056592677 -0.05264251
0002e0 51 55 25 40 74 c7 29 3f 50 9f 4b bf b8 da da 3e
       2.5833323 0.66319966 -0.79539967 0.42744994
0002f0 5b 9f 30 be 90 46 ac 3c 27 36 a4 bf 67 21 7c bf
       -0.1724829 0.02102974 -1.2829026 -0.9848847
000300 c9 a1 cf bf bb 44 fa 3f 64 62 ca be 87 16 81 be
       -1.6221248 1.9552225 -0.3952819 -0.252125
000310 ba c5 18 be 53 9d dc 3d 43 ee 9a 3d 9c 16 19 be
       -0.14919177 0.10772195 0.07564976 -0.14950031
000320 6a 46 8d bd e5 54 e1 bd f5 13 d2 bf b5 91 1f 3f
       -0.06898196 -0.110025205 -1.641234 0.62331706
000330 ff 65 c6 3e a6 33 4e 3e f8 85 aa bd 5f 18 c3 bf
       0.38749692 0.2013689 -0.08326334 -1.5241812
000340 9b de 9b 3f 0d b2 e1 be 64 ac 95 bf 29 0e 42 3f
       1.2177309 -0.44081154 -1.1693234 0.75802857
000350 c2 94 a9 bf 78 73 e4 be 8f 0a 86 bd 2d 84 d0 bf
       -1.3248522 -0.44619346 -0.06544983 -1.6290337
000360 ed a4 85 3e 56 2e 40 3f 03 92 ab 3e 4a 6a 93 3e
       0.2610239 0.75070703 0.33509836 0.2879203
000370 31 38 49 3d 46 3e c9 bd 64 9f 20 bd f6 58 b6 bd
       0.049125854 -0.09826331 -0.039214507 -0.08903687
000380 1b 83 97 be 37 71 97 3f f4 0a 31 3f 41 61 59 bf
       -0.29592213 1.1831425 0.6915734 -0.8491402
000390 7a 7e c8 3e 54 81 41 bf b4 da 0f bf 7c 28 a9 3e
       0.39158994 -0.75587964 -0.5619309 0.330387
0003a0 f8 ac 8d 3d ef 6c a0 be dc 2d 36 be 97 fd c8 3e
       0.06917757 -0.3133311 -0.17790931 0.39255974
0003b0 6f d6 63 3e 18 1c 4d 3e 9f 5f a9 3e 9a f1 96 be
       0.22249769 0.20030248 0.33080766 -0.29481202
0003c0 59 b8 5e 3d cb 93 07 3e f2 73 4f 3d ab bc 09 3d
       0.054375026 0.13239972 0.050647683 0.033627193
0003d0 cc fb 9c bc b6 9e 04 3c ca eb e5 bd a7 ad 0c 3f
       -0.019163035 0.00809448 -0.11226614 0.5495247
0003e0 7f 59 76 3e f4 7f 66 3e 30 a4 74 be e5 54 9e 3d
       0.24057578 0.22509748 -0.23890758 0.07731036
0003f0 41 91 e2 bd d8 b0 0a 41 a5 62 3a be 6d a4 49 bd
       -0.11062861 8.668175 -0.18201692 -0.049229074

q1_fc1.bias f4 [256]
000000 d6 cd 39 be 8b df 0f 3f ca 29 26 3f 28 8b b4 bf
       -0.18144926 0.56200475 0.64907515 -1.4104967
000010 40 88 76 3f a7 2e 94 bf 60 d5 6a bf 38 18 90 bf
       0.9630165 -1.1576737 -0.91731834 -1.1257391
000020 ad 33 63 3f d2 f1 f8 3c e1 88 aa 3f 92 df cd be
       0.88750726 0.030388746 1.3323022 -0.40209633
000030 35 66 7b 3f 22 50 61 bf 43 31 f2 3e 3a 43 d7 3f
       0.9820283 -0.880129 0.4730321 1.6817391
000040 9f c9 8d 3f a2 e2 b6 bf e0 ea 99 bf 8c 48 d8 bf
       1.1077155 -1.4287913 -1.2024803 -1.689714
000050 82 cd 06 bf 3e bb a5 bf a8 3c ff 3e 02 96 65 3f
       -0.5265733 -1.2947767 0.49850965 0.8968202
000060 22 5f 93 3e 07 62 20 bf 6e 84 b4 3f de 33 f4 bf
       0.28783518 -0.6264958 1.4102914 -1.9078329
000070 5a c4 2e 3f ce 44 d6 bf 57 33 d5 3f 53 a2 b6 be
       0.6826836 -1.6739748 1.6656293 -0.3567072
000080 cb e4 7e bf b8 c2 93 3f 1c 1f 9f 3f 11 32 cf bf
       -0.9956786 1.1543798 1.2431369 -1.6187154
000090 70 88 3e 3f 86 b7 b2 3f 94 2e a2 bf b9 1f fb 3d
       0.7442694 1.3962257 -1.2670465 0.1226191
0000a0 00 c7 07 be dd 7e 8e 3f 7d 22 87 bd 32 75 91 bf
       -0.13259506 1.1132466 -0.06598375 -1.136389
0000b0 ce 7e dc bf 00 1f 8f bf b7 a0 62 be 08 86 3a 3f
       -1.7226198 -1.1181335 -0.2213162 0.72860765
0000c0 34 d1 06 3d 3b 3d e5 3e ae 87 a9 bf 57 6f c4 3e
       0.032914355 0.44773278 -1.3244531 0.38366196
0000d0 13 2b 40 bf 89 fb f6 be d4 68 b3 bf cd 71 2c bf
       -0.75065726 -0.4823878 -1.4016366 -0.67361146
0000e0 ea 7b 1d 3e a3 c6 dd be ad 83 72 be 8b 75 d3 3f
       0.153793 -0.4331561 -0.23683043 1.6520246
0000f0 9b ac de 3e 99 88 bc bf fc 5d cc bf 4f bd 92 3e
       0.43491063 -1.4729186 -1.5966182 0.28660056
000100 78 fd 18 bf fc 71 c7 bf a7 25 68 bf 60 b6 f5 be
       -0.5976176 -1.558166 -0.9068245 -0.47990704
000110 08 99 17 bf a7 27 02 bf 8d 90 01 3f fb 54 34 3f
       -0.5921788 -0.50841755 0.5061119 0.7044217
000120 2c e2 b8 bf de 16 48 40 1c 62 2d 3e 0f 3c 9c 3f
       -1.4444022 3.1263957 0.16931957 1.2205828
000130 e6 dd b7 3d 73 7d a6 bf b5 4f bf 3f 9e 0c 83 3f
       0.08977871 -1.3007034 1.49462 1.0238225
000140 91 62 64 bf fc 3f 0a 40 5a 03 2a b9 49 86 bb bf
       -0.892129 2.1601553 -0.00016213712 -1.4650356
000150 45 a8 f0 3e 61 ae b2 bf 6c 82 bc 3e 60 25 85 3f
       0.4700338 -1.3959466 0.36818254 1.0402031
000160 d5 0d 02 40 a3 88 be 3e 1a b6 4a bf 0a 5c bb 3d
       2.0320942 0.3721362 -0.79184115 0.091484144
000170 44 0b d0 be 3d db 9d bf cf 0f ae 3f 8c 11 7f 3f
       -0.40633595 -1.2332531 1.3598574 0.9963615
000180 af f5 62 3f d9 b2 cf bc 66 db bb be e7 89 88 3f
       0.88656133 -0.025353836 -0.36690825 1.0667084
000190 f7 40 d4 bf 2b a9 95 3f 0d 82 58 bf 27 80 90 bf
       -1.6582326 1.1692251 -0.8457344 -1.1289109
0001a0 20 e2 b8 bf 31 8a e2 be 63 b8 6a 3e 7a ee b2 bf
       -1.4444008 -0.44246057 0.229219 -1.3979027
0001b0 3a 15 98 3f 75 53 0a bf 24 2c 9e 3f cf 9b e9 3f
       1.1881478 -0.54033595 1.2357221 1.8250674
0001c0 c0 8b 51 3e 18 da 83 bf 51 e2 04 bc b0 4a 89 bf
       0.20463467 -1.0300932 -0.008110599 -1.0725918
0001d0 cc b6 9c 3d 0c 4b 2c 3f e7 80 eb be 92 d0 78 be
       0.07652053 0.6730201 -0.45996782 -0.24298313
0001e0 37 79 29 be ad ac 4a 3e 8a b0 d4 3d 9d 4a a2 3f
       -0.16550146 0.19792433 0.10385235 1.267902
0001f0 ab 8e 80 bf 4f d3 83 bf c5 36 54 bc bb 6e e7 3d
       -1.0043539 -1.0298861 -0.012952511 0.11300417
000200 48 e6 45 3f 2a b8 08 3f 39 ba 81 3e 39 2d 47 3f
       0.77304506 0.5340601 0.2533739 0.7780338
000210 fc 43 22 be ba 69 20 3f 2b ab 44 bf a9 d8 17 bf
       -0.15846246 0.62661326 -0.7682368 -0.5931497
000220 af 57 76 3f 13 8f b8 bf 6c 52 1b 3f b5 82 66 bf
       0.96227545 -1.4418663 0.6067264 -0.90043193
000230 2f ce 91 3e 5e b4 1b 3f d0 ec 6c 3f a3 e1 88 bf
       0.28477618 0.60822093 0.9254885 -1.0693859
000240 d4 e8 09 bf 71 eb cd bf 8c 22 b5 3e b6 73 24 3e
       -0.5387089 -1.6087476 0.3537792 0.16059765
000250 ac 0c b7 3f 65 22 3a 3f 9a a3 a4 3f 9e 97 2f bf
       1.4300742 0.7270873 1.2862427 -0.68590724
000260 a1 3a e6 3f 11 5d dc be e2 74 df bf 67 f7 0c 3f
       1.7986642 -0.43039754 -1.7457545 0.55065006
000270 1a 8c 38 be b6 58 67 3f 28 9d ae bf 39 73 e9 bf
       -0.18022195 0.9036974 -1.364171 -1.8238288
000280 75 9a 78 bf 89 6a 5d 3e 1c 0f 1d bf c2 00 8e 3e
       -0.9711068 0.21622671 -0.6135118 0.27734953
000290 46 9a 01 c0 48 f1 9f 3d 74 65 ee 3d 92 01 19 3f
       -2.025041 0.078096926 0.116404444 0.5976802
0002a0 c6 3b 5b be 0d 4b c4 3f 1a 3a 5f bf ac cb 2e bf
       -0.2140952 1.5335404 -0.8719803 -0.6827953
0002b0 09 d4 8f 3d f2 a3 60 3e 3e 21 8a bf bf c5 2c be
       0.07022864 0.2193754 -1.0791395 -0.16872309
0002c0 6e f7 38 bf 13 8a 86 bf 64 1a a6 be 90 94 06 bf
       -0.7225255 -1.0510887 -0.3244201 -0.5257044
0002d0 c5 21 97 3c 1c 38 bf be 02 b0 5f bf 91 55 96 bf
       0.01844872 -0.37347496 -0.8737794 -1.1744863
0002e0 c2 85 51 bf 79 a7 d6 3e cd ae c8 3f a2 58 38 3f
       -0.81844723 0.41924646 1.5678345 0.7201024
0002f0 01 00 29 bf 96 9d 2f 3f 36 24 4e bf d9 85 e5 be
       -0.6601563 0.6859983 -0.80524004 -0.4482868
000300 9f a2 20 3d b6 33 9d bf ca 38 49 3f 1a 71 76 be
       0.039217588 -1.2281406 0.7860228 -0.24066582
000310 30 a0 ca 3f 6f 2a 89 bf 8a 23 99 3e 74 70 cc bf
       1.5830135 -1.0716075 0.29909927 -1.5971818
000320 24 2c 0b c0 31 11 01 bf be 50 74 be 97 92 79 be
       -2.1745691 -0.50416857 -0.23858926 -0.24372326
000330 50 04 3b bf f7 df 39 bf 5a 33 2c 3f b0 f2 6d bf
       -0.73053455 -0.7260737 0.67265856 -0.92948437
000340 73 c7 2b be ab 95 2d be b6 04 4b bf 7a 61 dc 3d
       -0.16775303 -0.16951625 -0.79304063 0.1076078
000350 85 fb b3 bf 7a c3 e6 3f a7 84 c1 bf d8 d5 22 3e
       -1.4061133 1.8028405 -1.5118607 0.15901887
000360 ac 25 92 bf 8d fa 0e bf a6 6c 1c 3f 41 a1 bc bf
       -1.1417747 -0.5585106 0.61103284 -1.4736711
000370 db d7 46 3f 51 32 b2 bf 26 04 f3 be 0d db 78 3f
       0.7767312 -1.3921605 -0.47464103 0.97209245
000380 b1 12 95 bf be 44 b2 bf a7 11 50 bf f2 5e aa bf
       -1.1646329 -1.3927228 -0.81276935 -1.3310225
000390 ce c4 a3 bf e0 5c 90 3e 51 0e 10 bf 6d a4 a6 bf
       -1.2794435 0.28195858 -0.56271845 -1.3018929
0003a0 ba 2a 62 3f 25 d3 7f be 1d e6 d8 bf 58 11 e2 be
       0.88346446 -0.24982889 -1.6945225 -0.44153857
0003b0 f7 2c 3b 3e 55 4e b6 bf 57 5a da be 2a 7e 05 bf
       0.18278871 -1.4242655 -0.4264705 -0.52145636
0003c0 04 2b 93 bf 84 b2 bf 3f bf ca 59 bf 24 4a d9 bf
       -1.1497502 1.4976354 -0.8507499 -1.6975751
0003d0 53 dd 4d 3f e8 f4 cc 3e 57 f4 00 c0 f9 aa 9b 3f
       0.8041584 0.400306 -2.0149133 1.2161552
0003e0 da d9 08 c0 e8 ac 20 bf b6 bd 7f be af 36 a0 bf
       -2.1382966 -0.62763834 -0.24974713 -1.2516688
0003f0 b0 9f a4 bf 75 68 4f 3f 97 86 2a 3f 44 65 af 3f
       -1.2861233 0.81018764 0.6661162 1.3702779

q1_fc2.weight f4 [256, 256]
000000 62 86 81 3e 5b 58 46 be 32 46 42 bd 9e d0 30 be
       0.25297838 -0.19369642 -0.047430225 -0.17267081
000010 7d 62 08 3e a1 a5 e1 3e 74 6c 8f bc ab 35 ae 3c
       0.1331882 0.44071677 -0.01750777 0.021265825
000020 e6 58 19 3f e7 33 ec 3e bf 9e c0 bd e0 c3 e5 3e
       0.59901273 0.46133348 -0.094052784 0.44876003
000030 99 3a 50 3e 70 70 3d 3e c6 ef a2 3e 2f e8 7c be
       0.20334853 0.18499923 0.31823558 -0.24697946
000040 15 70 c4 bd a8 8a 87 be 46 49 7f 3d 67 4c d5 be
       -0.095916905 -0.26472974 0.06232574 -0.41659853
000050 68 13 2a 3e c1 e4 97 bd 53 b5 99 be c8 53 40 3e
       0.16608965 -0.07416678 -0.30021152 0.1878196
000060 78 2a 48 3d 1c d5 83 be 7e 49 2c 3e d0 0d 99 3d
       0.048868626 -0.25748527 0.1682491 0.07473338
000070 0c 9c ba bc 67 f8 85 bf 17 8c 0f be 4e 74 d0 bd
       -0.022779487 -1.0466431 -0.14018284 -0.10178433
000080 60 3f 57 bd 64 8f 97 bd be 2c f4 3e 2e 9b 46 3a
       -0.052550673 -0.074003965 0.47690386 0.0007576224
000090 92 d0 b6 3e 3f 74 ed 3d 1c d8 73 be 22 f4 83 3e
       0.35706002 0.11594438 -0.23812908 0.25772196
0000a0 ee 42 9b 3e 36 c0 1a be c1 b4 92 be a6 ba 43 bf
       0.303245 -0.15112385 -0.2865353 -0.7645668
0000b0 97 cb 0a be 85 b0 27 be 5c f8 77 be de fe cd 3d
       -0.13554226 -0.1637593 -0.24215835 0.10058378
0000c0 11 d3 5f bd 01 07 2a be 03 47 61 3e 6a f4 2f 3e
       -0.054644648 -0.16604234 0.21999745 0.1718308
0000d0 4b a3 b0 3c c8 ca 43 3d e5 af c6 3d 9a 14 ec 3e
       0.02156224 0.04780081 0.09701518 0.46109468
0000e0 2c 61 1d bf 24 ab 34 3e 82 51 6c 3e 0c 52 71 3b
       -0.614764 0.1764341 0.23077968 0.0036822585
0000f0 dc f1 44 3d 0c 26 cc be 69 f4 4a be 09 ff 90 3d
       0.048082218 -0.39872777 -0.19819798 0.07079894
000100 ea 3b 9b 3e 0a c7 d4 bd 4d df 01 bf 40 8c b0 bd
       0.30319148 -0.10389526 -0.50731355 -0.086205006
000110 04 a6 9e 3e cf 8e d9 3d 8c 8d 15 be aa c5 19 3e
       0.30986035 0.10622942 -0.14604777 0.15016809
000120 51 63 cc 3e c6 c8 89 be f6 c4 b6 be 6f fe b0 be
       0.39919522 -0.2691099 -0.35697144 -0.34569117
000130 aa 99 8b 3e 77 27 b4 bd 06 6e 41 be 85 10 de bd
       0.27265674 -0.0879659 -0.18889627 -0.108429946
000140 df 79 cb be cb 8f 2f be 30 44 77 3e 55 0b 7b 3e
       -0.39741418 -0.17144696 0.24147105 0.24516042
000150 c2 9f 9a 3d ff 19 17 c1 f7 10 9a 3d 8d d0 a4 3c
       0.07550003 -9.443847 0.07522767 0.020118976
000160 d3 39 d7 3d c2 1a fa 3e 41 79 20 be 2c 96 1f bf
       0.10509076 0.4884854 -0.15671255 -0.6233852
000170 36 b8 0a 3d 05 41 2d be 95 67 a4 3c fa 2f c1 3e
       0.033867083 -0.16919334 0.020068923 0.37731916
000180 da 9f 9d bd bb 59 23 be 57 bb 91 bd 02 2e 28 3e
       -0.07696505 -0.15952198 -0.0711581 0.164238
000190 bd 1d e1 be 91 a4 83 3e 96 0f 93 3d f7 c9 00 3e
       -0.43968 0.25711492 0.07180707 0.12577043
0001a0 56 72 d2 be 17 47 84 3e a4 37 40 be 92 47 09 be
       -0.41102856 0.25835487 -0.18771225 -0.13406208
0001b0 ad 10 52 3e 42 6b 15 3e f9 dd 98 3d c1 30 af 3e
       0.20514174 0.14591697 0.07464213 0.34216884
0001c0 b5 cc 42 be c0 5b 21 3e 87 32 c6 3e 20 26 b4 3d
       -0.19023402 0.15757656 0.38710424 0.08796334
0001d0 82 50 f2 bd 65 bf 49 3f fc 25 62 3e e3 5e 83 3d
       -0.11831762 0.7880767 0.22084802 0.064145826
0001e0 12 b8 39 3f 6e 64 03 3e b3 67 96 bd ec c1 d1 3b
       0.72546494 0.1283128 -0.07343998 0.006401291
0001f0 74 bd b2 bd 07 a0 4e bb 91 88 a2 3d da ec bb 3e
       -0.087275416 -0.003152849 0.07936204 0.3670414
000200 66 b6 28 3e 49 0e 86 3d 53 d3 82 3d a6 37 d7 3b
       0.1647583 0.065456934 0.06387963 0.006567913
000210 d6 ca 99 3e 76 0d 28 3e fe 43 cd 3d a2 a1 bd bc
       0.30037564 0.16411385 0.10022734 -0.023148362
000220 a4 97 b2 3c 30 f7 5c bd f2 de 00 be 2e d9 92 bd
       0.021800824 -0.053946674 -0.12585047 -0.0717033
000230 83 58 04 be c0 18 dd 3d ad 77 5e 3e d2 ef ef 3e
       -0.1292439 0.10795736 0.2172534 0.46862656
000240 40 74 89 3e 91 cf 67 3c 3e b5 17 3e e0 b6 0f be
       0.26846504 0.014148609 0.14815232 -0.14034605
000250 b8 b7 e5 bd 97 17 63 3e ee 77 de 3d 90 73 18 be
       -0.11216682 0.22176968 0.108627185 -0.14887834
000260 d1 3b 2c 3e 37 eb 8a 3d 27 b0 63 bf c3 d5 a0 3e
       0.16819693 0.06783145 -0.8894066 0.31413087
000270 f7 88 54 3e 26 37 81 3d f4 7e 7e bc 08 da b2 be
       0.20755373 0.06309347 -0.015533198 -0.3493197
000280 c0 77 c6 3e aa 00 97 3d f0 4e 74 be 23 59 a4 3e
       0.38763237 0.073731735 -0.23858237 0.32099256
000290 84 a1 b1 be a5 9d 96 3e 18 e1 9f 3e 6e e7 35 3e
       -0.3469354 0.29417148 0.3122642 0.17764065
0002a0 a0 a4 33 3e f2 05 da 3b ff 38 1b 3e 8e 68 d0 3e
       0.17543268 0.006653541 0.15158461 0.4070477
0002b0 26 6a a6 3e 53 83 64 3e 5d 1b ae 3d 3f 27 2c 3d
       0.3250286 0.22315721 0.08501313 0.042029615
0002c0 c0 39 a2 bd 0d 24 99 bd 77 3f 11 3e e1 fb 09 3e
       -0.07921171 -0.07477579 0.14184366 0.1347499
0002d0 f0 fa ef 3d 84 65 80 bc 4c 83 bf bd b8 14 fb bf
       0.117177844 -0.015673406 -0.09351215 -1.9615698
0002e0 54 b5 64 3e b7 5e 9f 3e 3f eb 5e 3d 06 cc 25 be
       0.22334796 0.3112695 0.054423567 -0.1619111
0002f0 e1 19 bc 3d fd 1f 55 bd a4 cf 40 bd 6b ed c7 bd
       0.091846235 -0.05203246 -0.04707302 -0.09762081
000300 d9 ca 95 bd c6 05 7f 3e d1 df 5a bf 08 6e a4 3c
       -0.07314081 0.24904546 -0.85497767 0.020071998
000310 76 3c 95 3d fa 83 c2 bd 72 ab 86 3e b9 c8 6e be
       0.07286923 -0.09497829 0.26302677 -0.23318757
000320 cb 18 f2 be ed df 9d 3e 62 6d 76 3e bb 4a 1a be
       -0.4728454 0.30834904 0.24065164 -0.1506757
000330 d2 e3 7b be ef 82 19 3e 98 8f aa 3d d4 9a 33 be
       -0.24598625 0.14991353 0.083281696 -0.17539531
000340 34 b6 b4 3e ce ad f8 3e 92 75 6d 3c 5a a0 ac bd
       0.3529526 0.48570102 0.014493363 -0.08429022
000350 53 30 65 bd 21 54 19 3f 87 a5 6f be fa c6 e4 3d
       -0.05595429 0.59893996 -0.23402987 0.11170764
000360 f8 e8 f5 be 4d 11 0f 3e 42 84 1a be df c0 8a b9
       -0.48029304 0.13971443 -0.15089515 -0.0002646511
000370 14 0f d5 3e 30 f4 6c 3e d5 fe 03 bf 78 1c cb bd
       0.41613066 0.23140025 -0.5156072 -0.09917539
000380 a6 d1 58 bc 93 ad 34 3e cb 4e 4c 3c b5 4d 97 3e
       -0.013233578 0.17644338 0.012469958 0.29551473
000390 ec e5 3e be b6 a7 3e bd 36 ce 86 3e 64 01 0a bf
       -0.18642396 -0.04654666 0.263292 -0.5390837
0003a0 76 78 a9 bd 14 a9 aa 3d ae ad 81 3e ec f6 66 3e
       -0.08274929 0.0833303 0.2532782 0.2255513
0003b0 f9 75 6f 3b 5f fa 92 bc 50 02 fd 3d b3 48 60 3e
       0.0036538823 -0.017941652 0.12353957 0.21902733
0003c0 1a 40 3b be 65 54 80 3c 70 dd 90 3d 91 f4 06 3f
       -0.18286172 0.015665242 0.07073486 0.5271693
0003d0 4b 0f 21 3e 70 f6 41 3e e2 ba d1 be 1d c6 d1 3d
       0.1572849 0.18941665 -0.40962893 0.10242865
0003e0 fe 23 c3 be 51 40 84 3e ef 0e d1 3e b4 23 95 be
       -0.38113397 0.2583032 0.40831706 -0.29128802
0003f0 9c 8b 2a bd b1 9c 10 3d ad b4 a0 bd de 12 27 3e
       -0.041637048 0.035305683 -0.07846961 0.16315791

q1_fc2.bias f4 [256]
000000 ec 78 da bf 07 5b ae 3e aa 48 05 40 d0 ff e0 3f
       -1.7068152 0.34053823 2.08256 1.7578068
000010 b3 1a ab bf c2 d1 ea 3f 51 73 09 40 f0 72 3e 3f
       -1.3367523 1.8345263 2.1476634 0.7439413
000020 22 fb bf 3f 15 6e 8f bf ce 55 2c 40 9d 31 65 bf
       1.4998515 -1.1205469 2.692737 -0.8952883
000030 82 4f 97 3f ca 92 86 bf 58 a3 ff 3f f5 8c a5 bf
       1.1821139 -1.0513546 1.9971724 -1.2933642
000040 86 57 03 be 37 f6 dc bf 08 7e 9e bf e3 7a 0c 40
       -0.12826356 -1.7262639 -1.2382212 2.1950004
000050 fe 58 8b bf b5 d4 f9 be 56 2e 3c bf 7d dd f9 3f
       -1.0886533 -0.48795095 -0.73508203 1.9520718
000060 76 e7 f8 3e 7c 1f 2c 3f 0e 11 8d bf 0c f9 7c bf
       0.4861409 0.6723554 -1.102083 -0.98817515
000070 e5 c0 00 40 05 fb e8 3f 21 f1 03 40 68 1f 12 40
       2.0117733 1.8201605 2.0615923 2.283167
000080 3d 46 a4 3f 90 9c 1b 40 cd b7 2e 3e 58 23 6f bf
       1.2833935 2.4314308 0.17062302 -0.93413305
000090 86 9b e2 3f fa ee 95 bf ad 69 3a bf 8d 2f e3 3f
       1.7703712 -1.1713555 -0.728175 1.7748886
0000a0 b9 fa d0 bf a8 a6 08 40 07 d2 eb 3f 29 63 d1 bf
       -1.6326514 2.135172 1.842347 -1.6358386
0000b0 25 c3 ab 3f 5e 36 97 bf 39 ac 7b be 1f 0d c1 bf
       1.3418928 -1.1813467 -0.24577416 -1.5082129
0000c0 09 36 f1 3f 8b 1d 8f bf 23 c0 df be 51 26 80 bf
       1.8844615 -1.1180891 -0.43701276 -1.0011693
0000d0 09 40 d9 bf 80 f3 eb 3f bf 73 b1 bf eb ed 60 3f
       -1.6972667 1.8433685 -1.3863448 0.87863034
0000e0 7d b0 f2 bd db 87 c5 3f 57 cb c8 3f 42 53 e1 bf
       -0.11850069 1.5432085 1.5687054 -1.7603533
0000f0 cf 0d 07 3f 55 a5 01 40 8e 6c 02 40 ee c6 a6 3f
       0.52755445 2.025716 2.0378757 1.3029459
000100 5c 55 db bf ba 97 d3 3f 0e 7a 06 40 fb 7d 53 bf
       -1.7135425 1.6530678 2.1011996 -0.82614106
000110 97 58 d9 3c 4e 13 92 bf 38 00 4c bf 58 f5 02 40
       0.0265315 -1.1412141 -0.79687834 2.0462246
000120 89 03 12 3f ca 00 89 bf 11 9d 9c bf 5c 16 56 be
       0.57036644 -1.0703366 -1.2235433 -0.20906967
000130 1c 35 d2 3f 71 3c a5 be 19 8e 1f 40 4a df de 3f
       1.6422458 -0.32272676 2.493048 1.7411892
000140 38 2f 86 3d 53 23 f8 3f 52 39 d7 3b 1a 59 89 3e
       0.06551975 1.938578 0.0065681124 0.26825792
000150 eb 17 f1 3f a3 75 f0 3f f1 3b b5 bf a1 55 b4 bf
       1.8835424 1.87859 -1.4158918 -1.4088632
000160 26 45 c6 3f db 7f 92 3f b7 7e 9e 3f 97 b7 09 40
       1.5489852 1.1445268 1.238242 2.1518304
000170 bd 5c d2 bf 4a a6 35 bf af d4 09 40 6f b5 9c 3f
       -1.6434551 -0.7095686 2.1536062 1.2242869
000180 bf e3 93 bf f2 22 3c bf c3 24 37 40 43 78 8e 3f
       -1.1553878 -0.7349082 2.8616188 1.1130451
000190 d2 3b df 3f 2a dc ba be 83 a9 9c bf e2 53 bd be
       1.7440131 -0.36496097 -1.2239231 -0.3697806
0001a0 66 19 e3 bf 13 e5 db 3f 63 ff 54 bf 70 0b 08 40
       -1.7742126 1.7179283 -0.8320219 2.125698
0001b0 0e e0 da 3f 56 22 00 bc 2a e0 cf 3f 4c d7 99 bf
       1.7099626 -0.007820686 1.6240284 -1.2018828
0001c0 e6 99 12 bf 82 e0 48 bf 4c 22 24 3f 94 cc a9 3f
       -0.5726608 -0.7846757 0.6411483 1.3265557
0001d0 4f f1 73 bf 54 95 e4 3f 42 1a fd 3f b8 f0 b5 bf
       -0.9529008 1.7858071 1.9773638 -1.4214087
0001e0 d0 8f e3 3f a5 fe 6e 3f 3f b5 05 40 76 4b 43 bf
       1.7778263 0.93357307 2.0891874 -0.7628702
0001f0 5b ef cd 3f f9 e8 93 3f 05 c6 98 bf d5 c4 fa 3f
       1.608867 1.1555473 -1.1935431 1.9591318
000200 6e c3 c2 bf 1e 93 a6 bf 35 cb b1 be ae 5a 30 40
       -1.521589 -1.3013647 -0.34725347 2.7555346
000210 b3 a7 ca 3f fd 5d c4 bf 7e 5a 82 bf 8b dd ef 3f
       1.5832428 -1.5341183 -1.0183866 1.8739485
000220 39 b4 d8 3f 77 c8 ae bf cf 7b 89 bf 27 89 b5 bf
       1.693 -1.3654927 -1.0740908 -1.418248
000230 3d cf 03 bf 4f 1e c5 bf ef 7e 62 bf 8d c3 b7 3f
       -0.51488096 -1.5399874 -0.88474935 1.4356552
000240 4c d9 c1 bf c6 6d 39 bf b6 ed 2b bf 1a 9b 04 3f
       -1.5144439 -0.72433126 -0.67159593 0.51799166
000250 73 63 40 bf 91 41 d1 3f 78 05 94 bf e4 c9 ca bf
       -0.7515175 1.6348134 -1.1564169 -1.5842862
000260 0f fa c6 3f 90 cc 7b bf e5 00 8a bf 98 47 f5 3f
       1.5545062 -0.9835901 -1.0781523 1.9162474
000270 53 a3 d9 3f f6 ec f0 3f 56 59 d6 3f 78 95 e4 3f
       1.7002968 1.8822315 1.6746013 1.7858114
000280 ee e4 8f bf af a6 d3 bf 3f 01 b4 bf ec 0b 97 bf
       -1.1241739 -1.6535243 -1.406288 -1.1800513
000290 fe 59 a4 3f 6c 2a ca 3f e0 b6 5d bf 6a 4b e0 3c
       1.2839963 1.5794196 -0.8660717 0.02737971
0002a0 f4 fe dc 3f 84 c9 f8 3f 8d 14 95 bf 5b 8e 9f bf
       1.7265306 1.9436498 -1.1646897 -1.2465318
0002b0 15 7e c5 3c e4 aa 86 3f 5e fe aa bf b3 e7 dd 3f
       0.024107972 1.0520902 -1.3358877 1.7336334
0002c0 43 76 c7 bf 5e 0b fc be bc b0 81 bf 71 14 fd 3f
       -1.5582966 -0.49227422 -1.013206 1.9771863
0002d0 13 b3 b8 3f 18 59 02 bf 57 9c ea 3f b3 07 9d bd
       1.4429649 -0.50917196 1.8328961 -0.07667484
0002e0 8b 05 51 3f 5d cb 94 bf 32 f2 c7 3f 68 68 94 3f
       0.8164908 -1.1624562 1.5620787 1.1594362
0002f0 99 c0 a0 bf d1 5f da 3f 9e 19 08 40 7d f4 0f 40
       -1.2558776 1.7060491 2.1265635 2.2492974
000300 9f 80 45 bf 01 7e 34 bf 3e a4 c9 bf 80 14 86 bf
       -0.77149385 -0.70504767 -1.5753248 -1.0475006
000310 12 eb f9 3f 5e 4c 84 bf 61 9a a2 3f 96 ea 6b bf
       1.9524863 -1.0335805 1.2703363 -0.92154825
000320 72 9a d1 bf f6 e4 e7 3f ee c4 c6 bf d6 e7 26 40
       -1.6375258 1.8116748 -1.5528848 2.6079001
000330 45 51 7f bf ef c9 cf 3f 5d 8f 4c bf b3 55 76 3f
       -0.9973338 1.62335 -0.79906255 0.96224517
000340 5b 92 31 40 85 8b df bf 1b ea e0 3f 65 65 ba bf
       2.7745578 -1.7464453 1.7571443 -1.4562193
000350 82 50 b5 bf e2 9d 20 40 bc 57 df be 6e f2 b6 3f
       -1.4165194 2.5096364 -0.43621624 1.4292734
000360 09 10 03 40 ac 9c 22 40 77 65 07 40 2c ab 84 3f
       2.0478537 2.5408125 2.115568 1.0364738
000370 20 ba 9b bf ef e9 c1 bf a8 5d 9f bf a2 5b 40 bd
       -1.2166176 -1.5149516 -1.2450457 -0.046962388
000380 90 d1 d9 3f 54 b2 bf bf d3 94 a5 bf dc b3 ca be
       1.7017078 -1.4976296 -1.2936043 -0.39590347
000390 7b 1a 09 40 fe 6b bf 3e 9c aa 48 be 2f 46 d7 bf
       2.1422412 0.3738708 -0.19596332 -1.6818293
0003a0 33 a8 da 3f 07 14 0a 40 4e d8 b3 bf 88 ba ba bf
       1.708258 2.1574724 -1.4050386 -1.4588175
0003b0 c4 cd ba 3f 76 4e 86 be 1d 64 05 40 59 d3 91 bf
       1.4594045 -0.26231736 2.0842354 -1.1392623
0003c0 85 a7 b4 3f b0 77 12 40 55 59 b5 3f f3 e3 b6 bf
       1.4113623 2.2885551 1.4167887 -1.4288315
0003d0 ae fd 83 bf 4c 6f 89 bf 54 f4 32 3f fa 53 c1 3f
       -1.0311792 -1.073709 0.69904065 1.5103753
0003e0 02 32 45 bf 67 e9 b9 3f 9d af 91 bf 32 c9 a6 bf
       -0.7702943 1.4524354 -1.1381718 -1.303015
0003f0 16 67 8f bf b8 a4 a0 3f 50 1e 9c bf a9 a9 04 3f
       -1.1203334 1.2550268 -1.2196751 0.5182138

q1_output.weight f4 [1, 256]
000000 3c 1c 38 bf c6 8c ec 3f e7 a6 df 3e a1 34 cb 3e
       -0.7191808 1.8480461 0.43682024 0.3968859
000010 00 e2 9f be 8e 7d 9e 3e d5 39 a7 3e 70 72 5a 3f
       -0.31227112 0.30955166 0.3266131 0.8533087
000020 40 c1 09 3f 70 09 b1 be 3a 40 1e 3f 0a d0 25 bf
       0.538105 -0.34577513 0.6181675 -0.6477057
000030 ea f4 12 3f 64 2e f2 bf 67 32 8d 3e 53 3d 9a be
       0.5740496 -1.8920407 0.27577516 -0.30124912
000040 17 0a de c0 cb c3 3c bf c8 4d 93 be 1d 01 c0 3e
       -6.9387317 -0.73736256 -0.2877028 0.3750085
000050 89 72 b5 be 0e 5c e5 be 27 10 77 bf a1 c5 84 3e
       -0.35438946 -0.44796795 -0.9650902 0.2593203
000060 2b c3 9c 3f e4 33 ce 3f 72 e8 30 bf e9 00 d5 be
       1.224706 1.6109586 -0.69104683 -0.41602257
000070 3f 78 1f 3f 79 a1 f5 3e 6f fc 56 3e 12 c4 ea 3e
       0.62292856 0.47974756 0.20994733 0.45852715
000080 a1 44 4b 3f 99 8e d2 3e 77 b4 50 3f 43 49 6c bf
       0.79401594 0.41124418 0.8152537 -0.9229929
000090 77 36 74 3e 71 dc 01 bf 1f 7b 39 c0 21 49 e0 3e
       0.23848902 -0.5072699 -2.8981397 0.43805793
0000a0 51 a0 ab be 0b 5c f9 3e 92 31 a2 3e 2d c6 bc be
       -0.3352075 0.48703036 0.31678444 -0.36869946
0000b0 9c 12 e8 3e 25 32 e0 be c1 40 8a c0 8b ae a1 bf
       0.45326698 -0.43788257 -4.3204045 -1.2631391
0000c0 6c 5c 8a 3e 92 ff 1d bf f4 5c bc c0 e2 05 03 bf
       0.27023637 -0.61718094 -5.886347 -0.5118085
0000d0 6c fc fd be 51 1a cf 3e 22 41 ac be 64 b1 37 3f
       -0.49606645 0.40449765 -0.33643442 0.7175505
0000e0 0e ba 67 bf b0 a2 4f 3e 27 f3 c1 3e 2d 78 a5 be
       -0.9051827 0.20276904 0.37880823 -0.3231825
0000f0 c9 47 8c 3f 2d 8a 40 3f e8 c0 be 3e 8d 76 fc 3e
       1.0959407 0.7521084 0.3725655 0.49309197
000100 6d 9f f5 be e0 b9 db 3e b6 49 1c 3f 49 93 51 bf
       -0.47973195 0.4291525 0.61049974 -0.81865364
000110 13 96 8b 3f 1c 15 29 bf e5 62 25 bf 99 64 1f 3f
       1.0905174 -0.66047835 -0.64604026 0.62262875
000120 82 f7 02 40 69 d3 1e bf a9 fa 12 bf a7 65 0d c1
       2.0463567 -0.62041336 -0.5741373 -8.837317
000130 d3 93 88 3e fc f9 d6 c0 49 84 7e 3f 3f f8 50 3e
       0.2667528 -6.7180157 0.994206 0.20407198
000140 84 52 57 3f 11 f9 7e 3e e1 02 28 c1 f3 26 84 3f
       0.84110284 0.24899699 -10.500703 1.0324386
000150 a3 8f 62 3e 29 cc b2 3e c8 d5 4f be 73 a7 f6 be
       0.22125106 0.34921387 -0.20296395 -0.4817463
000160 6a 33 f3 3e 18 63 30 3f 51 d7 0e 40 c3 0d 67 3f
       0.47500163 0.68901205 2.2318919 0.90255374
000170 b6 1a f6 be cf 68 a9 bf ab 0f f7 3e b3 da 3b 3f
       -0.48067254 -1.323511 0.4825414 0.73380584
000180 f3 a4 fe bd d5 5a 2a bf 52 68 6f 3f 70 a5 11 3f
       -0.12433805 -0.6654485 0.93518555 0.5689306
000190 b2 51 8d 3e 5c 53 44 c0 c1 da e7 be 74 d2 0c c0
       0.2760139 -3.0675879 -0.45284083 -2.200345
0001a0 80 9c bd be bc d3 bd 3e 89 75 02 c0 a7 2e c6 3e
       -0.37033463 0.37075603 -2.0384238 0.38707468
0001b0 6a 97 9e 3e e2 bc 64 c0 11 ba 9b 3e 3e 0c 11 bf
       0.30974895 -3.5740285 0.30415395 -0.56659305
0001c0 90 46 d2 bf fb 3d c7 bf 6f 6d 8a 3f 1b 0d 2a 3f
       -1.6427784 -1.556579 1.0814646 0.6642625
0001d0 8a 3b f5 be e2 b2 90 3e 43 1d 10 3f cf 17 b7 be
       -0.47896987 0.28261477 0.5629465 -0.35760352
0001e0 92 9c e5 3d d0 08 28 3f 8a 4b cd 3e 4f 64 46 c0
       0.11211504 0.65638447 0.40096694 -3.0998724
0001f0 ce ec e1 3e 9f 4d 0d 3f fa bd 40 be c5 70 b7 3e
       0.4412598 0.55196565 -0.1882247 0.35828224
000200 98 8f 72 be 9a 4a 8f bf cc 34 f8 c0 10 23 3f 3f
       -0.23687589 -1.1194642 -7.756445 0.74662876
000210 ba b3 ec 3e 65 d6 87 be 8a 3f 61 bf d4 5b 41 3e
       0.4623087 -0.26530758 -0.8798758 0.18882686
000220 88 d9 80 3e ac 15 07 bf 5a f9 03 bf 02 81 00 bf
       0.25165963 -0.52767444 -0.51552355 -0.5019685
000230 b7 37 f5 bf cf 76 b2 be a8 c6 f7 bf ad 39 0e 3f
       -1.9157628 -0.3485627 -1.93575 0.55556756
000240 84 a4 1b bf 9b d5 b5 bf c6 9d cc bf db 6a 74 3f
       -0.60797906 -1.4205812 -1.5985649 0.9547555
000250 0d d2 a6 bf 32 58 c2 3e 8c 43 18 bf 87 dd fc be
       -1.3032852 0.37957913 -0.5947807 -0.49387762
000260 18 87 23 3f 04 f8 b7 be 80 7a 1c bf c3 6d 7a 3e
       0.6387801 -0.35931408 -0.6112442 0.24455933
000270 79 82 e5 3e f3 4b 29 3e f8 c3 c1 3e db 9a d4 3e
       0.44826105 0.16532879 0.37844825 0.41524395
000280 06 de 62 bf cf 98 97 be 1a d1 9f bf da ab 29 bf
       -0.8862003 -0.2960877 -1.2485688 -0.6627785
000290 f0 dd 54 3f 80 98 87 3e 41 52 22 bf 04 46 29 c1
       0.8315115 0.26483536 -0.6340676 -10.579594
0002a0 24 67 86 3e e0 c0 2c 3f 07 3d 62 bf ec 5d 03 bf
       0.26250565 0.67481804 -0.8837437 -0.5131519
0002b0 e2 d8 57 3c 68 09 38 3f 91 e7 11 bf dd 65 d7 3e
       0.0131742675 0.7188935 -0.5699397 0.42069903
0002c0 a2 13 81 bf c8 7e 33 c0 69 6c 0a bf 98 0f 19 3f
       -1.0084116 -2.804613 -0.5407167 0.5978942
0002d0 56 7d db 3e 8f e4 c8 c0 95 8d 46 3e 96 0a 3b c1
       0.4286906 -6.2779 0.19389947 -11.690084
0002e0 a1 7f 46 3f be 39 29 bf 60 50 ab 3e 7f 34 1d 3f
       0.77538496 -0.6610373 0.3345976 0.6140823
0002f0 da 6f 5a bf 4e 65 84 3e fe 09 29 3f 9c 42 bc 3e
       -0.8532692 0.2585854 0.6603087 0.3676957
000300 c6 79 2b bf 26 61 ec be 91 8c f1 be 6e 1c cd be
       -0.66982687 -0.46167868 -0.47177556 -0.40060753
000310 1b 52 70 3e 5c c8 11 bf 1f 5c ef 3e fd 12 0b bf
       0.23468821 -0.5694635 0.4674997 -0.5432585
000320 be 5c b9 be 66 d9 e4 3e 40 bf 11 bf a1 3e 5b 3f
       -0.3620357 0.44697112 -0.5693245 0.8564244
000330 fd a4 dc be cd 64 c5 3e 78 6e 24 bf 43 18 f3 3e
       -0.43094626 0.38553467 -0.6423106 0.47479448
000340 b4 80 87 3f 3e 1c c2 be 7a a2 cd 3e 94 a5 61 be
       1.0586152 -0.37912172 0.40163022 -0.2203582
000350 a9 df b3 be 12 1d 11 3f 30 5b 46 c1 a1 e8 b5 3e
       -0.35131577 0.5668498 -12.397263 0.35529044
000360 f2 9d 9b 3e ad db 26 3f 5f 68 02 3f 81 b6 6c 3f
       0.3039394 0.6517895 0.5094051 0.9246598
000370 a2 11 a2 be 9d 01 21 bf a9 b3 69 bf 75 7e 6d 3f
       -0.31654078 -0.62893087 -0.91289765 0.92771083
000380 5a c4 08 3f 06 d4 05 bf 99 58 5a bf cd 6b 8b c0
       0.5342461 -0.5227665 -0.8529144 -4.3569093
000390 1f 87 0d 3f 0c ab 8c 3f 50 a4 94 bf f7 eb f4 be
       0.55284303 1.0989699 -1.1612644 -0.47836277
0003a0 af 7b 95 3e a0 07 d9 3e 8c ec 0c bf 96 e7 8a bf
       0.29195926 0.4238863 -0.5504844 -1.0851924
0003b0 c3 00 b0 3e b2 3c 99 c0 b3 e9 49 3e 64 2b 89 bf
       0.3437558 -4.788659 0.19718055 -1.0716367
0003c0 05 05 eb 3e 2a 8e be 3e 14 03 9b 3e 53 85 ed bf
       0.45902267 0.37217838 0.30275786 -1.8556312
0003d0 9b 4f 19 bf 0d 3a 6a bf 05 88 09 3f 1b 24 23 3f
       -0.59887093 -0.9149483 0.53723174 0.6372697
0003e0 b4 b7 3d bf f7 fe c1 3e a0 20 d5 be 9a b6 64 be
       -0.74108434 0.37889835 -0.41626453 -0.22335282
0003f0 da 9b 93 bf b2 8b bc 3e 04 4d a5 be e2 c9 89 3f
       -1.1531937 0.3682533 -0.3228532 1.0764735

q2_fc1.weight f4 [256, 23]
000000 51 f7 ee bf 1e d0 a1 bf 5c f0 f7 3f d3 8e f4 bd
       -1.8669225 -1.2641637 1.9370227 -0.11941304
000010 32 fb 2f 3f 3a ac 5c 40 70 56 88 40 7d 59 a7 3f
       0.6874267 3.4480119 4.2605515 1.3074185
000020 30 89 17 be a6 f1 31 bc e6 7f 41 3f 9d bf 83 be
       -0.14798427 -0.010860836 0.7558578 -0.25732127
000030 6a 4f 13 be ce 0d 30 bc 39 41 e5 3d 72 31 01 3e
       -0.14385763 -0.010745479 0.11194081 0.12616518
000040 05 bc 2a 3e e7 a6 53 be 5f de 98 be d0 e3 57 3e
       0.16673286 -0.20669137 -0.29857156 0.21082997
000050 09 98 90 bf 0a 40 ed be 99 ad 3f 3e b7 4a a4 3f
       -1.1296397 -0.4633792 0.18718566 1.2835301
000060 38 b9 56 be 16 11 b5 3f 98 4a 00 bf 11 29 af 3f
       -0.20969093 1.4145839 -0.5011382 1.3684407
000070 51 e4 d8 be 1e 29 bd 3e 20 35 71 be ed d8 02 bf
       -0.42361692 0.36945432 -0.23555422 -0.5111225
000080 22 2b 05 3e cf 4d 4c be d2 4a 66 be 29 cd 9a 3d
       0.13004735 -0.19951557 -0.22489479 0.075586624
000090 6b 7e 4f 3e 5e 2a 69 3d 19 63 91 bc 19 63 1b bc
       0.20263068 0.05692517 -0.017747449 -0.009484076
0000a0 3d 0e 93 3e 23 31 0e be 0b ec bc bd 4e 8e a0 3e
       0.287218 -0.13885932 -0.09224709 0.3135857
0000b0 4c 48 0c c0 80 c8 47 be 27 30 67 c0 1b c4 bc 3f
       -2.1919127 -0.19510078 -3.612314 1.4747347
0000c0 01 2e fa be c4 88 12 bf d4 a2 4e 3e 71 60 e6 3f
       -0.48863223 -0.5723994 0.20179302 1.7998182
0000d0 63 e5 d3 3f a9 7b 68 3e ae 76 96 3e 16 2c b7 bf
       1.6554378 0.22703423 0.2938742 -1.4310329
0000e0 10 29 1c 3f 9f fa 1f 3d 7e b3 b9 3c e1 5b e8 3b
       0.61000156 0.03905737 0.022668596 0.007091031
0000f0 6f 24 ca bb ae 7d 02 3e f3 4b cc 3c 68 c0 d0 3e
       -0.006168894 0.12743255 0.02493856 0.40771794
000100 ab bf 07 3e ac 6e aa 3c fb 72 c2 bd 04 47 20 bd
       0.1325671 0.020804726 -0.09494587 -0.039130226
000110 72 8a 95 3d f8 3f 47 40 d6 61 1d bf 40 75 92 3e
       0.07301797 3.1132793 -0.6147741 0.2860508
000120 bc 3d 96 bf 92 b6 92 3e bb 85 83 3f 2b df a7 be
       -1.173759 0.28654915 1.0275186 -0.3278745
000130 7e b6 85 3e 52 14 03 be 2c 72 63 3e 76 bf 1a 3f
       0.26115793 -0.1280072 0.22211522 0.60448396
000140 da ae 9e 3d 63 6b 04 3e 7a 78 3a 3d 3e 5d a9 bc
       0.07748194 0.1293159 0.04552505 -0.020674344
000150 39 78 c7 3d 1c 84 1a bd eb 1f 9e be 3f 4d 76 bd
       0.097397275 -0.037723646 -0.30883726 -0.06013226
000160 1d d3 a3 3c 46 60 3b bf b9 4f 62 3f 41 b1 46 be
       0.019998128 -0.73193777 0.884029 -0.19403554
000170 3e f9 85 40 9b df ff be ae a4 49 3e e9 df 68 3f
       4.186675 -0.49975285 0.19691727 0.9096666
000180 17 91 b6 bf be e2 06 40 57 a6 02 40 65 94 69 bf
       -1.4263028 2.1075892 2.0414026 -0.9124206
000190 fa 52 c0 be a7 e9 5f bf 55 3d 11 3e 43 fd a5 3d
       -0.37563306 -0.874659 0.14183553 0.081049465
0001a0 ec df c9 3c 80 e5 0d be 82 6d 6d bd 6d 3e 39 3e
       0.024642907 -0.13857079 -0.057965763 0.1809022
0001b0 dc 72 58 be 94 ff 29 3f 99 27 13 3f da 46 09 bf
       -0.21137565 0.66405606 0.57482296 -0.53623736
0001c0 57 bc 92 bf 11 cc 9f bb ba de 83 3e d3 2d bc 40
       -1.1463727 -0.0048766215 0.25755864 5.880594
0001d0 0b 25 2d c0 f6 15 76 bf 22 01 a8 bd 19 86 9a bf
       -2.705386 -0.9612726 -0.08203341 -1.2072173
0001e0 68 00 a5 3e 2a aa 56 3f ec 52 2b 3e 90 32 01 be
       0.32226872 0.838534 0.16730851 -0.12616944
0001f0 65 98 80 3f e6 03 4b be 19 38 8d 3d d4 1f c1 3c
       1.0046507 -0.19825706 0.068954654 0.023574747
000200 70 e3 72 bb cb ce 88 bd b3 83 9b bb b3 22 05 3d
       -0.0037061833 -0.06680068 -0.0047459244 0.032503795
000210 6a 30 61 3f 0e 10 44 bf 78 33 a5 3e ac 2e f4 3e
       0.879645 -0.76587 0.3226583 0.47691858
000220 aa 25 55 bd ae 7c 58 3d 7d 24 0a 40 63 be d7 bf
       -0.052037872 0.05285328 2.158477 -1.6854976
000230 81 1f 7e be eb 32 b9 3e 7d cd 00 c0 7d a7 02 40
       -0.24816705 0.3617166 -2.012542 2.0414727
000240 5e d5 29 bf 83 6f 05 3f dc 68 51 bf 87 1a 3c bf
       -0.663412 0.5212328 -0.8180063 -0.7347798
000250 a8 5e d3 be 1a 6b 01 3e 68 17 ab bd b3 35 2a 3e
       -0.41283154 0.12638512 -0.08354074 0.16622047
000260 f7 56 68 bd 2a 57 d8 bd 5b f5 e0 bd e4 c2 48 bf
       -0.05672356 -0.105635 -0.10984298 -0.7842238
000270 f2 75 95 bf 18 36 c3 3e f1 83 84 bf ab 13 47 3e
       -1.1676619 0.38127208 -1.0352765 0.19441096
000280 7b 82 08 3f 3d 7c e3 bf 48 fe f4 3f a0 78 85 bf
       0.533241 -1.777229 1.91401 -1.0427437
000290 9d b5 cf 3d b6 cd 33 3e 19 68 ec be f1 ee 2b bf
       0.10142062 0.17558941 -0.4617317 -0.6716147
0002a0 7c 96 a8 bf 22 5e 2b be 82 90 45 3d 97 49 3f bd
       -1.3170924 -0.16735128 0.048233517 -0.04670104
0002b0 17 13 39 3c 2f 4e 1e 3c bf 08 84 bc b5 c5 48 bd
       0.011296055 0.009662195 -0.016117452 -0.049016673
0002c0 d7 6b bd 3e b3 45 0d be 2f 73 3c 3e c9 20 85 bd
       0.36996338 -0.1379612 0.18403314 -0.06500394
0002d0 00 f9 cb be 1e af a7 3f 13 bc 58 3f e4 0a 80 3e
       -0.3983841 1.3100317 0.8466198 0.2500831
0002e0 d4 c6 0d 3f 08 13 61 3f 8b 99 46 bf 77 27 dc 3d
       0.5538151 0.87919664 -0.7757804 0.10749715
0002f0 fb 33 59 3f d3 ee 06 bf 24 b0 44 bf 21 31 17 be
       0.8484494 -0.52708167 -0.7683127 -0.14764835
000300 b1 0a 52 be c6 78 ed 3e 15 27 f7 bd 95 86 63 be
       -0.20511891 0.46381205 -0.12068001 -0.22219308
000310 7c 0c 7b be 90 e2 44 bd 98 c5 29 be 54 ea 86 3e
       -0.24516481 -0.04806763 -0.16579282 0.26350653
000320 da d6 a7 be 73 f1 84 be 7e c0 c3 be d7 f8 76 be
       -0.32781106 -0.2596546 -0.38232797 -0.24118362
000330 17 2b b8 be 79 0c 00 3f 46 52 16 3e f4 99 2f bf
       -0.35970375 0.5001903 0.14679822 -0.6859429
000340 18 5c ff be 9b 4e 06 bd 5a ae 9e 3e 5f c9 36 bf
       -0.4987495 -0.032789808 0.30992395 -0.7140102
000350 13 79 95 be 44 64 eb 3f 61 9f ab 3f 7c ed 75 3d
       -0.29193935 1.8389974 1.3408014 0.060040936
000360 8f 9d 50 be 3b b8 74 3e 1e 06 40 bd 7c 07 80 3d
       -0.20372604 0.23898403 -0.046880834 0.062514275
000370 91 2c 61 bc 37 a9 94 bd 82 77 30 be 2b ba aa 3e
       -0.013743536 -0.07258838 -0.17233089 0.3334516
000380 5d 1b 7a be 87 03 75 bf f0 35 35 be f9 78 55 be
       -0.24424501 -0.9570851 -0.17696357 -0.20846929
000390 65 cc 3e 3f bf db 12 3f bc 9d bb c0 41 5c 2a 40
       0.7453063 0.57366556 -5.8630047 2.6618807
0003a0 af fa 0d be 33 63 8b be b6 1e de 3e 34 48 3e bf
       -0.1386516 -0.2722412 0.43382806 -0.74328923
0003b0 88 38 cf 3e 0b 6e dc 3d 3c 6c a6 3e ab 75 fd 3d
       0.40472817 0.107631765 0.3250445 0.12375959
0003c0 75 05 5d 3e ad e9 d5 3b fb 98 86 3d d7 c8 6d bc
       0.21584113 0.0065281005 0.065721475 -0.014513216
0003d0 2b 35 59 3d 90 81 2d bc fd 8e 8d bc 84 98 a8 be
       0.05302922 -0.010589972 -0.017280096 -0.3292886
0003e0 7b d1 9a bc f9 0a a8 bd 6f 8f 9f be 83 06 48 3b
       -0.018898716 -0.08205218 -0.3116412 0.003052146
0003f0 21 77 b4 bd 37 e6 24 c0 d9 ca b1 3f fe 2e 8c be
       -0.088117845 -2.5765512 1.3890029 -0.27379602

q2_fc1.bias f4 [256]
000000 b0 10 d8 be 70 0e c2 bd 17 12 98 bf eb 6f c9 3f
       -0.42200232 -0.0947541 -1.188052 1.573728
000010 73 af b3 3e a9 69 ac 3f 43 07 71 3f 58 38 b8 bf
       0.35094795 1.3469745 0.94151706 -1.4392195
000020 a8 fd eb bf 35 07 4e 3f ce 5e 42 c0 85 20 a9 bf
       -1.8436785 0.8047975 -3.0370364 -1.3213049
000030 77 d3 e6 3f a6 28 31 be ae 79 5b be 7b 66 cc bf
       1.8033284 -0.17300662 -0.21433136 -1.5968775
000040 78 23 ba 3f f5 a1 b5 3f 74 8e 95 bf a4 31 9e 3f
       1.4542074 1.419005 -1.1684098 1.2358899
000050 f3 5d 02 c0 06 cd 6e bf 61 52 4a 3f 79 a4 68 3f
       -2.0369842 -0.9328159 0.7903195 0.90875965
000060 f2 f8 17 3f ff 84 be 3c bd 17 1d c0 26 a9 f6 be
       0.59364235 0.023256777 -2.4545739 -0.48175925
000070 98 ed 54 3f 79 83 66 bf c8 7c 3e 3f d0 51 9c bf
       0.8317504 -0.9004436 0.7440915 -1.2212467
000080 3f e3 bb 3d 90 2b b5 bf 15 00 56 3f 1a 72 c5 bf
       0.09174203 -1.4153919 0.83593875 -1.5425446
000090 80 94 f5 be 36 f2 07 40 f2 c7 c4 3f a3 8d ed be
       -0.4796486 2.1241584 1.5373518 -0.46397123
0000a0 da fb fc be 04 94 c6 3f e2 74 d9 be 3b 51 10 bf
       -0.49410897 1.5513921 -0.42471987 -0.5637395
0000b0 e9 94 31 3e 92 ac b7 bf e4 32 87 3f 8f b7 5e 3c
       0.17341961 -1.4349539 1.0562406 0.0135935685
0000c0 eb 4f c5 bc c2 17 5e be 3f 58 d5 bf 2e 4d 05 be
       -0.02408596 -0.2168875 -1.6667556 -0.13017723
0000d0 21 05 0b 3f e0 1e f8 bf 23 c9 91 3f d1 c0 c6 3f
       0.543047 -1.9384422 1.1389507 1.5527593
0000e0 5f 94 81 bd 2c f7 f3 bf 5e dc e8 bf 9f eb 45 be
       -0.06327128 -1.9059806 -1.8192251 -0.19328164
0000f0 65 9c b1 3f fa 4d 93 3f 8c 90 d7 3f da f5 dc bd
       1.3875853 1.1508172 1.6840987 -0.1078908
000100 23 5b b2 bd 8f d4 01 bf 35 d7 a4 be 15 e1 93 bf
       -0.08708789 -0.50714964 -0.3219544 -1.1553065
000110 4e 7e ac 3e b3 e8 95 bf 93 29 aa bf fd 11 ec bf
       0.33690113 -1.1711639 -1.3293937 -1.844299
000120 a1 28 b4 bf c5 bf 88 3f a5 c2 c3 be 8c 72 bf 3f
       -1.4074899 1.0683523 -0.3823444 1.4956832
000130 46 ad 20 bf 1c eb c0 bf b9 38 84 be d3 0e fb 3d
       -0.62764394 -1.507175 -0.25824526 0.12258687
000140 c1 70 63 bf 9b 49 c2 3e 69 9a f3 3f 07 2c a0 bf
       -0.88843924 0.37946782 1.9031497 -1.2513436
000150 4f 4f b6 bf 5d 60 8f 3f ff 21 bf bf 6c 7c bf bf
       -1.4242953 1.1201283 -1.493225 -1.4959846
000160 43 e7 3f bf 1c cd d0 3d 4e 20 ce bf 80 ca e9 3f
       -0.7496225 0.101953715 -1.6103609 1.8264923
000170 81 25 c9 bf 3e fe a4 bf 2a 9d b3 3f d2 eb 4d bf
       -1.571457 -1.2890089 1.4032338 -0.8043796
000180 4d 95 83 3e f5 66 e6 3e 15 75 9f 3f 71 20 6b bf
       0.25699845 0.45000425 1.2457606 -0.91846377
000190 aa 7b c2 bd 20 f1 49 bf 04 ac 67 bf 3d 78 36 bf
       -0.09496243 -0.7888355 -0.9049685 -0.7127722
0001a0 33 5b 32 3f 86 6d 79 3f 27 94 99 bf e3 89 88 3f
       0.6967041 0.97432745 -1.1998338 1.066708
0001b0 e8 40 6a 3f 47 eb 19 3f 12 f6 99 3f b9 92 fc 3f
       0.9150529 0.6012463 1.202822 1.9732276
0001c0 a6 d4 6b bf 9d a6 85 bf 73 9d 98 be 7f d3 a4 3d
       -0.9212135 -1.0441471 -0.29807624 0.08048152
0001d0 19 ec 86 bf 50 1c 8b 3f 7c 78 f5 3e ae 75 c9 3f
       -1.0540801 1.0868015 0.47943485 1.5739038
0001e0 3e bf 31 bf 90 7a 1c 3f c9 7d 72 bf ce a3 97 bf
       -0.6943244 0.61124516 -0.9472318 -1.1846864
0001f0 c9 5e 08 bf 64 77 2c 3f c4 26 d5 be c4 e9 af bf
       -0.5326963 0.67369676 -0.41631138 -1.3743215
000200 8a ae ec be af 0a 51 bf f2 dc a6 3f 83 6a 12 40
       -0.46226913 -0.81656927 1.3036177 2.287751
000210 92 3d 91 bf 50 9a 28 3f a1 28 39 3f 10 76 95 3f
       -1.1346915 0.6586046 0.7232762 1.1676655
000220 13 94 8b 3f ee 20 9b bf b7 a9 ac be b9 8f 8a 3f
       1.0904564 -1.2119424 -0.33723232 1.0825111
000230 76 76 50 3f c1 ee 8d bf 60 b0 f6 bb 9e e7 16 40
       0.8143076 -1.1088487 -0.0075283498 2.3578868
000240 21 03 b3 bf a3 e4 11 c0 45 c6 da bf a4 94 22 bf
       -1.398533 -2.2795799 -1.7091757 -0.6350806
000250 32 3d ee 3f 22 6a 59 be 42 6c 93 3f 9c 43 a6 3f
       1.8612425 -0.21231893 1.1517413 1.2989383
000260 34 41 3f 40 2d 67 c5 bf 56 46 25 bf 6f 48 a8 bf
       2.9883547 -1.5422112 -0.6456045 -1.3147105
000270 06 cb f9 bf 43 45 da bf 9b 4b b9 bf 21 75 05 c0
       -1.9515083 -1.7052387 -1.4476198 -2.085274
000280 e5 2a ad bf da 92 83 bf f6 d4 f7 bd df 0b b1 bf
       -1.3528715 -1.027919 -0.12101166 -1.3831748
000290 db 9d d6 3e de 97 0c 3f b9 5e 5c 3e 92 ca 0f 3f
       0.4191731 0.5491923 0.21520509 0.5616847
0002a0 4b 7f 01 3f 0a e6 1e bf 1b 61 0d 40 6e 34 9c 3f
       0.5058486 -0.6206976 2.2090518 1.22035
0002b0 39 9e e5 3f f1 55 c0 bf d3 c7 c0 bf 02 96 38 be
       1.7938911 -1.5026227 -1.5060982 -0.18025973
0002c0 9e da ca bf 5a e0 41 3e de e3 c5 bf e3 63 5f 3f
       -1.5847967 0.1893324 -1.5460165 0.8726179
0002d0 5f db 8d bf b6 d3 c8 3f bc 08 e7 bf 09 43 4f be
       -1.1082572 1.5689609 -1.804954 -0.20240416
0002e0 2e c0 92 3f 61 d5 05 3e 87 13 33 3e c9 98 95 3e
       1.1464899 0.13069679 0.17487918 0.29218128
0002f0 8b f1 1c 40 fe c3 7e bf 08 6d 80 be 51 67 08 c0
       2.4522426 -0.9951781 -0.25083184 -2.131306
000300 a8 d5 3c 3e 6a 90 37 bf 1f 76 9d bf a3 bb d2 bf
       0.18440878 -0.71704733 -1.2301673 -1.6463512
000310 fc 00 88 bf a5 c5 b0 bf 0e 23 7b bf e5 74 10 bf
       -1.06253 -1.3810316 -0.98100364 -0.56428367
000320 29 24 2c 3f d8 e1 e6 3f 30 66 b5 bf 37 18 f8 3f
       0.67242676 1.8037672 -1.417181 1.938239
000330 af 0d 59 bf c8 79 f7 bf 38 34 34 c0 2c c0 50 3f
       -0.84786505 -1.933404 -2.8156872 0.8154323
000340 8d 26 b4 bf 11 35 0f bf 75 eb de bd 7b dd 5a bf
       -1.4074265 -0.5594035 -0.108847536 -0.854942
000350 71 21 6e 3d 58 18 c5 3f 12 df 4b 3f e9 96 08 bc
       0.05813736 1.5398054 0.79637253 -0.008336761
000360 5d 38 5b 3d a2 b9 90 3f 20 5b 0b 3f 21 f5 a2 3f
       0.05352055 1.1306651 0.5443592 1.2731057
000370 98 d7 6c bf f1 d7 08 3e 4e 50 23 3f c0 b2 79 bf
       -0.9251647 0.13363625 0.6379441 -0.97538376
000380 05 43 32 3f f7 9c a7 be b1 c2 43 bf 7d 42 af 3f
       0.69633514 -0.32736942 -0.7646895 1.3692166
000390 e2 8c ae 3f 09 2d 25 bf 0f d1 ba bf 04 d4 41 bf
       1.3636744 -0.64521843 -1.459505 -0.75714135
0003a0 48 b6 a2 bf f5 61 11 bf 50 8b 98 3d 15 33 ee be
       -1.2711878 -0.56790096 0.07448447 -0.46523347
0003b0 3c 05 1e 3e fc 6d 12 bf 35 72 5b 3e 1d 81 e8 be
       0.15431684 -0.5719907 0.21430285 -0.45411006
0003c0 03 be a8 3f 19 c3 e8 be 18 d8 21 3f cb b2 dc 3f
       1.3182987 -0.45461348 0.6322036 1.7242063
0003d0 88 47 e1 3e c3 f0 31 be d6 f0 9e bf 94 19 13 bf
       0.43999887 -0.17377 -1.2417247 -0.57460904
0003e0 2f 66 8c 3f 61 27 f9 3e 3c 99 f9 bf ec c9 d1 bf
       1.0968684 0.48662856 -1.9499888 -1.6389747
0003f0 d2 e1 39 bf 14 53 bc be af 07 b6 be e5 ed 8e 3f
       -0.726102 -0.36782134 -0.35552737 1.116635
