trained_model/01_HalfCheetah/TD3_Ours_critic.pth (torch, 582258 bytes, 10 tensors)

q1_fc1.weight f4 [256, 23]
000000 a8 c4 92 40 3c 57 4a c0 37 ee a0 3f 4d be cd 3e
       4.586506 -3.1615744 1.2572697 0.4018425
000010 c7 1c c1 be bf 95 c1 3f 52 ae 80 3f cd d1 dc 3d
       -0.37717268 1.5123824 1.0053198 0.10782204
000020 d5 98 13 bf 8c f9 c8 be e6 b3 02 3f 98 6c 71 3d
       -0.5765508 -0.3925289 0.51055753 0.058941454
000030 06 a1 ad 3e fe 5a 6b 3e 3b 6c 46 3e 53 4c ac 3d
       0.33911914 0.2298393 0.19377224 0.08412995
000040 92 a6 25 be d0 70 89 be f7 bd c0 bf 71 3a 27 be
       -0.16176823 -0.26843882 -1.5057973 -0.16330887
000050 9f 54 3e bd 67 1b 2d bf aa 95 8e 3e 93 5d f1 be
       -0.04646742 -0.6761994 0.2784856 -0.47141704
000060 51 a1 17 bf 3f d8 e5 bf f2 59 54 bf 70 55 ba be
       -0.59230524 -1.7956618 -0.82949746 -0.3639331
000070 c1 40 d0 3c 8e 56 b2 be 26 2c 7a 3e 9d 29 08 be
       0.025421502 -0.3483166 0.24430904 -0.13297124
000080 13 f3 b0 be 7f 1d a3 3e 0e 19 17 3e 17 a5 38 3d
       -0.3456045 0.3185844 0.14755651 0.045079317
000090 54 53 18 3d 0b f0 93 bd 11 5f c9 bd 09 68 09 3e
       0.037188843 -0.07223519 -0.098325856 0.13418593
0000a0 f6 95 58 3e 55 98 37 3e de 8b 6e 3f 34 22 96 3e
       0.21150956 0.17929204 0.9318217 0.2932297
0000b0 a6 2a ce 3e 8c 9c 73 3e f9 0c 8c c0 5c e0 46 bf
       0.40266913 0.23790187 -4.3765836 -0.77686095
0000c0 2d 12 18 3e 4a 04 6d be 9b c6 73 bd a6 8b dd be
       0.14850684 -0.23146167 -0.059515577 -0.43270606
0000d0 55 bd f7 3e eb e1 3a bd de 58 aa be 4f a7 f6 3e
       0.48386636 -0.04562561 -0.33270925 0.4817452
0000e0 4b 1b 5e be b2 ec d7 3b 7c 01 b2 bd c5 ab 32 3d
       -0.21690099 0.0065894956 -0.08691689 0.043620843
0000f0 68 9d b7 bd d4 4c 19 3e b5 04 1f 3e 28 cd 7f be
       -0.0896557 0.14970714 0.1552914 -0.24980605
000100 56 d2 a3 3d 82 46 99 3e e2 79 1a bd e5 f8 ef be
       0.07999103 0.29936606 -0.037713893 -0.4686958
000110 b6 e4 91 be c8 33 0f 40 f9 e5 d0 3f bf f2 14 bf
       -0.28494805 2.2375355 1.6320182 -0.581829
000120 30 8f 69 3e 44 9e 4c 3f 73 b0 8c 3e 58 06 85 be
       0.22808528 0.79928994 0.2747837 -0.25981402
000130 46 47 54 3e 14 0d 6d be e0 0b 68 3f d0 8a 54 3f
       0.20730314 -0.2314952 0.9064312 0.8302431
000140 11 65 4b be 43 07 b6 3d e9 c4 59 bd c2 f2 15 3d
       -0.19862773 0.08888104 -0.053166304 0.036608465
000150 28 4e be 3c ac 3e 41 be d1 41 b9 bd 95 58 52 bf
       0.023230627 -0.18871564 -0.090457566 -0.82166415
000160 a7 5f eb be 04 07 83 be 74 8e c4 be e6 eb 18 bf
       -0.45971414 -0.2559129 -0.38389933 -0.5973495
000170 31 57 a1 bf 36 f0 99 bf 51 5b 6c be 31 74 13 bf
       -1.2604734 -1.2026432 -0.2308171 -0.5759917
000180 4b e0 84 bf ee b1 b7 be fa e2 4e bf 69 6d be 3e
       -1.0380949 -0.35877937 -0.8081509 0.37192848
000190 67 f6 41 be ec bd 07 be 8b a6 02 3e 9c 66 2f be
       -0.18941651 -0.13256043 0.12758844 -0.17128986
0001a0 9d d9 3b be 90 f7 50 3e eb 22 3e 3e 12 f9 16 bd
       -0.18344732 0.20406938 0.18568008 -0.036858626
0001b0 86 19 1c bd bf 39 4d 3e d8 df 45 bd 8b d1 80 be
       -0.03811028 0.2004156 -0.048309177 -0.2515987
0001c0 5f 53 c3 3f b0 77 bf 3e d3 0b 24 bf 83 1e e9 3f
       1.5259818 0.37396002 -0.6408054 1.8212436
0001d0 43 56 50 3e 05 0c 37 c0 33 4b 91 3f 37 cc a6 bf
       0.20345406 -2.8601086 1.1351074 -1.3031071
0001e0 a3 a2 21 3f 4c b7 08 3f aa 7f 43 3e 2d 52 93 bd
       0.6313879 0.5340469 0.19091669 -0.07193408
0001f0 7e 57 16 bf aa b8 40 3f eb 88 5f bc c3 84 39 be
       -0.5872725 0.75281775 -0.013643484 -0.18117051
000200 06 c8 07 3e cd 47 56 3b 8f fc 4d 3e 4a 70 69 bd
       0.13259897 0.0032696605 0.20115875 -0.056991853
000210 9d 0a 15 3f f6 60 76 3e cd 5f ab bf 1d b6 12 bf
       0.5821932 0.24060425 -1.3388611 -0.5730913
000220 e5 fd 91 be cb f6 1a 3f 0d ab 54 40 37 90 ce bf
       -0.2851402 0.60532826 3.32294 -1.6137761
000230 a3 cb b6 3e 9c d6 61 3f d2 e3 37 bd d6 a6 d1 3f
       0.35702237 0.8821809 -0.044895 1.6379039
000240 8f 69 5d 3f d4 3e 02 bf e2 9e 67 be 30 3e e7 be
       0.86489195 -0.5087712 -0.22619203 -0.45164633
000250 16 6f 8e 3e 9a d5 5f 3c 97 85 7e 3d d4 2c 32 3d
       0.27819127 0.013661766 0.06213912 0.043499783
000260 9a 00 9f 3e 42 9e 89 3c 31 50 71 3e f3 43 47 be
       0.31055146 0.016799096 0.23565747 -0.19459514
000270 b8 a8 63 bf e0 b4 a5 3f 70 d2 4b be 43 16 8f bf
       -0.8892932 1.2945824 -0.19904494 -1.1178669
000280 43 11 94 3f 0e b0 ec c0 16 5e 0b 40 b2 1b 81 be
       1.1567768 -7.396491 2.1776175 -0.25216442
000290 85 88 5c 3f 38 73 85 3f df 3a 7c bf df 10 b3 be
       0.8614581 1.0425787 -0.9852733 -0.3497381
0002a0 05 73 cc 3d 88 12 40 bc 6f ce f1 be dc c9 00 be
       0.09982876 -0.011723168 -0.4722781 -0.12577003
0002b0 69 7f 17 3e 35 b0 19 3d 95 7e d7 bc a1 8c 85 3d
       0.14794697 0.03752156 -0.026305476 0.065209635
0002c0 d8 e8 10 3e 73 52 2e 3d 9b 3c f8 3e 6a ff 07 3f
       0.14151323 0.0425591 0.48483738 0.53124106
0002d0 b4 bd f9 bd 8c c0 40 bf 6f 45 bc bd dc 61 e1 3e
       -0.12194386 -0.75293803 -0.09192931 0.44019973
0002e0 51 66 32 bf de eb 92 3f b2 e5 02 c0 52 fc 7b 3d
       -0.6968737 1.1478231 -2.0452695 0.06151993
0002f0 cd 7a 0e 3f c9 f3 80 be 9c 2e 00 3f 3c 65 08 c0
       0.5565613 -0.25185993 0.5007112 -2.1311789
000300 a3 f5 a1 be a5 41 8b 3e 06 0f 34 bf 02 3e 5a be
       -0.31632718 0.2719852 -0.70335424 -0.21312717
000310 9b da 1d be 4d dc 5e 3e 63 5d 4c be 23 61 3e be
       -0.15415423 0.21763726 -0.19957499 -0.18591742
000320 ed 4d 00 be 20 6a 8a bf 7c 22 2d 3e e6 20 4e bf
       -0.12529726 -1.0813637 0.16907686 -0.8051895
000330 10 71 07 3f 27 8f d6 be f7 9c 00 3f d4 70 c9 bf
       0.52906895 -0.41906092 0.5023951 -1.5737557
000340 60 ee 21 40 e5 51 b5 bf 9f 18 41 3e 9d 67 9c be
       2.5301743 -1.4165617 0.18857048 -0.305478
000350 ed 51 18 40 94 42 ec 3f 10 c3 61 3f 3b f5 d5 be
       2.3800004 1.8457818 0.88188267 -0.41788658
000360 31 a9 81 bf fe 19 84 3f db ba fa 3d ca 32 48 3e
       -1.0129758 1.0320432 0.12242671 0.19550624
000370 8a 5a ee 3c 55 99 ce 3d ae ee 0b 3e 61 71 7b 3c
       0.029095907 0.100878395 0.13665268 0.015346856
000380 fb 3b f9 bc 78 a5 fb 3d ff 43 b7 be d1 9c 1e be
       -0.030424109 0.1228742 -0.35794064 -0.15489508
000390 7a ba 8b be 97 d1 d1 3d df 80 0b bd 89 73 0e 3f
       -0.27290708 0.10245054 -0.034058448 0.5564504
0003a0 62 1a 8e bd 51 8c 9a 3e bd 12 8c be a9 12 9d 3e
       -0.06938626 0.30185178 -0.27358046 0.306783
0003b0 77 7e c9 3e fc e4 65 3f 9c a9 67 3d 3d 80 a5 be
       0.39354298 0.8980253 0.056558236 -0.323244
0003c0 99 e0 c3 3c 5c a1 04 3e bf 8f f3 3b a7 98 1c bc
       0.023910807 0.12952179 0.0074329074 -0.0095578795
0003d0 a2 57 3c bd 49 b1 39 3d 83 77 e7 bd 9b 8f 1c 3e
       -0.04598201 0.045335088 -0.11302092 0.15289156
0003e0 e7 bb bc 3d 22 3a 10 bc 71 6a a0 be 9e ad 75 3e
       0.09215527 -0.008802922 -0.31331208 0.23992011
0003f0 e1 02 9d 3e 38 b5 38 40 a0 ca 5a bf a2 a9 97 bf
       0.3066626 2.8860607 -0.8546543 -1.1848643

q1_fc1.bias f4 [256]
000000 42 40 18 bf b5 07 71 3f 43 c2 73 3f 8d da da bf
       -0.5947305 0.94152385 0.95218295 -1.7097946
000010 04 22 11 3f a7 aa 0b bf 26 79 87 bf 47 cf b3 bf
       0.5669253 -0.5455727 -1.0583847 -1.4047631
000020 6c d1 11 3e 91 0c e6 3e cb c3 95 3f c9 2c 9a bf
       0.14240044 0.44931462 1.1700376 -1.2044917
000030 92 c8 03 40 05 ea 8e bf 87 76 42 3f 48 2b c3 3f
       2.0591168 -1.1165167 0.7596211 1.5247583
000040 96 ad 88 3f 94 61 4b bf cb 21 94 bf 38 26 e0 bf
       1.0677974 -0.7944577 -1.1572813 -1.7511663
000050 96 ed df bf 49 a4 b5 bf b8 78 79 3e 44 de 7c bd
       -1.749438 -1.4190761 0.24362457 -0.061735407
000060 b0 ec 04 bf 63 3e 92 bf c5 9f c2 3f a5 de b0 be
       -0.51923656 -1.1425289 1.5205008 -0.34544864
000070 1a e0 a3 3f ca 42 fd bd 6a 8f b6 3f 26 52 f7 3e
       1.2802765 -0.12366255 1.4262516 0.48304862
000080 c8 60 86 bf 86 a2 8b 3f 1a 33 d8 3f 38 f5 f1 3e
       -1.0498285 1.0908973 1.6890595 0.472574
000090 e4 4d b9 3e f7 b6 9b 3f 76 fb b1 bf 19 14 4c 3d
       0.36192238 1.2165211 -1.3904865 0.049823854
0000a0 4c 6f 76 3c c8 87 40 3f 0a eb ea 3d 15 e9 b6 bf
       0.015041184 0.75207186 0.114706114 -1.4289881
0000b0 b3 cf 6a bf 98 13 68 bf a8 6e e7 3e 56 04 cb 3f
       -0.91723174 -0.906549 0.45201612 1.5860698
0000c0 69 91 c4 be b0 a9 b5 3f 56 a4 df bf c1 fe ed 3e
       -0.3839219 1.419241 -1.7472026 0.46483424
0000d0 90 4f 95 be 8a 77 c3 be c5 d0 de bf bd d7 31 bf
       -0.29162264 -0.3817714 -1.7407461 -0.69469815
0000e0 69 73 d9 be d2 cb 69 bf 9c 85 0c bf 5f 34 b5 3f
       -0.42470863 -0.9132663 -0.5489137 1.4156607
0000f0 ff 34 b0 3f 50 7c d3 bf a2 da ac bf 4e 0d 93 bf
       1.3766173 -1.6522312 -1.3504221 -1.1488435
000100 d7 d2 33 bf 52 e6 c3 bf 04 a7 e7 be 8e 32 11 bf
       -0.7024359 -1.5304663 -0.4524461 -0.56717765
000110 06 12 11 bf 07 6a dd be fd 67 c9 3b c3 38 4a 3f
       -0.56668127 -0.43244955 0.0061464296 0.7899286
000120 ea 5a 96 bf 23 73 f4 3f f1 46 80 3f 83 01 6e 3f
       -1.1746495 1.9097637 1.002165 0.92971057
000130 ef 1b 67 bf 5d e9 a4 bf 64 b2 b0 3f 97 e6 28 40
       -0.90277 -1.2883717 1.380444 2.639074
000140 19 b0 66 bf 6d fc 13 40 63 fa a5 be 7a ca e3 bf
       -0.90112454 2.3122818 -0.32417592 -1.7796166
000150 9c 4d bf 3e 12 31 c9 bf 35 fd 5d 3f 95 5e 98 3e
       0.373639 -1.57181 0.8671449 0.2975966
000160 e7 b7 f1 3f da f0 3e bf 13 6a a2 bf c4 a9 98 bf
       1.8884248 -0.7458626 -1.2688621 -1.1926808
000170 05 d6 0c bf aa 79 95 bf 43 4c 08 3e 6b 05 4c 3f
       -0.5501407 -1.1677754 0.13310342 0.7969577
000180 a8 18 50 be a1 18 0b 3f 2d 80 33 bf 79 a8 e1 3f
       -0.20321906 0.54334456 -0.70117456 1.7629539
000190 c9 b7 cf 3f a2 cd b1 3f 42 eb eb be af ef 4b bf
       1.6227962 1.3890879 -0.46077925 -0.79662603
0001a0 60 1b dc bf 74 d7 43 bf 2a a8 61 bd a0 4c d7 bf
       -1.7195854 -0.7650063 -0.055092014 -1.6820259
0001b0 30 12 c4 3f ec 27 8d bf 9b ec e2 3f 60 e1 1e 40
       1.531805 -1.1027808 1.7728456 2.4825058
0001c0 d3 de 11 bf 0b 70 8b be b8 08 01 3e f4 35 40 bf
       -0.5698063 -0.2723392 0.12600982 -0.75082326
0001d0 e5 7a ba 3f 17 00 38 be f2 84 2f 3e 2b 50 9a be
       1.4568754 -0.17968784 0.17140558 -0.30139288
0001e0 3c a2 00 bf 08 ba 8d bf c7 03 1b bf cc fb 61 3f
       -0.5024755 -1.1072397 -0.6055264 0.88274837
0001f0 20 31 ca bf 9f a3 88 bf 1c cb aa bd 4c 07 a3 3d
       -1.5796242 -1.0674933 -0.08339521 0.07960376
000200 12 01 7d 3e dc f7 cf 3d 98 af 7c 3f 4f c3 88 3f
       0.2470744 0.10154697 0.98705435 1.0684603
000210 a7 31 8f bf fc c0 84 bf 65 f5 39 bf 5a 7a ba be
       -1.1187028 -1.0371394 -0.7264007 -0.36421472
000220 ce d1 a5 3f 2a b7 72 bf c8 7c 58 3f 89 09 47 3d
       1.2954652 -0.94810736 0.845654 0.048593078
000230 be b4 e0 be cd 3b 4a 3f c4 b9 64 3f 76 39 75 3d
       -0.43887895 0.789975 0.89345956 0.059869252
000240 08 e2 4b bf d9 06 e0 bf 17 bd aa bf fe c1 aa 3f
       -0.7964177 -1.750209 -1.3338956 1.3340452
000250 36 d0 53 3f 84 72 e2 3e 5e e8 1b 3f 3d 72 0b bf
       0.8273958 0.44227993 0.6090144 -0.5447119
000260 7c bd c7 3f d5 b8 ac bf a8 eb 94 bf 80 14 a1 3f
       1.5604701 -1.3493906 -1.1634417 1.2584381
000270 b5 db 5f be ad c6 28 3f 6e 10 9a bf 11 04 a5 bf
       -0.21861155 0.65928155 -1.2036264 -1.2891866
000280 ff ac 84 bf ae 60 9d 3e 00 86 c9 be 7e 02 17 bf
       -1.0365294 0.30737823 -0.39360046 -0.5898818
000290 74 78 1a c0 66 ad bd 3d f5 22 6a 3e 69 8e 12 3f
       -2.4136019 0.09261589 0.22864898 0.5724855
0002a0 2e 40 17 3f fb d9 55 3f c4 1d d3 be 1d 7c 37 bd
       0.59082305 0.83535737 -0.41233647 -0.044796098
0002b0 fb b8 37 bf ed 9f c5 3e b6 a6 d4 bf 20 8e 27 3e
       -0.7176663 0.38598576 -1.6613376 0.1636281
0002c0 29 cb 76 be d2 63 93 bf df b7 f3 be 2b 56 b7 bf
       -0.24100937 -1.1514838 -0.4760122 -1.4323171
0002d0 c8 b6 94 be d6 26 c1 be 19 2b 8d bf 15 65 9c 3e
       -0.290457 -0.37724942 -1.1028777 0.3054587
0002e0 e0 e2 41 bf 14 7a 24 be 21 11 af 3f 06 86 77 3f
       -0.7573681 -0.16062194 1.3677102 0.9668888
0002f0 54 6e 72 bf 17 fa 43 3f 37 f4 66 bf c3 30 cf bf
       -0.946996 0.7655348 -0.9021639 -1.6186756
000300 be c8 aa 3e eb d7 95 bf 5b cd 8d bf 91 a1 27 be
       0.3335628 -1.1706518 -1.1078295 -0.16370226
000310 34 ed 4e 3f 26 5d c1 bf d8 50 75 3f c6 52 a4 bf
       0.80830693 -1.5106552 0.9582648 -1.283776
000320 f1 e6 fc bf f0 3f b5 bf ae 77 e3 be ce ef 1f bf
       -1.9757978 -1.4160137 -0.44427246 -0.6247529
000330 b3 42 70 bf e5 fd e7 bf ac 18 ad 3e ab 30 c9 bf
       -0.93851775 -1.8124357 0.33807886 -1.5717977
000340 0b d1 a4 be 12 49 83 bf fb 9d 7d 3f 13 98 58 3f
       -0.32190737 -1.0256674 0.99069184 0.84607047
000350 0a 5d 84 bf 5b 77 ad 3e 2d 57 56 3e c8 60 80 3d
       -1.0340893 0.33880123 0.20931692 0.062684596
000360 bb 72 a5 bf 25 84 bc bf 7b 3b 00 40 59 08 94 bf
       -1.2925638 -1.4727827 2.0036304 -1.1565048
000370 58 0f 73 3f 43 bb e2 bf 41 98 9b bf 9c 81 57 3f
       0.9494529 -1.7713398 -1.2155839 0.84182143
000380 bd 4e 05 c0 68 0e df bf 85 1c 5f be ea a9 6d bf
       -2.0829308 -1.7426271 -0.21788223 -0.92837393
000390 ed f6 d8 bf 81 15 8a 3f 81 0d 8f 3f f0 fb cf bf
       -1.6950356 1.0787812 1.1175996 -1.624876
0003a0 b4 ae a1 bf fa 21 30 3f 40 af 31 bf 4e 7a a2 be
       -1.263144 0.68801844 -0.69408035 -0.31733936
0003b0 3a f9 a3 3e 1c 00 0c c0 88 8a 24 bf 17 00 a9 3e
       0.32026082 -2.1875067 -0.6427388 0.3300788
0003c0 c1 6b a5 bf 7b bc 8d 3f de f6 73 bf 64 52 47 bf
       -1.2923509 1.1073145 -0.95298564 -0.77860093
0003d0 ce 92 95 3f 6d 1f a1 3f 33 e5 c5 bf 09 b8 60 3f
       1.1685426 1.2587715 -1.5460571 0.87780815
0003e0 58 f5 9f bf a9 af a3 bf ac d5 65 bf cb b8 dc bf
       -1.2496748 -1.2787982 -0.8977916 -1.7243894
0003f0 04 f6 98 bf 70 8e fc 3f f5 50 70 3f e5 0b 99 3f
       -1.1950078 1.9730968 0.9387353 1.1956755

q1_fc2.weight f4 [256, 256]
000000 f7 59 19 bd 68 49 37 be e1 86 1b bc 6b 7c e6 3d
       -0.037439313 -0.17899096 -0.009492607 0.112541996
000010 46 4a 1f 3e 9f 61 bf 3e f4 c0 18 3f bc 4a d3 be
       0.15555677 0.37379166 0.59669423 -0.41267955
000020 5f 78 9b be f0 06 30 3f b1 75 4d 3e 1a 37 15 3f
       -0.30365273 0.68760586 0.20064427 0.58287203
000030 b9 7a 82 bd 0f f3 7c be d6 ec 87 3d fd 26 e8 bd
       -0.06371064 -0.24702094 0.0663697 -0.113355614
000040 2b f2 af be 11 ba 4a be a3 bc 2e 3f 1d 26 42 bf
       -0.34364447 -0.19797541 0.68256587 -0.75839406
000050 f1 0f 2f be 2c b7 6e be 51 c8 ad bd 62 c4 fa be
       -0.17095925 -0.23312062 -0.08485473 -0.48977953
000060 8a e5 88 be 02 9a 91 be f0 2f 0f 3e 65 60 48 be
       -0.26737624 -0.2843781 0.1398313 -0.19568022
000070 7f 80 dd bd 29 25 31 bf 18 76 bb 3d 2e b7 a4 3e
       -0.10815524 -0.69197327 0.09153384 0.32171005
000080 e2 aa e7 3d f9 63 16 be 1a 91 d3 3e e4 fc c8 be
       0.1131189 -0.14686574 0.4132164 -0.3925544
000090 57 ab 44 bd 02 20 21 3e d7 c7 05 be 31 94 53 3e
       -0.048014965 0.15734866 -0.13064514 0.20662
0000a0 b0 60 1c 3f 52 2f ee bd 89 2d 43 be 8a 30 4f bf
       0.61085033 -0.116301194 -0.19060339 -0.8093344
0000b0 a0 c0 aa be 50 89 40 be 4b e2 09 bf a1 ad 6c be
       -0.33350086 -0.1880238 -0.5386092 -0.23113109
0000c0 ab 48 c3 be 07 74 25 3e d7 b5 2a 3d 70 25 fc be
       -0.3814138 0.16157542 0.041677322 -0.49247313
0000d0 ad 37 0d 3e 4b be 0c bf cb 2e c6 be e7 e4 2c be
       0.1379077 -0.54977864 -0.38707575 -0.16884194
0000e0 bb 53 4c 3e d4 60 de be c1 5d c1 be 08 3c f5 3d
       0.19953816 -0.4343325 -0.3776684 0.11974341
0000f0 67 06 96 3e 55 48 6f bf 45 b7 a3 3d a5 7a b3 be
       0.2930176 -0.93469745 0.0799394 -0.35054508
000100 f6 aa 58 bd d9 37 39 bf d2 af 4f bd 76 83 b9 3e
       -0.052897416 -0.7235084 -0.050704785 0.3623311
000110 45 4e 23 3e 10 3f 04 be 03 33 04 be e5 1b d1 3e
       0.15947826 -0.12914681 -0.12910084 0.40841594
000120 b8 f1 68 be d1 16 4b 3c 0d 68 25 3d 7c 23 fe bd
       -0.22748458 0.012395577 0.040382434 -0.12409112
000130 36 50 a2 3d 8c b6 9f 3e df d4 4a 3e 98 8a ac bc
       0.07925455 0.3119396 0.19807766 -0.02106218
000140 98 09 09 bc 51 9c 27 be 5b 70 a8 3d f9 05 a1 be
       -0.008364104 -0.16368224 0.08224555 -0.3144987
000150 16 7d aa 3e e8 d6 2d c0 88 67 08 be 56 eb 3d be
       0.33298558 -2.7162418 -0.13320744 -0.18546805
000160 b5 56 4a 3e fc 7b 72 3e 7c 90 08 bf fd 18 df bc
       0.19759639 0.23680109 -0.53345466 -0.027233595
000170 21 72 91 3e 70 62 64 3d 85 9b b7 be 0e f0 66 bf
       0.28407386 0.05575794 -0.3586084 -0.90210044
000180 74 ee 50 be 8d 4a e6 3d 51 f4 89 bd f0 9c be 3c
       -0.20403463 0.11244688 -0.06736053 0.023268193
000190 49 a6 0a 3f 1e f3 3c 3f 1e c6 88 bd fd f8 27 3f
       0.5415998 0.7380847 -0.06678413 0.656143
0001a0 c9 ea ae be c8 fa c9 bd 7d 9e 20 3e 04 58 07 c0
       -0.34163502 -0.09862286 0.15685458 -2.114747
0001b0 fa 0a 1f 3e 7f 11 3e 3d 2b 63 b1 be 10 91 7a 3e
       0.15531531 0.046403404 -0.34645972 0.244694
0001c0 35 76 67 3e 2c a6 b3 3e c4 53 8a bd 09 58 ae 3e
       0.22603686 0.35087717 -0.06754258 0.3405154
0001d0 b7 d7 00 3e 25 03 e5 3e 0f 52 50 be f6 f6 92 3e
       0.12582289 0.44728962 -0.20343803 0.2870404
0001e0 c8 11 9a 3d 4f e5 d8 3d 12 5d f4 3e 61 a4 13 3e
       0.07522923 0.10590612 0.47727257 0.14418174
0001f0 b2 21 3e be 29 80 10 bf db 78 b4 be 04 50 c6 b9
       -0.18567541 -0.56445557 -0.35248455 -0.0003782512
000200 f2 07 04 be f9 95 bf 3e ae 18 14 bd 38 a8 5c be
       -0.12893656 0.37419108 -0.03615635 -0.21548545
000210 ab a7 fa 3e a5 ba 39 be 69 8d be be 2b c9 90 3e
       0.48956046 -0.18137605 -0.37217262 0.2827848
000220 08 4e 21 3a ee 99 83 be d4 a4 3f be 64 62 11 3e
       0.000615329 -0.25703377 -0.1871522 0.1419769
000230 36 e7 93 be 87 3a 80 3c b6 c3 d3 3d a8 d2 14 3f
       -0.28887337 0.015652908 0.10340063 0.58133936
000240 44 3e a8 3e 17 4a 64 be 41 44 7f be a2 fd ab 3e
       0.32860005 -0.22293888 -0.2492838 0.33591944
000250 bb c8 c3 be 4d 56 0c bd 0c df b1 3d 30 94 68 3e
       -0.38239083 -0.03426199 0.08685121 0.22712779
000260 29 3a 50 be 36 2f 1b be 9e 75 1f be 1b 75 45 3d
       -0.20334686 -0.15154728 -0.15572211 0.048207384
000270 c6 2d 8c be f6 04 50 be 5a 42 d7 3d 21 a6 e8 bd
       -0.27378672 -0.20314392 0.105107024 -0.113598116
000280 54 27 2d 3e 28 82 8c 3c 7a 39 fa 3d 7a 93 34 3e
       0.16909534 0.017151907 0.12217994 0.17634383
000290 b7 e6 99 bf d0 e5 c4 be c5 c8 37 be d9 46 2e 3e
       -1.2023534 -0.38456583 -0.17947681 0.17019214
0002a0 d9 f9 c8 3d 12 9e 35 be 7c 90 ba be 78 36 aa bd
       0.0981328 -0.1773608 -0.36438358 -0.0831117
0002b0 27 61 fa 3d 74 e4 eb be 5d 53 d1 3e 57 c1 0c be
       0.122255616 -0.46072733 0.40883914 -0.13745628
0002c0 f9 38 ba 3e a4 9f e5 bd 5b 0e a3 3e 82 18 95 3d
       0.36371592 -0.1121209 0.3184689 0.07280065
0002d0 1a e3 ef 3c 43 42 3f 3e 43 79 e5 bd 69 ba 55 3e
       0.029283095 0.1867762 -0.112047695 0.20871891
0002e0 43 48 17 bf 04 a4 d0 3b a4 3c 0f 3c 07 ed 20 3e
       -0.5909464 0.0063672084 0.008742485 0.15715419
0002f0 e1 6e bc bd af 8d a0 3d 3e 0b d4 3e 21 0a 67 3e
       -0.09200836 0.07839524 0.41414827 0.22562458
000300 e9 29 35 be a2 72 e6 3c 2c 6e 88 3d 2f c6 9b 3e
       -0.17691769 0.028130833 0.066616386 0.3042464
000310 da 8d 33 be 87 70 4f 3e c7 88 ab bd 11 80 09 3e
       -0.17534581 0.2025777 -0.083756976 0.1342776
000320 2e 86 20 3f 08 92 be be 23 a0 04 be 54 2f 66 be
       0.6270474 -0.37220788 -0.12951712 -0.22478992
000330 3e 90 28 be 42 10 4f bc 8c 09 d6 3d 54 dd 89 bd
       -0.16461274 -0.0126381535 0.1045104 -0.06731668
000340 79 7c 1b 3f e3 1d 4d 3f e0 ea 1f be cf 19 26 3f
       0.60736805 0.8012373 -0.15616941 0.6488313
000350 dc c1 5f be 91 e8 61 be 57 76 01 be 52 46 18 bc
       -0.21851295 -0.22061373 -0.126428 -0.009294109
000360 18 ee 66 bc b4 e7 29 3f 45 f4 de 3e 42 eb 3f 3e
       -0.014094852 0.66369176 0.43545738 0.18742087
000370 e2 c6 2a 3d 5f 67 29 bd 3c ee 6c 3e e0 4a fc 3d
       0.041693576 -0.041358348 0.23137754 0.12318969
000380 f4 4f ae 3e 7c 9c 13 be 7e 1a 43 be 3d 1f 3e 3e
       0.34045374 -0.14415163 -0.19053075 0.18566604
000390 2b f4 18 be e4 79 e8 3e f5 e8 b0 3e c5 1d 24 be
       -0.14936893 0.45405495 0.34552732 -0.16026981
0003a0 a0 0e 9e 3e 55 f3 b1 3b 72 72 c2 be 69 5a 95 3d
       0.30870533 0.0054306188 -0.3797794 0.07292635
0003b0 de d6 9e bd 53 2d 46 3f a5 d4 d5 3e 99 98 63 be
       -0.077558264 0.7741291 0.41763797 -0.2222618
0003c0 4a c6 10 be ab f2 a0 3e 92 c7 52 be 40 7b de 3e
       -0.14138141 0.3143514 -0.20583943 0.43453407
0003d0 4c 4c 08 3e bc 39 06 3f 1a bc 9d bd f6 a4 cd be
       0.13310355 0.52431846 -0.07701893 -0.40164918
0003e0 0a 61 8c 3e 48 7e 9d be 41 82 65 be 1f e2 44 be
       0.27417785 -0.30760407 -0.22412969 -0.19226883
0003f0 28 e3 59 3e 39 e2 7f bd de 1d 2f bf cb 3d ff be
       0.2127806 -0.062471602 -0.6840495 -0.49851832

q1_fc2.bias f4 [256]
000000 d3 76 90 bf 5e 21 a3 3f 34 f4 0f 40 97 76 c4 3f
       -1.1286262 1.2744558 2.24928 1.5348691
000010 60 d8 b2 bf 82 11 e9 3f 34 71 05 40 bf 76 bf 3f
       -1.3972282 1.8208468 2.0850344 1.4958113
000020 af 58 0f 40 6d 6e a5 bf 5d 31 2e 40 b0 e2 0d bd
       2.2397878 -1.2924324 2.721763 -0.034640014
000030 81 38 8c 3f 18 48 9b bf 26 76 f7 3f 0c 44 53 bf
       1.0954744 -1.2131376 1.9332931 -0.82525706
000040 ca d4 b3 bf ac f9 a2 bf 09 fc b0 3d 61 34 0a 40
       -1.4049313 -1.2732444 0.08641822 2.159447
000050 93 df 9e bf 30 8b 98 bf 1b b4 c9 be c7 5b e3 3f
       -1.241198 -1.1917477 -0.39395222 1.7762383
000060 d1 46 fa bd e3 b0 71 3f 9d 5a ce bf 25 9b 1c bf
       -0.122205384 0.9441053 -1.6121403 -0.6117423
000070 a9 e4 00 40 7b 01 a2 3f 8d f8 06 40 b2 6f 0c 40
       2.0139563 1.2656702 2.1089203 2.1943173
000080 86 6b bf 3f 37 4a 17 40 da 54 aa bc 24 86 a9 bf
       1.4954689 2.3639047 -0.020792414 -1.3244061
000090 7d 7d f6 3f f2 30 c4 bf b5 d1 23 bd 50 c9 28 40
       1.9257046 -1.5327437 -0.039994914 2.6372871
0000a0 42 0f 8d bf b2 18 05 40 6e af fb 3f dc c0 d9 bf
       -1.1020281 2.0796323 1.9662912 -1.7011981
0000b0 30 0f b3 3f 5b 0e b2 bf bf 96 a8 bf 89 89 9a bf
       1.398901 -1.3910631 -1.3171004 -1.2073222
0000c0 2b 2a 13 40 56 70 af bf 42 f2 a1 bf 3c fa a7 bf
       2.2994487 -1.3706157 -1.2652056 -1.312324
0000d0 9c d4 ad bf 91 97 f9 3f ca 1a e9 bf 38 d5 81 3f
       -1.3580508 1.9499379 -1.82113 1.0143194
0000e0 5c 10 8e bf 2e b2 b9 3f 43 15 02 40 e6 f2 d5 bf
       -1.1098742 1.4507501 2.0325477 -1.6714752
0000f0 f7 48 e2 3e e1 57 0a 40 0d 8b 03 40 a6 11 99 3f
       0.44196293 2.1616137 2.055362 1.1958511
000100 43 11 db bf 83 23 f6 3f c8 43 07 40 2d 34 8e bf
       -1.7114643 1.9229587 2.113512 -1.1109673
000110 33 d6 98 3e 24 9c 8b be 99 08 56 bf 1d 96 03 40
       0.2985092 -0.27267563 -0.8360687 2.0560372
000120 28 16 29 3f cc b2 9e bf 4d 7b 89 bf 43 32 bd bf
       0.6604943 -1.2398314 -1.0740753 -1.4780964
000130 c5 89 ed 3f dd 4c 31 be d4 ff 13 40 25 56 ee 3f
       1.8557669 -0.17314477 2.3124895 1.8620039
000140 d6 b3 c7 3e 64 09 ee 3f c8 b0 bd bf d3 c9 cc 3e
       0.3900439 1.8596616 -1.4819574 0.3999773
000150 c6 42 0a 40 fb 41 03 40 10 d1 a2 bf 5b ef d5 bf
       2.1603255 2.0509021 -1.2720051 -1.671367
000160 aa 05 bf 3f f2 de 8a 3f 4f 9a 90 3f 09 d1 18 40
       1.4923604 1.0849288 1.1297091 2.3877585
000170 d9 ce f7 bf 0c 17 87 bf c9 63 08 40 1c 4b b4 3f
       -1.936 -1.0553908 2.1310904 1.4085422
000180 82 a5 f5 3f 9e 5d bb bf eb 89 2a 40 ae cb 09 40
       1.9191134 -1.4637945 2.6646678 2.1530566
000190 36 2d f3 3f 27 4b 10 be c3 8a b0 bf 83 35 67 bf
       1.8998172 -0.14091168 -1.3792347 -0.9031603
0001a0 34 4a a1 bf 85 ec 0b 40 da ce ee be 8d ce 0e 40
       -1.260077 2.186311 -0.4664219 2.2313569
0001b0 01 fe f2 3f 28 22 9d bd fa d1 d1 3f 60 5f 96 bf
       1.8983766 -0.076725304 1.6392205 -1.1747856
0001c0 3d 69 4b bf 03 33 76 bf 29 ec b9 3f 71 a6 8c 3f
       -0.79457456 -0.9617159 1.4525195 1.0988294
0001d0 2b 6a ac bf 76 f9 e4 3f 29 92 20 40 e3 23 36 bf
       -1.34699 1.788863 2.508921 -0.7114851
0001e0 10 b5 e1 3f 8f 73 d2 3f fc 4c ea 3f 19 11 ba bf
       1.7633381 1.6441516 1.8304744 -1.4536468
0001f0 21 ba 25 40 c2 cd 6b 3f 10 38 bb bf 5d 7c f8 3f
       2.5894854 0.92110837 -1.4626484 1.9412953
000200 fa 94 d0 bf b3 7c ce bf 80 ba 7c be 4a 15 28 40
       -1.6295464 -1.6131805 -0.24680519 2.6262994
000210 e3 3e e1 3f aa 59 9c bf 8d 7b 94 bf 27 15 ef 3f
       1.7597317 -1.2214863 -1.1600205 1.867833
000220 d3 ab f1 3f 0e 82 d1 bf 9d d1 8b bf ad a0 83 bf
       1.8880562 -1.6367815 -1.0923344 -1.0283409
000230 eb 93 98 bf a0 2c 89 bf 42 ff a4 bf b0 f7 c6 3f
       -1.1920141 -1.0716743 -1.2890399 1.5544338
000240 a2 2d ce bf 4c bd b8 bf 6b f4 b0 bf 2b 60 9c 3f
       -1.6107676 -1.4432769 -1.382459 1.2216848
000250 bb 86 9f bf 3b 1c f6 3f 24 aa b3 bf 16 00 ba bf
       -1.2462991 1.9227365 -1.4036298 -1.4531276
000260 64 7b d7 3f 48 54 bc bf be 64 d9 bf 2b 2c f2 3f
       1.6834531 -1.4713221 -1.6983869 1.8919729
000270 3f 76 03 40 5b b9 e0 3f 07 9d 05 40 14 5f fa 3f
       2.0540922 1.7556566 2.0877092 1.9560266
000280 42 92 9b bf 9f 0c 81 bf 61 1f 47 bf d1 8e ed bf
       -1.2154009 -1.0081977 -0.77782255 -1.8559209
000290 fc 4c 87 3f c6 63 e3 3f 58 6c 13 be ce cf 98 bf
       1.0570369 1.7764823 -0.14396799 -1.1938417
0002a0 fb b7 db 3f 0d a2 01 40 67 33 b7 bf 04 38 93 bf
       1.7165521 2.0255158 -1.4312562 -1.150147
0002b0 55 c5 10 3f 34 9d dc 3f de c0 af be 68 cd 02 40
       0.56551105 1.7235475 -0.34326833 2.043787
0002c0 4f af c9 bf 3d ef 89 bd e5 c3 a0 bf ff a9 24 40
       -1.5756625 -0.06735084 -1.2559782 2.5728757
0002d0 80 3e d3 3f 3a e4 c0 be c7 6d 06 40 af 8f bd bf
       1.6503448 -0.37674123 2.1004503 -1.4809474
0002e0 69 95 b4 3f e8 3d 96 bf 36 e2 bc 3f a0 ef b3 3f
       1.4108096 -1.1737642 1.4756534 1.4057503
0002f0 4d ae ad bf a3 4a fa 3f c5 f6 06 40 c0 79 14 40
       -1.3568817 1.9554027 2.1088116 2.319931
000300 4f a2 09 bf 42 89 29 bf fd 88 d9 bf 04 4f 97 bf
       -0.5376329 -0.66225064 -1.699493 -1.1820989
000310 94 45 de 3f eb f2 7c be b4 07 af 3f 3b 98 ca bf
       1.7364984 -0.24702041 1.3674226 -1.5827707
000320 3c 05 c9 bf da 72 ea 3f d6 51 c5 bf 60 e6 0b 40
       -1.5704722 1.83163 -1.5415599 2.185936
000330 0f 4d ce bf f3 87 ad 3f ac 99 83 bf 3b be d8 3f
       -1.6117266 1.3557113 -1.0281272 1.6933054
000340 18 f8 10 40 a0 ea 9b bf a8 3d e1 3f 75 24 a4 bf
       2.2651424 -1.2180977 1.7596941 -1.2823626
000350 f9 46 ba bf b6 84 20 40 68 f6 b7 bf fd 72 b2 3f
       -1.4552909 2.5081 -1.4372072 1.3941342
000360 4d 8a df 3f 05 05 34 40 a9 9f 05 40 6a cb 81 3f
       1.7464081 2.8128064 2.08787 1.0140202
000370 5a ce 84 bf b1 b2 b9 bf 9d d1 99 bf 6e 6a ee 3e
       -1.0375473 -1.4507657 -1.2017094 0.46565574
000380 78 81 d3 3f ba 51 ba bf dd 56 9f bf 57 23 d7 be
       1.6523886 -1.4556191 -1.2448384 -0.4201915
000390 db 53 0a 40 24 7c 8e 3f dc 0d 81 bf 19 e5 e0 bf
       2.1613681 1.1131635 -1.0082355 -1.7569915
0003a0 7f 33 d0 3f 7e 9c 24 40 37 bf ab bf be 0b c5 bf
       1.6265715 2.5720515 -1.3417729 -1.5394208
0003b0 c8 20 f3 3f 61 45 31 bf d8 be f8 3f 8e 64 94 bf
       1.8994379 -0.6924649 1.9433241 -1.1593187
0003c0 13 d5 b1 3f b2 bd 05 40 e0 68 ba 3f 0b 3a b0 bf
       1.389315 2.089703 1.4563255 -1.3767713
0003d0 78 6b d1 bf c7 23 a4 bf 91 38 9c 3f 65 2d f4 3f
       -1.6360922 -1.2823418 1.2204763 1.9076353
0003e0 d3 3f b9 bf ca f1 d9 3f 5f 85 05 3e 7b 6b 66 bf
       -1.4472603 1.7026913 0.13039158 -0.9000775
0003f0 a9 c4 b3 bf 0d 1c b7 3f db b8 9e bf e4 6f c9 bd
       -1.4044391 1.4305435 -1.2400163 -0.098357946

q1_output.weight f4 [1, 256]
000000 83 dd 22 bf cc 5e 34 3f b3 0b b9 3e 79 1c 92 3e
       -0.6361925 0.7045715 0.36141738 0.28537348
000010 f3 85 e9 be 8e d3 d2 3e 48 3d db 3e 99 60 09 3f
       -0.45610008 0.41177028 0.4282019 0.5366302
000020 95 7d 37 3f e5 e2 d8 be 64 6e 30 3f 68 8a e1 c0
       0.71676 -0.42360607 0.6891844 -7.0481453
000030 cd 4b e6 3e 12 59 0b c0 2e f1 a8 3e 3f b5 6b bf
       0.44979706 -2.1773114 0.32996505 -0.92073435
000040 52 4b 44 be d7 cb 3b bf 01 c9 22 c1 17 cd fa 3e
       -0.19169357 -0.7335791 -10.174073 0.48984596
000050 54 6a 13 bf 8a 26 1d bf cb 74 09 c0 9f 75 13 3f
       -0.5758412 -0.6138693 -2.1477535 0.5760135
000060 d0 f9 f8 3f 9b c7 05 3f ef 71 7d be f3 4d 4f c0
       1.9451237 0.522577 -0.24750493 -3.2391326
000070 ab a9 f7 3e 4a 50 ee 3e 80 7f 1c 3e 9d 72 ed 3e
       0.48371634 0.4654563 0.15283012 0.46376505
000080 a2 3f dc 3e 2e e8 81 3e a6 a4 2a 3d 28 00 e8 be
       0.43017298 0.25372452 0.041660927 -0.4531262
000090 18 d8 0d 3f 93 45 e0 be db af c8 c0 91 d0 22 3f
       0.5540786 -0.4380308 -6.2714667 0.635995
0000a0 4a d9 12 bf 43 aa d9 3e f7 79 43 3e 3e 91 80 be
       -0.57362807 0.42512712 0.19089495 -0.2511081
0000b0 02 6f b4 3e 09 58 b5 be 58 8c 81 be de 4f 0f bf
       0.35240942 -0.35418728 -0.25302386 -0.5598124
0000c0 4a f6 89 3e 25 05 02 bf cd 1d e7 be 0a c6 09 bf
       0.26945716 -0.507891 -0.45139924 -0.5381781
0000d0 8a 0a cf be 1d 99 a3 3e 13 40 a7 be 58 44 94 3f
       -0.40437728 0.31952754 -0.32666072 1.1583357
0000e0 68 63 67 bf 82 17 09 3f a1 6d c9 3e bf c1 dc be
       -0.90386057 0.53551495 0.39341453 -0.43116567
0000f0 2d 9a 61 3f 79 6f 1b 3f 77 b4 e8 3e b1 59 0b 3f
       0.8812588 0.6071697 0.45450184 0.54433733
000100 4d af 09 bf 87 2f 9b 3e 29 04 f1 3e 91 08 07 bf
       -0.5378311 0.30309698 0.47073486 -0.52747446
000110 88 c7 a3 3f fd 09 36 c1 56 d6 46 bf 8b cd fd 3e
       1.2795267 -11.377439 -0.776708 0.4957088
000120 a9 83 d1 3f e7 6c 12 bf e5 4f f6 be e6 7e 31 bf
       1.6368304 -0.5719742 -0.4810783 -0.69334257
000130 55 99 9e bf 1d b7 7d c1 b0 f7 eb 3e 90 3c 02 3f
       -1.2390543 -15.857205 0.46087408 0.5087366
000140 67 ce 90 3f e7 a6 84 3e 17 ab 80 bf fc f8 9b 3f
       1.1312989 0.25908586 -1.0052212 1.2185359
000150 2b 32 2f 3e aa b6 c4 3e 76 2c 5f be 67 26 af be
       0.17108981 0.38420612 -0.21794304 -0.34208986
000160 f3 3a 5f 3f bb 1a 4a 3f 4b 3a fb 3f e6 e7 fe 3e
       0.87199324 0.7894704 1.9627165 0.497863
000170 40 89 40 bf 11 0c 20 bf 60 7d e3 3e af 15 3e 3f
       -0.75209427 -0.6251841 0.4443159 0.74251837
000180 68 af f6 3e d5 11 81 be 08 45 35 3f a2 b9 8f 3e
       0.481807 -0.25208917 0.7080846 0.28071314
000190 fa df 8b 3e 80 43 03 c1 43 a1 3d bf 40 ca 33 bf
       0.27319318 -8.2039795 -0.7407419 -0.70230484
0001a0 8d bb 79 bf f1 d9 ab 3e b8 67 3b c1 fb 2d 26 3e
       -0.97551805 0.33564714 -11.712822 0.16228478
0001b0 d8 f9 5a 3e d4 5c 19 c1 d2 55 af 3e 47 ca b7 bf
       0.2138437 -9.585163 0.34245163 -1.4358605
0001c0 bd 27 e8 bf ff 7e 18 bf 64 ff 34 3f 69 a2 1d 3f
       -1.8137127 -0.5956878 0.70702195 0.61575943
0001d0 74 8f bb be 45 a6 54 3e d6 fa ff 3e 74 9a 31 c0
       -0.36632884 0.20766552 0.4999606 -2.775052
0001e0 03 0c 87 3d e7 27 be 3f fc aa d7 3e e8 12 c4 be
       0.06594088 1.4855927 0.42122638 -0.38295674
0001f0 b6 1f f7 3e 68 6f 1f 3f d2 ee 92 be da c9 36 3e
       0.4826638 0.6227937 -0.2869783 0.17850438
000200 a2 84 c2 be 19 5a 6e bf fb 04 0c c1 86 e4 10 3f
       -0.37991816 -0.9310623 -8.751216 0.565987
000210 e6 33 cf 3e d1 96 2c bf 7d d9 e8 be ac ca 9e 3e
       0.40469283 -0.6741763 -0.4547843 0.31014
000220 91 a4 ad 3e ec 0b 8b bf 5a c9 a3 bf 5e 4c 2f c0
       0.33914617 -1.0863013 -1.2795823 -2.739036
000230 90 52 c1 be f6 d7 3a bf a6 1a e5 be d1 58 5f 3e
       -0.37758303 -0.7298578 -0.44746894 0.21811225
000240 3a 1e f7 be 16 58 39 bf bd 1e 81 bf 3f e4 ef 3e
       -0.4826525 -0.72400033 -1.0087506 0.46853825
000250 de b3 bf be 39 7e 0b 3e 6a 2d 24 bf 52 83 3a bf
       -0.37441915 0.13622369 -0.64131796 -0.7285663
000260 b2 8d 9d 3e df fc db be b3 0b 6d be 4a 66 6e 3e
       0.30772167 -0.42966363 -0.23148994 0.23281208
000270 07 90 00 3f 1f 99 1e 3e 97 b9 cf 3e e6 c1 bc 3e
       0.5021977 0.15488099 0.4057128 0.36866683
000280 3c 21 07 bf df 8b c9 bf 4a 45 14 bf dd f5 2c be
       -0.52785087 -1.574581 -0.57918227 -0.16890664
000290 a7 6c 0c 3f e4 1d ba 3e 55 f5 cd bf a0 56 e0 bf
       0.5485329 0.3635093 -1.6090494 -1.7526436
0002a0 6a 54 53 3e f5 0e cb 3e 04 cc 9c be dd 87 3f bf
       0.2063767 0.3965985 -0.30624402 -0.74816686
0002b0 8d be f9 3f 29 54 d5 3e 23 e1 ec c0 e4 e3 46 3d
       1.9511276 0.41665772 -7.4024825 0.048557177
0002c0 b7 ea 59 bf 9a 66 d7 c0 4d 90 ea be e7 51 0f 3f
       -0.8512377 -6.7312746 -0.45813218 0.5598435
0002d0 81 45 d8 3e 90 ae be c0 c4 e7 92 3e c2 f5 ce be
       0.42240527 -5.958809 0.28692448 -0.40421873
0002e0 83 45 ef 3e 95 16 d8 be 50 fb eb 3e 58 23 ff 3e
       0.4673272 -0.4220473 0.46090174 0.49831653
0002f0 40 d4 af be e5 89 18 3e 65 07 11 3f 3f 80 bb 3e
       -0.3434162 0.14896353 0.5665191 0.36621282
000300 6e 92 b6 c0 9d 96 33 bf 6c 67 8e be e7 d5 9b be
       -5.7053747 -0.7015169 -0.2781328 -0.30436632
000310 9e c4 03 3f 30 39 72 bf aa 58 c4 3e 3e c0 d9 be
       0.5147189 -0.9461851 0.38348895 -0.42529482
000320 37 04 68 be d2 84 15 3f 88 c8 69 be 53 e2 0c 3f
       -0.22657858 0.5840579 -0.22830403 0.55032843
000330 71 e4 79 be c2 d6 47 3f 67 96 c1 be 40 d0 91 3e
       -0.2440355 0.7806207 -0.3781006 0.28479195
000340 e6 4f 06 3f d1 87 20 bf e3 47 88 3e 70 a3 4a be
       0.52465665 -0.6270724 0.26617345 -0.19788909
000350 6e 7b cf be 44 71 fc 3e 14 7c 9d bf 48 a8 ca 3e
       -0.40523857 0.49305165 -1.2303491 0.39581513
000360 d0 2f 11 3f 92 42 46 3f a2 cf 0b 3f 00 bf 26 3f
       0.5671358 0.7744533 0.546137 0.6513519
000370 6a 31 c3 bf 6b 87 ce be 5a 09 90 bf a2 5b 81 3f
       -1.5249455 -0.4033769 -1.1252854 1.0106089
000380 62 0c 55 3f 8a 12 68 bf f1 5c 1d bf ab 5b a2 c0
       0.8322202 -0.9065329 -0.6146994 -5.07369
000390 d3 39 09 3f 85 ef 4d 3f b2 61 e8 bf 43 d8 13 bf
       0.5360386 0.804436 -1.8154814 -0.57751864
0003a0 38 1a 8e 3e 87 9c 21 3f b2 6e b5 be 3b a8 45 bf
       0.27754378 0.63129467 -0.35436016 -0.77209824
0003b0 0f 34 f1 3d b1 91 94 bf 37 55 71 3e b2 b0 56 bf
       0.117775075 -1.1606961 0.23567663 -0.83863366
0003c0 f6 2f a1 3e bf 16 0b 3f 82 7e a9 3e bb 72 b5 bf
       0.31481904 0.5433158 0.3310433 -1.4175638
0003d0 36 f0 a0 bf 53 0e 0b bf 38 f8 ee 3e 8f 2c c1 3e
       -1.2573307 -0.5431873 0.4667375 0.37729308
0003e0 89 3d 3d bf fd 48 ef 3e e3 d3 38 c1 92 07 d6 bf
       -0.7392202 0.46735373 -11.55173 -1.672106
0003f0 04 95 a0 be d1 28 ec 3e 77 c6 ca be 68 08 d4 3f
       -0.3136369 0.4612489 -0.39604542 1.6565065

q2_fc1.weight f4 [256, 23]
000000 5f 64 c8 3f 38 e6 d1 be a6 86 3d 3e 14 ca e6 be
       1.5655631 -0.40995955 0.18508396 -0.45076048
000010 81 5d 11 3e b3 8a bd 40 72 ce 90 40 fc d6 9f 3f
       0.14195825 5.923181 4.525201 1.2487483
000020 73 d5 08 be 9b 23 8f bf ed 55 2c be 7c 4a d4 bd
       -0.13362674 -1.1182741 -0.16829653 -0.10365769
000030 56 8a 26 bd bb 00 bf 3c 9d 18 af 3d c7 eb 8a 3d
       -0.04065927 0.023315778 0.085496165 0.06783252
000040 95 6d db bd e3 51 e2 be 99 fb 0f bf 0c 32 af be
       -0.107142605 -0.442031 -0.5624328 -0.3421787
000050 c2 37 32 bf 57 dd 8e 3f 06 4a c6 3d 7a 87 bf c0
       -0.6961633 1.1161298 0.096820876 -5.9852877
000060 b0 72 0c 40 18 fa 75 3f 78 e4 5b 3c ee 72 18 3e
       2.1945 0.9608474 0.01342117 0.14887592
000070 e3 98 f0 bf 11 75 a4 3e 02 c5 67 3f 07 fe 0b bf
       -1.8796657 0.32120565 0.90534985 -0.5468449
000080 fe 47 2b 3e ba e9 fa be 5e 66 8a be e2 a1 41 be
       0.16726682 -0.49006444 -0.27031225 -0.1890941
000090 3e fb b2 3d 98 33 17 3e 98 74 09 3e 23 a5 e5 3d
       0.08739327 0.14765775 0.13423383 0.11213138
0000a0 37 17 13 bf 85 80 22 bf f7 e0 95 3c fb 94 3b 3f
       -0.574573 -0.63477355 0.018295748 0.732742
0000b0 4a 3c ca be 5f 43 0a bf 81 01 81 c0 29 7a d3 3f
       -0.39499122 -0.5400905 -4.0314336 1.6521655
0000c0 09 95 b7 be c4 38 06 bf 8c 88 48 3e 0e 1f 81 3f
       -0.35855892 -0.5243037 0.19583338 1.0087602
0000d0 2e c3 d9 3d e8 bb 8b be 15 de 1b 3d 91 f8 4a bf
       0.10632931 -0.272918 0.03805359 -0.7928553
0000e0 b5 00 01 3f 7e 4c 96 3d 28 6f 51 3c cf bf ed bb
       0.50391704 0.073388085 0.012782849 -0.0072555314
0000f0 2b 78 1c 3d 97 1e 2a 3d 4a 72 3d bb 82 f7 38 be
       0.03820054 0.04153308 -0.0028907233 -0.18063167
000100 cb 73 4e bd 35 29 23 3e b8 34 f7 bd c1 96 93 3d
       -0.050403398 0.15933688 -0.12070602 0.072064884
000110 e3 78 ae 3c 99 a0 30 40 06 b0 36 bf a8 d1 8e bf
       0.021297878 2.759802 -0.7136234 -1.1157732
000120 08 98 f1 bf 5a 4a a6 bf 9a 12 a0 be c2 50 74 bf
       -1.8874521 -1.299144 -0.31264192 -0.95435727
000130 c0 d7 0c be 77 28 58 be 67 ab 47 3f 15 46 9f 3e
       -0.13754177 -0.21109186 0.77995914 0.31108156
000140 6c 0d a1 3c 91 51 cf bc db 13 25 3e 1a eb ae bc
       0.01965972 -0.025307449 0.16120856 -0.02135234
000150 84 17 18 3d de f1 fe bb 2d d2 55 bf f5 38 dc 3e
       0.0371318 -0.0077802977 -0.8352383 0.43012205
000160 aa 31 ff 3d 10 af 35 bf 0f 37 b8 3e 5b 51 4c bf
       0.124606445 -0.7097025 0.35979506 -0.7981164
000170 94 7e fe 40 13 21 f1 3b 24 97 d6 3c a7 c8 c3 bf
       7.9529514 0.007358679 0.026195116 -1.5295609
000180 14 f7 75 3f 5e e2 4e 3f 6c 31 85 bf 0c 09 a6 bf
       0.96080136 0.8081416 -1.0405707 -1.2971511
000190 a7 e7 b6 be 57 c4 d8 bc 59 39 14 3f 90 5b 57 3e
       -0.35723612 -0.02646081 0.57900006 0.21031022
0001a0 96 58 17 3d 55 2d 99 bd 5a e2 a9 3c 48 7e 68 3e
       0.036949717 -0.074793495 0.020737816 0.22704422
0001b0 a3 52 0f 3e 90 a6 83 3f d7 17 d2 3d 2f 83 a9 3e
       0.13996367 1.0285206 0.10258453 0.33107898
0001c0 d5 bd a6 3d e7 4e b5 bf 3b 10 31 3e d0 ce 7d 40
       0.08141676 -1.4164704 0.17291348 3.9657478
0001d0 8e f7 c8 bf cb 79 b3 bf ea 79 9e 3f 81 b6 e6 be
       -1.5700548 -1.4021543 1.2380955 -0.45061114
0001e0 60 c4 fa bf 91 86 17 bf d7 e2 69 3f 44 e3 51 3e
       -1.9591179 -0.5918971 0.91361755 0.20496851
0001f0 07 5a 2b 3e 0f f3 12 3f a6 0d 14 3e 6d ab 15 3c
       0.16733561 0.5740213 0.14458331 0.009135109
000200 7b fb 11 3d 8c ce d6 bb 7f 50 7a 3d 99 ad ac 3d
       0.03564022 -0.006555384 0.061111923 0.084315486
000210 c2 8f 72 3f c5 ef 2a bd c6 66 38 3f 60 83 1d 3f
       0.94750607 -0.04173257 0.7203182 0.6152859
000220 55 4b 45 3f c9 99 0c bf a6 80 4a 40 1f 6c 23 3f
       0.7706807 -0.5492216 3.164102 0.63836855
000230 b8 27 25 3f 94 1b 03 3e 49 4e 55 3e d6 81 16 bf
       0.6451373 0.12803489 0.20830645 -0.58791864
000240 64 96 f8 3e c3 de 18 3d 0d b8 1e bf 3c 94 43 3e
       0.4855224 0.037321817 -0.6199959 0.19099516
000250 38 4a f7 be 6d 8f 77 bd f1 8c f0 bc b7 04 4e 3d
       -0.48298812 -0.060439516 -0.029364081 0.050297465
000260 72 28 13 bd b2 ef ed bd 69 fd d8 bd 4f b8 5b bf
       -0.035927244 -0.11617984 -0.10595209 -0.8582811
000270 ed 37 33 bf ed f1 52 3e de 55 42 bf bf 56 65 bf
       -0.7000721 0.206001 -0.7591227 -0.8958549
000280 dc a9 1f be 09 6c bc 40 6d ce 76 3f b4 d9 95 bf
       -0.1559214 5.888188 0.9640873 -1.1707063
000290 7a b3 45 3e 0d 63 2e bf 71 46 8d bf 81 ac e2 3d
       0.19306746 -0.6811989 -1.1037122 0.11068059
0002a0 bf 4b 44 3d a1 ea 4a bd b8 9c c2 be ab 00 c9 3e
       0.0479238 -0.049540166 -0.38010192 0.39258322
0002b0 74 c0 22 bd 56 ea 8c 3b 00 e9 75 bd dd dd c6 3d
       -0.03973432 0.004300396 -0.06003666 0.09710286
0002c0 53 3e 76 3d c3 72 4d bc 98 7e be be b7 ba 97 bd
       0.06011803 -0.012539568 -0.37205958 -0.0740866
0002d0 5d 2c 5d bf 69 6d 47 bd ef 29 34 3d 9f b7 bc 3e
       -0.8639582 -0.048688326 0.043985303 0.36858842
0002e0 f7 b0 a7 bf f3 81 36 3f 2e d9 be bf 29 c6 69 bf
       -1.310088 0.71292037 -1.4910028 -0.91317993
0002f0 7c 7f 19 3f 93 fd bf bf 6c 4b 7c 3f c9 fe c3 3f
       0.5996015 -1.499926 0.98552585 1.5312129
000300 1c de 14 3e 84 42 d5 3e b1 e0 8b be 69 28 11 be
       0.14537853 0.4165231 -0.27319863 -0.14175572
000310 8d 97 8e be ba de 16 be f5 78 68 3c 42 31 f2 3c
       -0.2785 -0.14733401 0.014188995 0.029564504
000320 af 1f af bd 86 fb 26 bf 98 fb 8f 3d cd a4 53 be
       -0.08550965 -0.65227544 0.070304096 -0.20668335
000330 ff fc f9 bf bc 13 41 be de f7 e1 bd ae da ba be
       -1.9530333 -0.18855184 -0.11033605 -0.36494964
000340 e7 b3 81 bf f1 76 81 3a b0 89 14 3c dc a6 ae 3e
       -1.0133027 0.0009877366 0.00906603 0.3411168
000350 97 ea bf 3e dd 5e 2d 3f 90 84 d5 3e 3d b0 ad 3d
       0.37483665 0.67722875 0.417027 0.084808804
000360 ef 27 c6 3d 55 dd db bc a5 fb db 3c 69 a7 0c 3d
       0.096755855 -0.026838938 0.026853392 0.034339342
000370 e8 61 c0 3d 94 f0 e5 bd bf d6 12 bd 59 eb 3d bc
       0.09393674 -0.11227527 -0.03584933 -0.011591756
000380 3f 12 35 be 53 e3 ab 3c 78 48 1d be 2d 75 d2 3d
       -0.17682742 0.02098242 -0.15359676 0.10276256
000390 e6 69 c7 bc 44 0f 96 3e 33 e7 7f 3d 32 73 1f 40
       -0.024342488 0.29308522 0.062476348 2.491406
0003a0 cd 41 93 be 69 e5 16 bf 7c 67 45 bf 31 aa 22 3d
       -0.2876114 -0.589438 -0.7711103 0.03971309
0003b0 c4 b1 10 bf 08 6e 26 be 59 85 42 3e 85 24 1d be
       -0.5652125 -0.16252911 0.1899618 -0.15345962
0003c0 d6 aa c8 bb 28 a3 ce bd 1c 1b 8e bd 76 42 81 bc
       -0.006123881 -0.10089713 -0.069387645 -0.015778761
0003d0 36 fd b3 bc de bc 1a bd ad 26 08 bd da 5e 24 bf
       -0.021971326 -0.037777774 -0.03324001 -0.6420723
0003e0 57 1d 53 be d3 56 99 3e d8 a8 1e bf b4 43 dc 3e
       -0.20616661 0.29949054 -0.61976385 0.43020403
0003f0 a5 c3 c7 be a3 80 34 3f d0 2d 12 3f ef b3 18 c0
       -0.39016452 0.70508784 0.57101154 -2.3859823

q2_fc1.bias f4 [256]
000000 49 63 37 bf 52 a1 f1 bf 08 73 0c 3f 71 45 71 3f
       -0.7163587 -1.8877356 0.54863024 0.94246584
000010 fe 30 35 be cb e0 2c be ee dc 28 40 dd 81 89 bf
       -0.1769447 -0.16882627 2.6384845 -1.0742756
000020 bc 9f c8 bf b3 13 89 3f 8f a6 f8 bf c9 df 74 bf
       -1.5673747 1.0709137 -1.942583 -0.9565397
000030 15 6c 47 be 50 94 be bb 7b 31 a6 bf 9a 54 a0 bf
       -0.19474824 -0.00581602 -1.298385 -1.2525818
000040 71 c5 23 3f 91 2d 1b be 6d e2 04 c0 1c 08 7d 3f
       0.63973147 -0.15154101 -2.07632 0.988405
000050 2b cc f5 bf e9 22 1d bf 18 de 3f be 9d d4 7e 3f
       -1.9202932 -0.61381394 -0.18737066 0.9954317
000060 d7 01 7d 3e 3a c7 01 3d e8 18 d1 bf b6 40 fa 3e
       0.24707733 0.031684138 -1.6335726 0.48877496
000070 cc f3 d1 be 54 3f 9a bf 42 e1 98 3f a0 30 a4 bf
       -0.41006315 -1.2050576 1.1943743 -1.2827339
000080 af 11 2b 40 c9 8f 63 bf cc 41 cc 3f 4f f5 c2 bf
       2.6729543 -0.88891274 1.595758 -1.5231112
000090 2d ff 8d bf 6a f2 e0 3f 68 a0 e5 bc bb 6f 8e be
       -1.1093498 1.7573979 -0.02803059 -0.2781962
0000a0 34 51 8e 3f bb bd de 3f 6e 81 e2 be 99 dd 67 3c
       1.1118531 1.7401651 -0.44239372 0.014151954
0000b0 73 6e 4c 3f 6e 54 57 bf 54 8d c9 3e d2 6c 61 3d
       0.7985603 -0.84113204 0.39365637 0.05503542
0000c0 f5 92 63 be 3b 4a c5 be f3 9b 3d 3e fa 1d d0 be
       -0.22224028 -0.38533196 0.18516521 -0.4064787
0000d0 95 15 b9 3e 53 64 a4 bf 15 9f aa 3f 0e d2 bb 3f
       0.36149278 -1.2843117 1.3329798 1.4673479
0000e0 51 47 41 3f 60 6c cf bf 26 d3 cf bf a9 6b 08 bc
       0.75499445 -1.6204948 -1.6236312 -0.008326449
0000f0 a2 14 fe 3e fd eb b2 3f ba dd f6 3e 47 76 36 3e
       0.49625117 1.3978268 0.4821604 0.17818557
000100 6d 86 d8 bd e4 7f a0 bf 56 73 1b bf d8 fe fe be
       -0.10572515 -1.2539029 -0.60722864 -0.49803805
000110 87 7d 18 bd 05 34 84 bf 0d eb b8 bf 78 5e 0a c0
       -0.037229087 -1.0328375 -1.4446732 -2.162016
000120 72 05 b4 bf 83 3d bf be bb 8f 15 bf af 65 d0 3f
       -1.4064162 -0.37351617 -0.5842244 1.6281031
000130 34 ec 9c bf 7b ef 54 be 24 0b b9 bd 36 11 82 bd
       -1.2259583 -0.2079448 -0.09035328 -0.06350939
000140 9c 1c 8d bf f9 3b a0 3e 24 2d 61 3f 25 e9 ca bf
       -1.1024356 0.31295756 0.87959504 -1.58524
000150 dc 43 d3 bf 79 a3 b8 3e 96 88 6d bf bd 5a 85 bf
       -1.6505084 0.3606222 -0.9278654 -1.0418316
000160 bc cf fe be 44 da 81 3e 2f 7e c0 bf b6 08 c4 3f
       -0.49767864 0.25361836 -1.5038508 1.5315158
000170 51 54 f0 bf 4f 28 18 bf a1 6b c4 3f 50 1f 34 bf
       -1.8775731 -0.59436506 1.5345346 -0.7036028
000180 a2 d8 eb 3d 65 a0 0b bf 34 f3 fb 3e 6f 24 cd bf
       0.11515929 -0.5454162 0.49208987 -1.6026744
000190 79 71 91 bd 7a 18 ec bf 4b a7 73 bf de 88 0f be
       -0.07101721 -1.844497 -0.95177144 -0.14017054
0001a0 0c 51 99 3f c0 c8 62 3f 7f 07 19 bf 4c a5 a9 3f
       1.1977859 0.8858757 -0.59777063 1.325357
0001b0 78 c1 91 3e 87 32 5a 3f 99 24 84 3f e8 e2 c5 be
       0.28467917 0.8523335 1.0323669 -0.38649678
0001c0 fa 48 8c bf 4d 2e b2 bf 46 b5 b0 3f de 3f 6b be
       -1.0959771 -1.392038 1.380532 -0.22973582
0001d0 d7 8c 99 bf 24 6f 49 3f 41 45 57 3f eb 3f ee 3e
       -1.1996106 0.7868521 0.8409005 0.4653314
0001e0 eb d7 9f bf ec 67 3b 3f e3 d8 85 bf 1a d0 19 bf
       -1.2487768 0.7320545 -1.0456814 -0.6008316
0001f0 ce a9 c8 be e2 7a 7f 3f 32 56 8d bd 23 07 4b bf
       -0.3919205 0.9979688 -0.06901206 -0.79307765
000200 5d 0b 3a 3f dc 4b 88 bf 02 5f 0f 3f 4e 3a ff 3f
       0.7267359 -1.064815 0.56004345 1.9939668
000210 50 7d d1 bf 2b 18 a7 3f 35 7a 8f 3f 3d e0 a0 3f
       -1.6366367 1.305425 1.120917 1.2568432
000220 50 b9 25 be f9 6d 9c bf eb 8d 22 3e 87 54 f2 3f
       -0.16183972 -1.2221061 0.1587445 1.8932046
000230 b0 a2 0b 3e 14 20 b3 3e 94 c3 16 3f 82 d5 01 40
       0.13636279 0.3498541 0.5889218 2.0286565
000240 17 57 a5 bf 87 14 a7 3e 16 91 d5 bf 82 10 5c bf
       -1.2917203 0.3263285 -1.6684902 -0.8596269
000250 b2 b4 c5 3f fe 99 13 bf 92 d8 8f 3f 32 62 75 3f
       1.5445769 -0.5765685 1.1237967 0.9585296
000260 ae 23 24 40 35 0f b1 bf ee 87 19 bf 24 88 84 bf
       2.5646777 -1.3832766 -0.5997304 -1.0354047
000270 54 09 19 c0 b5 c3 bb bf 95 3d 93 bf 27 63 9c bf
       -2.3911943 -1.46691 -1.1503168 -1.2217759
000280 e3 fc 5a bf 3e 00 f3 bf 46 1c a3 be 75 86 59 bf
       -0.85542125 -1.8984449 -0.31857508 -0.8497079
000290 b9 0d 2c bf 9c 4c 95 3e b3 35 a3 3f f1 38 76 3f
       -0.6720844 0.2916001 1.2750763 0.96180636
0002a0 38 81 0a be 08 1e 86 bf f2 96 ef 3f f1 1e 87 3e
       -0.13525856 -1.0477915 1.871794 0.26390794
0002b0 8f ae a1 3f 40 b2 a6 bf 0e f3 ae bf 6f 79 23 3e
       1.2631396 -1.3023148 -1.3667924 0.15964292
0002c0 95 ef 58 bf 97 4e 80 3e d6 60 da bf d8 f0 8c 3f
       -0.84740573 0.2505996 -1.7060802 1.1011
0002d0 af 04 e9 bf a7 d9 c5 3f b5 22 09 c0 26 a3 0c c0
       -1.8204554 1.5457047 -2.1427433 -2.1974578
0002e0 98 f7 b7 3e f9 cd 16 bf db 84 93 bf ab f5 a2 3e
       0.35931087 -0.5890804 -1.1524919 0.31828055
0002f0 42 da c0 3e 39 9a 15 bf ba 6d 66 bf c2 0a bc bf
       0.37666517 -0.5843845 -0.9001118 -1.4690783
000300 b6 50 18 3f 99 5f a6 bf 79 d7 ae bf 86 f4 77 bf
       0.59498155 -1.2997924 -1.3659507 -0.9685749
000310 d1 9e db be 68 b4 75 bf 3b 0c 12 bf f1 2b a0 3d
       -0.42894605 -0.95978403 -0.5704991 0.07820881
000320 54 69 48 3f 5f 78 09 3f 97 4c 8e bf b2 07 ad 3f
       0.7828572 0.53699297 -1.1117123 1.3517973
000330 6e c1 b7 be df a0 b0 bf 1b a2 e6 bf 94 e7 7d 3f
       -0.35889763 -1.3799094 -1.8018221 0.99181485
000340 ed c8 b1 bf 2b 62 55 3e 52 60 e0 3d ff d6 74 bf
       -1.3889443 0.2083823 0.10955872 -0.9564056
000350 b1 26 0f 40 da 8e 85 3e f9 f4 84 3f bd 00 aa 3f
       2.2367365 0.2608555 1.038726 1.3281475
000360 14 77 52 be 36 c8 aa 3f 7b c8 bf 3f 75 61 b9 3e
       -0.20553237 1.334235 1.4983057 0.36207166
000370 e4 a2 a9 bd 7e b5 6c 3f be a3 1c 3f 51 66 18 bf
       -0.08283022 0.92464435 0.6118735 -0.5953112
000380 0a 58 00 bf 8d 56 8b 3c 98 f2 f1 be 69 f5 9f 3f
       -0.50134337 0.017009044 -0.47255397 1.2496768
000390 ca c3 f7 3f bf 41 3e bf 0e 95 9e bf 3e 4a 7d bf
       1.9356625 -0.7431907 -1.2389238 -0.9894141
0003a0 06 11 ad bf e2 4e a0 be 2e f5 45 3f 7c 78 98 3f
       -1.352082 -0.31310183 0.7732724 1.1911769
0003b0 c0 b0 ef be 51 46 80 bf dc 8c 0c 40 34 c0 85 be
       -0.46814537 -1.0021459 2.1960974 -0.26123202
0003c0 08 e3 85 3f be 7b 24 bf ce d9 93 3f f9 c0 f8 3f
       1.045991 -0.64251316 1.1550844 1.943389
0003d0 2f 42 c9 3e 2e 9a 1a bf 68 3a eb bf f5 ca 6b 3f
       0.39308307 -0.6039151 -1.8377199 0.9210656
0003e0 33 0b 3e 3f 9d d6 d8 3d 5d ac f0 bf 0d 1f c2 bf
       0.7423584 0.10587809 -1.8802601 -1.5165726
0003f0 ae 96 9f be 2b 77 7a bf 0f ee 17 3f 0d 65 a0 3f
       -0.31169647 -0.97838086 0.59347624 1.2530838
