trained_model/01_HalfCheetah/TD3_Ours_actor.pth (torch, 290654 bytes, 6 tensors)

fc1.weight f4 [256, 17]
5.5994544 0.18695404 -0.73527455 -0.60759544 0.10029958 0.6141286 0.33176276 0.3442112
-0.21119733 -0.10184781 -0.17356475 -0.16983715 -0.14081097 -0.14114584 -0.04079102 0.07239084
0.0031923968 4.023947 -0.6579964 -0.7734708 0.357162 -0.62645435 0.6687294 0.874893
-0.21251036 -0.2559845 0.21475382 -0.07166621 -0.0786753 -0.13888158 -0.09386499 0.1800894
-0.057170756 -0.028076416 -1.2355428 -2.8997302 -0.5835486 0.10444045 -0.6871404 -0.6576577
0.8093646 0.37212193 -0.20141418 0.4483111 0.012399071 0.043551486 0.15003797 0.024785182
-0.024670828 0.0149958925 -0.05534428 0.9361474 0.45757866 -1.4223962 1.3174839 -1.3275487
0.1722301 0.06280716 -0.8513232 -0.71549344 -1.0433198 0.21579203 0.1600875 -0.061176762
0.12708052 -0.15635708 -0.032686196 0.11027909 0.7882114 -0.09285735 -1.7566923 -0.95305806
-0.70817834 1.169879 -0.3445528 -0.4826848 -0.6106307 0.15443924 -0.57772046 -0.14354855
-0.28648224 0.19964038 0.1273824 -0.12072828 -0.065470845 1.7270488 -0.7245268 -0.33035535
-0.19835839 -0.13786402 -0.49881718 2.3682764 0.98765266 0.015874347 -0.41605118 -0.4397432
0.07760286 -0.0022447659 -0.07716483 0.0037955365 -0.030095723 0.07463024 4.526818 -2.6920562
0.30883646 0.41227734 -0.3142776 -1.979907 0.546585 0.15668955 -0.19795784 0.98629564
-0.39341775 0.050652977 0.04811387 -0.13652247 -0.16433956 -0.058171194 0.11334559 -6.2788324
0.33308125 -0.030772496 -1.0700047 0.52013403 -2.0941398 -0.65574086 -0.50677544 -0.17028552
-0.2873545 -0.20767523 -0.0057379478 -0.03529185 0.013046493 0.0073513114 0.060136486 -0.047595587
-0.30361953 0.018297007 0.13501406 0.17878519 0.7471576 1.1227326 0.59646857 0.8309705
-0.32093176 1.3054078 -0.040418018 -0.104746774 -0.056713596 -0.105932556 -0.15134998 -0.07377865
-0.06818789 1.1269623 0.4678678 -0.84870034 -1.2588747 0.28323004 -1.5311486 -2.216021
-0.39168108 -0.26794505 0.94990104 -0.50965434 -0.06983483 -0.05751759 0.056646816 0.039879613
-0.15361439 -0.038088687 4.2257643 -1.0169235 1.2984135 0.819616 0.46459484 1.3192698
1.0135428 0.82376796 -0.49245262 -0.015012693 0.16620833 0.054280996 0.14481194 0.07138202
0.13976896 0.06476446 -0.116386734 -2.8270774 -1.4747448 -0.395414 0.93252337 -0.3767162
-0.7016754 -0.6269844 0.23961377 -0.12825555 -1.0689278 -0.16670547 0.005346732 -0.050749533
0.016924331 0.070556745 -0.03204024 -0.13568442 -1.5172982 0.833591 0.83565885 0.06401494
0.21697925 -1.1620432 -0.61037236 0.60349405 -0.46823615 -0.51415294 -0.55973566 -0.10445958
-0.0028558522 -0.11441521 0.052407045 -0.12165262 0.017072016 2.9073324 0.389013 -1.6312493
-0.09159048 -0.1207844 -0.104813464 -0.135679 -0.123911805 -0.64006066 -0.16412377 -0.029004224
0.097111166 0.31500313 0.14952497 -0.0826697 -0.08750901 -0.23404269 -1.9005463 -0.3078426
-0.30479702 -0.14974543 0.64101785 -0.12302235 0.09892088 0.23258133 0.08621814 -1.2959732
0.014654838 -0.093946524 -0.20213087 -0.03867024 0.037755974 -0.07082835 -0.09557356 -4.0571413
00000000: bb2e b340 e170 3f3e f43a 3cbf 608b 1bbf
00000010: de69 cd3d 8837 1d3f cfdc a93e 733c b03e
00000020: 1d44 58be 9695 d0bd f5ba 31be cae9 2dbe
00000030: c030 10be 8988 10be 7c14 27bd a641 943d
00000040: 8837 513b 2cc4 8040 7472 28bf 2f02 46bf
00000050: f0dd b63e 505f 20bf da31 2b3f fdf8 5f3f
00000060: 519c 59be 6610 83be 6de8 5b3e bcc5 92bd
00000070: 8420 a1bd f936 0ebe 4a3c c0bd 5b69 383e
00000080: e22b 6abd 8300 e6bc 4426 9ebf 2e95 39c0
00000090: 7163 15bf e0e4 d53d 6fe8 2fbf 415c 28bf
000000a0: 8532 4f3f c486 be3e 853f 4ebe 0889 e53e
000000b0: 7925 4b3c 0b63 323d 8ea3 193e 4b0a cb3c
000000c0: 7a1a cabc 55b1 753c afb0 62bd 5ba7 6f3f
000000d0: c047 ea3e 1411 b6bf 50a3 a83f 1eed a9bf
000000e0: 165d 303e 0aa1 803d 51f0 59bf 942a 37bf
000000f0: 818b 85bf 96f8 5c3e faed 233e 7c94 7abd
00000100: 6521 023e 121c 20be f6e1 05bd 01da e13d
00000110: 39c8 493f ff2b bebd 4bdb e0bf 9dfb 73bf
00000120: 2d4b 35bf 98be 953f 3969 b0be 7622 f7be
00000130: 4b52 1cbf 5225 1e3e 7de5 13bf 64fe 12be
00000140: cdad 92be 876e 4c3e 8870 023e 6340 f7bd
00000150: 9415 86bd ef0f dd3f 977a 39bf 5624 a9be
00000160: 761e 4bbe 3a2c 0dbe f764 ffbe d791 1740
00000170: ced6 7c3f eb0a 823c a904 d5be 0526 e1be
00000180: 40ee 9e3d ec1c 13bb 9808 9ebd 89be 783b
00000190: 4e8b f6bc bdd7 983d b1db 9040 a64a 2cc0
000001a0: d01f 9e3e 0416 d33e fee8 a0be 986d fdbf
000001b0: ffec 0b3f 3a73 203e 76b5 4abe df7d 7c3f
000001c0: 0d6e c9be 7f79 4f3d 0d13 453d 8ccc 0bbe
000001d0: a148 28be eb44 6ebd bc21 e83d 32ec c8c0
000001e0: a089 aa3e 9a16 fcbc eaf5 88bf 8127 053f
000001f0: 6306 06c0 a2de 27bf 09bc 01bf 545f 2ebe
00000200: 2120 93be d1a8 54be 6505 bcbb 308e 10bd
00000210: f5c0 553c 45e3 f03b ad51 763d 97f3 42bd
00000220: 0574 9bbe 9be3 953c 2041 0a3e 7713 373e
00000230: b845 3f3f b4b5 8f3f 2ab2 183f 7cba 543f
00000240: 2b51 a4be 9a17 a73f 5d8d 25bd 7a85 d6bd
00000250: 844c 68bd 2bf3 d8bd 7dfb 1abe 4319 97bd
00000260: 18a6 8bbd 4d40 903f 5e8c ef3e 6d44 59bf
00000270: ce22 a1bf 8703 913e adfc c3bf 4ad3 0dc0
00000280: 6c8a c8be 1830 89be b72c 733f b578 02bf
00000290: 9005 8fbd 9097 6bbd 7e06 683d ce58 233d
000002a0: 174d 1dbe e202 1cbd 7639 8740 8d2a 82bf
000002b0: 6a32 a63f 5bd2 513f 60df ed3e d5dd a83f
000002c0: c5bb 813f 75e2 523f c022 fcbe ccf7 75bc
000002d0: 8432 2a3e c055 5e3d 9549 143e bd30 923d
000002e0: 981f 0f3e 3ba3 843d 2b5c eebd d6ee 34c0
000002f0: 70c4 bcbf b473 cabe dab9 6e3f f2e0 c0be
00000300: 00a1 33bf 0d82 20bf 505d 753e 6c55 03be
00000310: a0d2 88bf d7b4 2abe a433 af3b bede 4fbd
00000320: e5a4 8a3c 0e80 903d a03c 03bd dbf0 0abe
00000330: d436 c2bf 3866 553f bded 553f 441a 833d
00000340: cf2f 5e3e d5bd 94bf 5d41 1cbf 967e 1a3f
00000350: a6bc efbe 879f 03bf d64a 0fbf e7ee d5bd
00000360: 4029 3bbb 8652 eabd c5a8 563d 0225 f9bd
00000370: 9dda 8b3c bc11 3a40 b62c c73e c7cc d0bf
00000380: ca93 bbbd d05d f7bd 71a8 d6bd 70ef 0abe
00000390: 79c5 fdbd 04db 23bf 1010 28be 449a edbc
000003a0: 38e2 c63d 1748 a13e 131d 193e bb4e a9bd
000003b0: ed37 b3bd e3a8 6fbe 1a45 f3bf 8c9d 9dbe
000003c0: 5b0e 9cbe de56 19be bf19 243f 24f3 fbbd
000003d0: 0897 ca3d cd29 6e3e 2393 b03d 73e2 a5bf
000003e0: d81a 703c 0967 c0bd 65fb 4ebe b064 1ebd
000003f0: 02a6 1a3d 740e 91bd 12bc c3bd 1ad4 81c0

fc1.bias f4 [256]
0.082462005 0.2547688 0.77781916 -0.2617499 -1.0233548 -0.41949466 -0.7301202 -1.0771269
-0.047219582 -0.7388718 0.69237566 -0.5067013 -1.0591787 -1.1048304 -1.4725225 -0.25705582
0.6193158 -0.14506327 -1.0395597 -1.1372817 0.22772339 0.07387214 -0.41543937 -0.67139935
-0.68921095 1.0046551 -0.99140525 -1.0133574 -0.029024063 -1.1861566 0.8306703 -1.3581676
-1.136251 -0.96846974 -0.7853375 -0.17571951 -0.32789028 -1.5288948 -0.9240744 -0.34422255
-1.231118 -1.0732327 0.08326567 0.01881585 -0.033094145 0.027511448 -0.55806494 -1.2718635
-1.207759 0.19913866 0.13257761 -0.1600539 -0.70738804 -0.077032745 -1.2959177 -0.9984151
-0.80707854 -2.0807726 -1.2296321 -1.1264997 -0.8682055 -0.8822575 -1.3700362 -1.0737053
0.12714326 -0.23952332 -1.3564674 -1.1829363 -1.8112645 -0.74704045 -0.68745506 -0.88563985
-0.1675385 -1.4057751 -1.1990473 -0.6775658 -1.1065214 -0.6153167 -0.29351658 -0.93574536
-1.341209 -0.7706638 0.6187948 -1.6627053 0.4570897 1.9392316 0.024938142 0.15020198
-0.8307336 -0.5186475 -0.69885397 -0.26915866 -0.58055156 0.15521576 -0.6118921 -0.8479599
-0.86767656 -1.8159668 -1.3660975 -0.30135557 -1.0156884 -1.7817874 1.2732947 0.073639765
-0.34426978 1.0328639 -1.2567283 -0.21045086 -2.277758 -0.7077858 -1.2518352 -0.26890576
-0.4170289 -0.02028122 -0.2892103 -2.0670156 1.7422637 0.98769474 0.36339957 -1.6074893
0.19733712 -1.4145476 1.1398034 -1.5621471 -0.75310034 -1.092173 0.0032434114 -0.12463461
0.9817081 -0.48811957 -1.3591653 -1.0525014 -0.9052143 -0.9909493 0.17354052 -1.9475534
-0.54685307 -0.56212586 0.41735506 0.020201307 -0.4364109 1.2337193 0.3587462 -1.170299
-0.6525752 0.088225596 -0.01683742 -1.4334203 -0.046413857 -0.7621091 -0.96290004 -0.73374856
-0.37122217 -1.0353543 0.27026713 -0.39612123 0.99337745 0.37309343 -0.29204476 -0.082159236
-1.5972651 -1.8669338 0.35775733 0.3246655 0.43659785 -0.5430359 0.76818496 -0.6110595
-0.18831515 -0.94207287 -0.72238725 -0.19103608 0.5720949 -0.20102179 -0.71541584 -0.28726676
-0.5972699 -1.3957921 -0.47907707 -0.94463694 -1.847091 0.21559091 -0.9996627 1.1257527
-0.2171586 -0.059751462 -1.3134766 -0.6699459 -0.71380156 -0.57086253 -1.2423711 -0.55320275
-1.0987078 0.2355628 -0.9692498 -0.7847853 -0.21481425 0.27600956 -0.372789 0.58736455
-0.0636355 -0.054835286 -0.79989094 -0.917764 -0.31283242 -0.62376255 -0.39697632 -0.5409699
-1.368643 0.070666134 0.84575874 -1.5400721 -0.6221071 1.0938325 0.29305613 -1.9679531
-1.3442519 -1.0612464 -1.1188066 -0.33982652 0.3106529 -1.1354223 -0.7117114 -0.86314887
-1.7994548 0.7126799 -1.549921 -1.6734873 1.4759363 -0.3974529 -1.6375968 -1.817275
-0.8519886 -1.4673358 -0.28385374 0.99694896 -1.1115111 -0.41776153 1.0059197 -0.13578258
-1.3044647 -0.82013816 -0.32109067 -0.14239594 -0.55877185 -0.71755177 -0.16357462 -1.4469459
0.39062056 -0.6220052 -1.0021824 -1.5032709 0.06558908 0.16710158 -1.1086683 -0.1803368
00000000: d7e1 a83d 0e71 823e 281f 473f 1504 86be
00000010: 4afd 82bf 01c8 d6be 28e9 3abf 4bdf 89bf
00000020: 5269 41bd b426 3dbf 883f 313f 2db7 01bf
00000030: 2b93 87bf 156b 8dbf 9e7b bcbf d29c 83be
00000040: 7b8b 1e3f 778b 14be 4b10 85bf 7292 91bf
00000050: 5230 693e 474a 973d 78b4 d4be d4e0 2bbf
00000060: 2170 30bf 8a98 803f bccc 7dbf b2b5 81bf
00000070: dfc3 edbc fbd3 97bf cfa6 543f 70d8 adbf
00000080: ac70 91bf a2ed 77bf e10b 49bf d1ef 33be
00000090: 3ce1 a7be d3b2 c3bf 2490 6cbf f03d b0be
000000a0: 4695 9dbf b05f 89bf 3187 aa3d b323 9a3c
000000b0: ba8d 07bd b05f e13c 58dd 0ebf 6ccc a2bf
000000c0: d997 9abf 01eb 4b3e 6dc2 073e 2be5 23be
000000d0: 6217 35bf 58c3 9dbd a2e0 a5bf 2298 7fbf
000000e0: b39c 4ebf 612b 05c0 9664 9dbf 2431 90bf
000000f0: b742 5ebf a1db 61bf 595d afbf 2d6f 89bf
00000100: d831 023e 9a45 75be b9a0 adbf 756a 97bf
00000110: 84d7 e7bf 0b3e 3fbf 0efd 2fbf 4bb9 62bf
00000120: 368f 2bbe 70f0 b3bf 627a 99bf f474 2dbf
00000130: 7ea2 8dbf 6585 1dbf ce47 96be 028d 6fbf
00000140: bdac abbf 394a 45bf 5669 1e3f 87d3 d4bf
00000150: a907 ea3e be38 f83f 134b cc3c 8cce 193e
00000160: f5aa 54bf 15c6 04bf 18e8 32bf 2acf 89be
00000170: 079f 14bf e1f0 1e3e f6a4 1cbf e613 59bf
00000180: 0d20 5ebf 9a71 e8bf 48dc aebf 474b 9abe
00000190: 1402 82bf 9c11 e4bf 52fb a23f 72d0 963d
000001a0: 2144 b0be e234 843f 79dc a0bf 6e80 57be
000001b0: c9c6 11c0 7331 35bf 233c a0bf 04ae 89be
000001c0: d084 d5be cd24 a6bc 5f13 94be fc49 04c0
000001d0: 7f02 df3f 90d9 7c3f 820f ba3e 36c2 cdbf
000001e0: be12 4a3e e50f b5bf 14e5 913f 70f4 c7bf
000001f0: 2fcb 40bf 53cc 8bbf 6a8f 543b 6e40 ffbd
00000200: 3951 7b3f cfea f9be 21f9 adbf 5eb8 86bf
00000210: 20bc 67bf daae 7dbf 9bb4 313e 6e49 f9bf
00000220: 90fe 0bbf 7be7 0fbf 90af d53e 367d a53c
00000230: 4071 dfbe 84ea 9d3f 95ad b73e 5ccc 95bf
00000240: 2b0f 27bf 9faf b43d a1ee 89bc 517a b7bf
00000250: 751c 3ebd 9519 43bf 9e80 76bf f2d6 3bbf
00000260: d510 bebe 7d86 84bf 7460 8a3e 67d0 cabe
00000270: fc4d 7e3f 1a06 bf3e e486 95be 1a43 a8bd
00000280: 2f73 ccbf b0f7 eebf f82b b73e 8e3a a63e
00000290: c189 df3e 6704 0bbf c5a7 443f 656e 1cbf
000002a0: b0d5 40be b02b 71bf 5fee 38bf f69e 43be
000002b0: d074 123f a8d8 4dbe 7e25 37bf a114 93be
000002c0: aee6 18bf 51a9 b2bf 9749 f5be bad3 71bf
000002d0: 7a6d ecbf ddc3 5c3e e5e9 7fbf aa18 903f
000002e0: d35e 5ebe f3bd 74bd 0020 a8bf 9381 2bbf
000002f0: b3bb 36bf 0c24 12bf 0406 9fbf b29e 0dbf
00000300: 75a2 8cbf 6037 713e c120 78bf b0e7 48bf
00000310: 44f8 5bbe 2051 8d3e 33de bebe 865d 163f
00000320: 5453 82bd f79a 60bd a7c5 4cbf 95f2 6abf
00000330: 922b a0be e7ae 1fbf 7b40 cbbe 017d 0abf
00000340: b22f afbf 68b9 903d a583 583f 1521 c5bf
00000350: 6942 1fbf b402 8c3f 740b 963e e3e5 fbbf
00000360: 7210 acbf ecd6 87bf 0e35 8fbf befd adbe
00000370: e60d 9f3e 8555 91bf b832 36bf 53f7 5cbf
00000380: 8954 e6bf 3172 363f d063 c6bf d534 d6bf
00000390: 7beb bc3f f27e cbbe c69c d1bf 789c e8bf
000003a0: ed1b 5abf a9d1 bbbf 4755 91be 0c38 7f3f
000003b0: ff45 8ebf d7e4 d5be fac1 803f 970a 0bbe
000003c0: b3f8 a6bf 93f4 51bf ff65 a4be 3ed0 11be
000003d0: ac0b 0fbf 79b1 37bf 1b80 27be 8635 b9bf
000003e0: 6bff c73e bc3b 1fbf 8347 80bf 2e6b c0bf
000003f0: 9153 863d ad1c 2b3e d8e8 8dbf 36aa 38be

fc2.weight f4 [256, 256]
0.41525975 -0.032904323 0.010616795 -0.41891178 -0.4205503 -0.3392046 0.097053334 -0.17951813
0.3210389 0.24573393 -0.08977765 0.113502264 -0.34299016 -0.021159653 -0.07382976 -0.012124219
-0.180387 -0.017336126 0.27560526 -0.80271983 -0.10261276 0.19139533 0.7844746 0.3752159
-0.07286004 -0.17087045 0.020102132 -0.392292 0.22731566 0.21198352 -0.18625201 -0.21049361
0.12931785 -0.049488336 -0.11143348 -0.042159528 0.3921474 -0.18449336 -0.17186174 0.008002536
-0.036964867 -0.90771836 -0.113117225 0.07549381 0.47957066 0.14640532 0.308651 0.295054
-0.69768584 -0.25170895 -0.033065584 0.05997842 -0.17650037 -0.024665624 0.009571192 -0.17685369
0.14361101 0.36253914 0.2073072 0.4339285 -0.3995414 -0.23568213 -0.021223504 -0.22864516
0.29983497 0.0013978593 0.20504038 -0.16595356 -0.06526334 0.059225954 0.15513612 0.46635833
-0.16054206 -0.21407863 -0.045137614 -0.16229638 -0.24920678 0.014868216 0.27651784 -0.21103044
-0.12623943 -0.13177444 0.5466205 -0.41052312 0.13214114 -0.24907906 0.116893455 -0.3022499
0.25694913 0.1734143 -0.0040963083 -0.14907703 -0.43350857 0.20941474 0.48560864 -0.17505342
-0.1296678 0.5915578 -0.1463243 -0.13065827 -0.16014831 -0.7470876 -0.031832706 0.048526287
-0.19218855 0.06717972 -0.94515157 -0.06887227 0.42671284 -0.23443313 -0.3595542 -0.18924351
-0.1492511 -0.10744067 -0.099696554 0.31822234 0.5830358 0.23238386 -0.18809314 -0.4096775
0.3688954 -0.16875 -0.29685533 -0.35841683 0.05280015 0.0067831967 0.1310269 0.2944997
0.22883962 0.0166727 -0.039602686 -0.065452114 0.2734703 -0.11680223 -0.1591857 0.3382117
0.016122267 0.20111462 0.0044086445 -0.19314389 0.46571755 0.18091826 0.587959 -0.15920673
0.20323777 -0.077268735 0.18676673 -0.6783602 -0.6280525 0.032867283 0.06546584 -0.21425423
-0.14691445 -0.22268012 -0.17322753 0.16045105 0.22902633 0.12600541 -0.03735331 0.10270859
-0.53568494 -0.32234153 0.2016847 0.09342039 0.23951705 0.06561238 0.029803544 -0.9927014
0.13044795 0.20408426 -0.52626413 -0.09594174 0.18242808 0.22927834 0.037397042 0.5650667
-0.060204983 0.21463597 -0.27330136 -0.48450604 0.46731785 -0.6839136 0.26331577 -0.05197069
-0.084273994 0.04951533 0.13603997 -0.15247573 0.42047843 0.13904175 -0.46223572 -0.023595924
-0.04742625 0.19352467 -0.33776262 0.18839979 -0.5790875 -0.100241736 0.15578122 -0.3704936
-0.36290395 -0.08716539 0.37583095 0.40245137 0.12044576 -0.09855242 -0.015997313 0.24895516
-0.12760621 -0.058516413 -0.10765715 -0.118424535 0.006813213 0.15314427 0.25515786 -0.6448839
0.005075731 -0.27841568 0.13612244 0.3811134 0.01685771 -0.11631835 -0.10435722 0.11635485
-0.57930654 0.2061664 -0.14028987 -1.1677482 0.36832467 -0.7373465 -0.019966614 -0.08782206
0.0054959035 0.06500866 0.11023679 0.26109934 0.05729806 0.028847894 -0.08299629 -0.22107223
-0.25268704 0.08110549 -0.08196083 0.1784243 0.120803796 0.22476889 -0.0377178 -0.16174085
0.08541895 -0.094464615 -0.06295529 0.1547205 0.19359782 -0.24989565 0.049428474 -0.18451048
00000000: ed9c d43e afc6 06bd 11f2 2d3c 9b7b d6be
00000010: 5e52 d7be 3aac adbe e6c3 c63d 9ad3 37be
00000020: 365f a43e ada1 7b3e 58dd b7bd e073 e83d
00000030: 689c afbe 0257 adbc 0f34 97bd a9a4 46bc
00000040: 5fb7 38be 7e04 8ebc 221c 8d3e 0c7f 4dbf
00000050: a426 d2bd 23fd 433e 54d3 483f 4c1c c03e
00000060: a537 95bd aaf8 2ebe 3aad a43c 7fda c8be
00000070: 70c5 683e 3512 593e d9b8 3ebe a38b 57be
00000080: e66b 043e 48b4 4abd 3d37 e4bd 78af 2cbd
00000090: 8bc7 c83e d4eb 3cbe 86fc 2fbe 121d 033c
000000a0: 7968 17bd 3b60 68bf 01aa e7bd 809c 9a3d
000000b0: 498a f53e 47eb 153e 8107 9e3e 5111 973e
000000c0: 8a9b 32bf ffdf 80be c76f 07bd efab 753d
000000d0: 83bc 34be 900f cabc 7dd0 1c3c 2219 35be
000000e0: c40e 133e bb9e b93e 5748 543e e02b de3e
000000f0: b190 ccbe a856 71be eadc adbc f521 6abe
00000100: f883 993e 6038 b73a 1bf6 513e bbef 29be
00000110: c9a8 85bd ea96 723d 01dc 1e3e 85c6 ee3e
00000120: 2365 24be 6e37 5bbe 38e2 38bd 0631 26be
00000130: 1030 7fbe d199 733c bf93 8d3e 5d18 58be
00000140: e944 01be e1ef 06be 52ef 0b3f 1630 d2be
00000150: 0250 073e 950e 7fbe d665 ef3d 80c0 9abe
00000160: d68e 833e 8593 313e 533a 86bb a6a7 18be
00000170: d6f4 ddbe d170 563e b2a1 f83e 3441 33be
00000180: a3c7 04be 5570 173f 0ad6 15be 48cb 05be
00000190: ebfd 23be 2241 3fbf 0363 02bd 80c3 463d
000001a0: 13cd 44be 8595 893d 74f5 71bf e80c 8dbd
000001b0: 1b7a da3e 3d0f 70be 7d17 b8be 0dc9 41be
000001c0: 48d5 18be db09 dcbd b52d ccbd 0aee a23e
000001d0: d641 153f 09f6 6d3e 7d9b 40be 40c1 d1be
000001e0: dcdf bc3e cdcc 2cbe 6cfd 97be 6982 b7be
000001f0: f844 583d 9445 de3b ea2b 063e aac8 963e
00000200: ef54 6a3e 3095 883c 6d36 22bd c20b 86bd
00000210: 4d04 8c3e 0236 efbd 9301 23be 152a ad3e
00000220: d812 843c fef0 4d3e 6476 903b 83c7 45be
00000230: 8872 ee3e a342 393e 7b84 163f 1707 23be
00000240: 901d 503e 123f 9ebd c73f 3f3e 04a9 2dbf
00000250: 0cc8 20bf d89f 063d f412 863d 7665 5bbe
00000260: be70 16be 4206 64be 8f62 31be 484d 243e
00000270: e185 6a3e 9007 013e c9ff 18bd e258 d23d
00000280: a622 09bf f309 a5be 6f86 4e3e 3053 bf3d
00000290: f543 753e c95f 863d 9026 f43c ae21 7ebf
000002a0: 2694 053e 77fb 503e 3fb9 06bf 1a7d c4bd
000002b0: 6dce 3a3e f1c7 6a3e a42d 193d 36a8 103f
000002c0: 8099 76bd 88c9 5b3e 28ee 8bbe 2d11 f8be
000002d0: 4944 ef3e f614 2fbf 53d1 863e 38df 54bd
000002e0: d897 acbd 96d0 4a3d 104e 0b3e 9922 1cbe
000002f0: f348 d73e f660 0e3e 29aa ecbe 3d4c c1bc
00000300: 0742 42bd 552b 463e 39ef acbe e0eb 403e
00000310: 143f 14bf 8a4b cdbd 1d85 1f3e 56b1 bdbe
00000320: 8cce b9be c583 b2bd ea6c c03e 1b0e ce3e
00000330: 44ac f63d dad5 c9bd cc0c 83bc 1aee 7e3e
00000340: 34ab 02be e8ae 6fbd 5a7b dcbd 9088 f2bd
00000350: 6041 df3b dad1 1c3e 0da4 823e 1c17 25bf
00000360: 5152 a63b 808c 8ebe ae63 0b3e 4c21 c33e
00000370: 2e19 8a3c 5138 eebd 3db9 d5bd 744b ee3d
00000380: 6f4d 14bf 491d 533e 26a8 0fbe c678 95bf
00000390: 0d95 bc3e bdc2 3cbf 0691 a3bc 0ddc b3bd
000003a0: fb16 b43b 4323 853d d3c3 e13d d0ae 853e
000003b0: 5fb1 6a3d 6b52 ec3c f5f9 a9bd c260 62be
000003c0: 3260 81be a31a a63d 14db a7bd dcb4 363e
000003d0: fb67 f73d d129 663e fb7d 1abd 659f 25be
000003e0: 21f0 ae3d aa76 c1bd b4ee 80bd 0d6f 1e3e
000003f0: 823e 463e a5e4 7fbe 8375 4a3d 51f0 3cbe

fc2.bias f4 [256]
0.24558242 -0.053800948 -0.46117526 0.19084987 -0.36249697 -0.8848372 -1.0088538 0.3220313
0.33454204 -0.40432832 -0.22105592 -0.84455705 -0.3469036 0.13084354 0.41558796 0.37867346
-0.04750969 0.2907853 0.3842166 -0.56551045 0.34390476 -0.508651 -0.55133736 -0.32726967
-0.44365525 0.56500363 0.06793519 -0.13786577 0.10015873 0.091499954 0.40822396 -0.1378401
-1.050541 -0.11346499 0.12046308 -0.7147812 -0.21446289 -0.53087085 -0.07118349 -0.43632248
-0.30062038 -0.0077634207 -0.28859547 0.633068 -0.5735223 0.10142478 0.18107964 -0.030191677
0.104658805 0.6161868 -0.26425833 -1.0551565 -0.31889617 -0.16428867 -0.456274 0.62385887
-0.06176453 -0.62046057 0.12932934 -0.039115123 -0.29746297 -0.20588242 -0.7685648 -0.27392167
-0.6175976 -0.2949782 -0.150914 0.17028573 -0.10253499 0.1784855 0.52660793 1.0120023
0.4050627 0.4292098 -0.18420164 -0.31683022 0.29487193 0.2260309 0.32708654 -0.11730011
0.33999678 0.08066551 0.85345036 -0.9084744 -0.09675524 0.06445643 -0.2457382 0.34826684
0.3624959 0.19910811 0.2892399 -0.19513686 0.38958776 -0.98536897 -0.5464184 -0.04357632
0.61347055 -0.45029452 -0.33545667 0.29685053 0.15527484 0.12501173 -0.56193423 -0.087711826
-0.077381566 0.5048997 0.52912384 0.37500656 -0.78319675 0.56001574 -0.46929526 -0.21588722
-0.27817875 0.10353038 0.8781263 0.4123792 -0.8309939 0.11027515 -0.74415076 0.17041153
0.07761977 -0.04868977 -0.81788313 -0.07047052 -0.6560511 -0.31043118 -0.117371045 -0.031751662
0.660936 -0.49532598 -0.115818344 -0.022263069 0.16702083 0.5396359 0.018369 0.12089968
-0.2525907 -0.04487231 -0.4564587 -0.101322524 -0.71195436 0.017570104 -0.6945875 -0.17713794
-0.36728668 -0.71504873 0.48647448 -0.16728665 0.10433909 -0.43331546 0.09353077 -0.20548192
-0.8787906 -0.34457678 0.33927104 -0.41739103 -0.50237316 -0.019763505 -0.781315 -1.4008851
0.23562285 0.3559422 0.2366482 -0.02627712 0.29777977 -0.19050066 -0.08989062 -0.27195784
-0.8081293 -0.61252654 -0.90264523 -0.31911275 -0.28419316 0.73096293 -0.21749605 -0.019439941
-0.8503173 -0.17640418 -0.1495844 0.045750223 -0.5099886 -0.619112 -1.0479121e-05 -0.44647008
0.54302233 0.7101251 0.05569795 0.06360194 -0.10755386 0.2549194 0.37612143 -0.6863574
-0.5594508 -0.45708776 -0.2854512 0.089628235 0.31090808 -0.37844402 -0.14274669 0.6555527
0.7929398 0.050802577 0.056000177 -0.78517956 -0.46991152 -0.20587069 -0.5140984 -0.065881595
-0.70410746 -0.54595673 -0.35790464 -0.21273161 0.15535574 -0.1315002 -0.0029306323 -0.5923304
0.568083 -0.48979858 -0.6860433 -0.21102345 0.031758826 -0.44804966 0.4470537 -0.0518788
-0.14533778 -0.24110658 0.20209666 0.46411204 -1.1306708 -0.029017815 0.031647626 -0.02590644
-0.20575027 -0.2631152 -0.068864465 -0.5358883 0.7258726 0.442106 -0.8141323 0.4119864
-0.32090262 -0.73976547 -0.2874153 -0.6844991 0.014054361 -0.19761673 -0.3596563 0.009115931
-0.7437432 -0.47228137 0.028401408 -0.07658406 0.382876 0.029142495 0.63134027 -0.4440113
00000000: f579 7b3e 625e 5cbd 2a1f ecbe 266e 433e
00000010: 3499 b9be b184 62bf 1f22 81bf 49e1 a43e
00000020: 1849 ab3e 1f04 cfbe 7c5c 62be e434 58bf
00000030: 599d b1be d9fb 053e f2c7 d43e 7de1 c13e
00000040: 8599 42bd d0e1 943e 0ab8 c43e 4bc5 10bf
00000050: 4914 b03e f436 02bf 7224 0dbf e48f a7be
00000060: c826 e3be 14a4 103f 9b21 8b3d af2c 0dbe
00000070: 0520 cd3d 5464 bb3d bb02 d13e f525 0dbe
00000080: 2178 86bf 5560 e8bd 59b5 f63d e7fb 36bf
00000090: 299c 5bbe 27e7 07bf a6c8 91bd a965 dfbe
000000a0: eaea 99be 4b64 febb c9c2 93be bf10 223f
000000b0: 5cd2 12bf ccb7 cf3d f16c 393e 8954 f7bc
000000c0: 5b57 d63d 6bbe 1d3f de4c 87be 5e0f 87bf
000000d0: 5c46 a3be 4a3b 28be bf9c e9be 37b5 1f3f
000000e0: cefc 7cbd 81d6 1ebf e96e 043e 2e37 20bd
000000f0: 114d 98be d7d2 52be aac0 44bf 763f 8cbe
00000100: e01a 1ebf 6207 97be 3389 1abe 625f 2e3e
00000110: ddfd d1bd e7c4 363e c7cf 063f 4b89 813f
00000120: 6164 cf3e 63c1 db3e 5b9f 3cbe 9237 a2be
00000130: 74f9 963e a574 673e e377 a73e 0a3b f0bd
00000140: 0f14 ae3e f533 a53d b97b 5a3f c791 68bf
00000150: 9c27 c6bd bc01 843d cba2 7bbe 0850 b23e
00000160: 1099 b93e ffe2 4b3e 4117 943e f5d1 47be
00000170: 0c78 c73e 2441 7cbf 14e2 0bbf 157d 32bd
00000180: 680c 1d3f 018d e6be fac0 abbe cbfc 973e
00000190: 5e00 1f3e 1303 003e ecda 0fbf 42a2 b3bd
000001a0: 3a7a 9ebd 1b41 013f a974 073f dc00 c03e
000001b0: 957f 48bf 315d 0f3f 7847 f0be 8a11 5dbe
000001c0: 726d 8ebe bc07 d43d e3cc 603f 5e23 d33e
000001d0: 04bc 54bf f0d7 e13d aa80 3ebf 5c80 2e3e
000001e0: 1df7 9e3d ed6e 47bd ca60 51bf d952 90bd
000001f0: f7f2 27bf d6f0 9ebe 3b60 f0bd 080e 02bd
00000200: 1a33 293f 5e9b fdbe 2b32 edbd 0a61 b6bc
00000210: 8207 2b3e 9425 0a3f 967a 963c 409a f73d
00000220: 9153 81be 07cc 37bd f4b4 e9be 2f82 cfbd
00000230: a442 36bf 2eef 8f3c 7dd0 31bf a663 35be
00000240: 000d bcbe 6f0d 37bf 2f13 f93e 314d 2bbe
00000250: bcaf d53d 86db ddbe 0f8d bf3d da69 52be
00000260: 6cf8 60bf 5e6c b0be efb4 ad3e 47b4 d5be
00000270: 879b 00bf 13e7 a1bc 4304 48bf 3450 b3bf
00000280: 1e47 713e 0e3e b63e e853 723e 1d43 d7bc
00000290: 9776 983e 9b12 43be 9318 b8bd 0f3e 8bbe
000002a0: 90e1 4ebf 8ace 1cbf c213 67bf bf62 a3be
000002b0: c481 91be 6320 3b3f 49b7 5ebe 8340 9fbc
000002c0: 65ae 59bf 4ca3 34be a72c 19be 9664 3b3d
000002d0: 9d8e 02bf 207e 1ebf 7bcf 2fb7 ba97 e4be
000002e0: 8303 0b3f c2ca 353f 8923 643d bc41 823d
000002f0: 3345 dcbd cc84 823e fd92 c03e 1eb5 2fbf
00000300: 2b38 0fbf 6807 eabe a926 92be 028f b73d
00000310: 582f 9f3e 6ac3 c1be 302c 12be 4dd2 273f
00000320: 1afe 4a3f 5d16 503d 7160 653d 8701 49bf
00000330: 3e98 f0be c4cf 52be f49b 03bf eeec 86bd
00000340: 6340 34bf d2c3 0bbf 473f b7be 51d6 59be
00000350: 9315 1f3e fda7 06be da0f 40bb f7a2 17bf
00000360: e36d 113f e1c6 fabe 89a0 2fbf 8816 58be
00000370: 8b15 023d c466 e5be 39e4 e43e dd7e 54bd
00000380: 6dd3 14be a5e4 76be 6df2 4e3e 18a0 ed3e
00000390: d2b9 90bf c5b6 edbc f1a0 013d be39 d4bc
000003a0: 33b0 52be 09b7 86be d008 8dbd fa2f 09bf
000003b0: c9d2 393f b85b e23e f96a 50bf e2ef d23e
000003c0: 594d a4be 4561 3dbf 1928 93be 553b 2fbf
000003d0: 4344 663c 0a5c 4abe df24 b8be fc5a 153c
000003e0: f465 3ebf ddce f1be 12aa e83c 1bd8 9cbd
000003f0: 5308 c43e 3ebc ee3c 849f 213f 7355 e3be

output.weight f4 [6, 256]
0.040002834 0.026097128 -0.15590368 -0.30654192 -0.7528827 -0.054315466 -0.23327167 -0.083079845
0.11455215 0.005751507 -0.088325106 -0.031006174 -0.018700888 0.3928772 -0.105725065 -0.13097946
-0.11307906 0.0576644 -0.11918881 0.3531492 0.03601302 0.26239076 0.03308947 -0.110254474
-0.045635767 -0.19865882 -0.09417626 -0.035861615 7.362632e-05 -0.018878615 0.05722417 0.016393263
1.8955445 0.08424351 -0.018519346 0.066425644 -0.01809398 -0.0125186285 0.06480149 -0.051568925
0.039647285 -0.007825427 -0.026949685 0.3048657 -0.47616094 -0.07594999 -0.050529085 -0.10482691
0.070201404 -0.3075533 0.01280618 0.11932516 0.34758356 0.0037282282 0.48868167 0.07701738
-0.005647614 -0.102516405 -0.11704749 -0.044346765 -0.00045943225 -0.031942252 -0.35907978 -0.041233715
0.25562075 0.39302328 -0.012900011 0.32120457 0.22564606 -0.16136417 -0.008816615 -0.00020261573
-0.3251937 0.27909598 -0.054453522 -0.36022976 0.19051626 -0.16797933 0.5764836 0.2545238
0.07187439 0.027396586 -0.020664373 -0.026955323 0.06284026 -0.0024461516 0.32454804 -0.012272637
0.33843613 -0.89263344 0.4634342 -0.4142083 -0.19530654 -0.1849555 0.67408425 0.03603567
0.10591186 -0.030811857 0.11244455 0.029302366 0.111085854 -0.047937654 -0.0075476766 0.13587564
0.022219285 0.022252923 -0.3763763 -0.018410027 -0.37269148 0.053070556 0.20196956 0.018714169
-0.06330706 0.04661556 0.07759227 -0.10523791 0.19562109 -0.024424214 -0.071903296 0.037163183
-0.6221601 0.20909475 0.074519284 0.13508804 -0.035207897 0.013041198 -0.31390578 0.0067219203
0.61851853 -0.080280945 -0.0928304 0.014348083 0.102244176 0.0013829671 0.10828635 -0.38654232
0.018077794 0.33663747 -0.03836592 -0.0819764 -0.1590833 -0.07901804 -0.28588718 -0.22945619
-0.012528649 -0.10736732 -0.23364264 0.013763878 -0.20941319 0.5327657 -0.19125211 -0.091679685
-0.077429116 -0.06848289 -0.08209308 -0.44732282 0.48421162 -0.040758025 -0.3612647 -0.12596731
0.60858715 0.95654815 0.178256 0.14442904 0.1412092 -0.09625723 -0.4509573 -0.34053314
0.13622059 -0.04990082 -0.057623938 0.48528814 -0.46074465 0.11757993 -0.1193278 -0.0632751
0.056363802 0.35493404 -0.030478597 -0.028027657 0.15173972 0.013361159 -0.03453319 -0.0025189684
-0.034936156 0.15290202 -0.014900967 -0.31457406 0.16667677 -0.34332615 0.008972345 0.15002152
0.037802037 -0.043249454 -0.007749689 0.20006125 -0.16921934 -0.06576952 -0.07199034 -0.106088236
-0.04038153 -0.13697055 -0.3923567 0.8531108 -0.273103 0.06443728 0.41225505 0.83895385
-0.0057754028 0.19466248 -0.06921705 0.37115005 0.08719525 -0.089373514 -0.199825 0.05084914
0.051490497 0.051472537 -0.004984513 0.038403418 -0.59575015 0.51194423 0.30062944 0.019034121
0.20061496 -0.42626637 -0.023631651 -0.100889556 0.38117144 0.24154925 -0.08532283 0.0013317994
0.034415953 0.11248045 -0.085514955 0.07809012 0.060683988 -0.17383063 0.10204549 0.0243042
-0.32993874 0.059541937 -0.43927678 -0.006874562 0.46364105 0.029430382 -0.035586253 -0.006720057
0.1392788 -0.15514062 -0.43570715 -0.0022815706 -0.16057076 -0.00019490538 -0.028341586 -0.033944488
00000000: 03da 233d a5c9 d53c 37a5 1fbe 10f3 9cbe
00000010: ecbc 40bf e579 5ebd c5de 6ebe c425 aabd
00000020: 519a ea3d 2377 bc3b cbe3 b4bd a900 febc
00000030: 9b32 99bc 3327 c93e 6286 d8bd 7b1f 06be
00000040: ff95 e7bd 8231 6c3d 4319 f4bd f9cf b43e
00000050: 6382 133d 1558 863e d388 073d 19cd e1bd
00000060: 92ec 3abd 386d 4bbe 7cdf c0bd a1e3 12bd
00000070: d467 9a38 53a7 9abc e463 6a3d 2a4b 863c
00000080: 34a1 f23f dd87 ac3d e2b5 97bc 2b0a 883d
00000090: d439 94bc ef1a 4dbc a5b6 843d f039 53bd
000000a0: 3165 223d 3836 00bc 96c5 dcbc 5b17 9c3e
000000b0: 5ecb f3be ab8b 9bbd 96f7 4ebd 7eaf d6bd
000000c0: c1c5 8f3d a077 9dbe 03d1 513c c060 f43d
000000d0: 79f6 b13e 4a55 743b 7c34 fa3e 4abb 9d3d
000000e0: 9f0f b9bb 1ff4 d1bd 98b6 efbd f4a4 35bd
000000f0: f4df f0b9 e1d5 02bd 4ed9 b7be afe4 28bd
00000100: b9e0 823e 593a c93e 915a 53bc ed74 a43e
00000110: c30f 673e a63c 25be 9073 10bc 3f75 54b9
00000120: ca7f a6be abe5 8e3e a80a 5fbd 0970 b8be
00000130: b216 433e c602 2cbe 6e94 133f f250 823e
00000140: e132 933d ce6e e03c 5548 a9bc 69d1 dcbc
00000150: 65b2 803d 9d4f 20bb 292b a63e 2c13 49bc
00000160: 8047 ad3e a083 64bf 3f47 ed3e 1c13 d4be
00000170: 70fe 47be f964 3dbe c990 2c3f 249a 133d
00000180: 51e8 d83d 2669 fcbc 5449 e63d 840b f03c
00000190: fb80 e33d 465a 44bd 8052 f7bb fc22 0b3e
000001a0: 3805 b63c c34b b63c 65b4 c0be a0d0 96bc
000001b0: 6bd1 bebe 8360 593d 1cd1 4e3e 754e 993c
000001c0: 22a7 81bd f5ef 3e3d b2e8 9e3d f986 d7bd
000001d0: e550 483e 4a15 c8bc 0942 93bd 6c38 183d
000001e0: e245 1fbf ef1c 563e 919d 983d 8554 0a3e
000001f0: 2836 10bd c0aa 553c 42b8 a0be 8e43 dc3b
00000200: 3b57 1e3f 566a a4bd dd1d bebd 3914 6b3c
00000210: 6565 d13d ad44 b53a 3cc5 dd3d e0e8 c5be
00000220: e217 943c bf5b ac3e 9525 1dbd 3ee3 a7bd
00000230: bce6 22be 36d4 a1bd ce5f 92be 90f6 6abe
00000240: f644 4dbc 66e3 dbbd 0440 6fbe e381 613c
00000250: 6970 56be 5563 083f 98d7 43be 8fc2 bbbd
00000260: 2893 9ebd c240 8cbd 6b20 a8bd 7f07 e5be
00000270: 96ea f73e e3f1 26bd b0f7 b8be 93fd 00be
00000280: 5ecc 1b3f 57e0 743f be88 363e 35e5 133e
00000290: 2599 103e 8322 c5bd e0e3 e6be 5c5a aebe
000002a0: 697d 0b3e cd64 4cbd 1407 6cbd b077 f83e
000002b0: b9e6 ebbe bfcd f03d 2262 f4bd 6096 81bd
000002c0: bbdd 663d eab9 b53e 40ae f9bc 429a e5bc
000002d0: a861 1b3e c3e8 5a3c ad72 0dbd 4715 25bb
000002e0: 3719 0fbd 5992 1c3e 2f23 74bc da0f a1be
000002f0: 51ad 2a3e 72c8 afbe be00 133c 3e9f 193e
00000300: 4fd6 1a3d 5726 31bd 1af1 fdbb dbdc 4c3e
00000310: d647 2dbe 2cb2 86bd ac6f 93bd ca44 d9bd
00000320: 1a67 25bd 0242 0cbe fae2 c8be 7865 5a3f
00000330: 28d4 8bbe b1f7 833d 1813 d33e aec5 563f
00000340: 973f bdbb 9a55 473e abc1 8dbd 6107 be3e
00000350: 6c93 b23d 7609 b7bd ed9e 4cbe 3047 503d
00000360: b3e7 523d ded4 523d 2055 a3bb e74c 1d3d
00000370: 1583 18bf c70e 033f 1aec 993e 72ed 9b3c
00000380: 026e 4d3e 963f dabe 2a97 c1bc 2f9f cebd
00000390: e728 c33e b058 773e bcbd aebd c68f ae3a
000003a0: bef7 0c3d 265c e63d 7722 afbd b6ed 9f3d
000003b0: c68f 783d a800 32be 3afd d03d 9a19 c73c
000003c0: bbed a8be 3fe2 733d e3e8 e0be 0144 e1bb
000003d0: 5c62 ed3e fc17 f13c e4c2 11bd ed33 dcbb
000003e0: 1a9f 0e3e 2fdd 1ebe 0215 dfbe 6786 15bb
000003f0: a96c 24be 845f 4cb9 9d2c e8bc 6009 0bbd

output.bias f4 [6]
-0.39132538 0.025851937 0.023335528 0.3334885 0.112097494 0.0058960905
00000000: cd5b c8be 71c7 d33c 262a bf3c 01bf aa3e
00000010: 5f93 e53d fe33 c13b
