trained_model/01_HalfCheetah/TD3_Baseline_actor.pth (torch, 290654 bytes, 6 tensors)

fc1.weight f4 [256, 17]
000000 bb ac a1 40 28 98 51 3e 8b 33 33 bf 5c 98 74 bf
       5.0523353 0.20468199 -0.70000523 -0.9554498
000010 1f 76 48 bf a4 f8 da 3d 58 a0 d5 3e 19 16 87 3d
       -0.7830524 0.10691956 0.41723895 0.06596012
000020 81 85 be bc 88 5b 3c 3f 2a 94 e8 be 87 6d 85 bd
       -0.023257019 0.73577166 -0.4542554 -0.06515031
000030 f5 ff 6c bd 9c 9e 17 bd 99 b8 c6 bd 23 fd c1 bc
       -0.057861287 -0.037016496 -0.09703178 -0.023680275
000040 d9 73 be bb 2d e9 f5 be 60 07 25 c0 7d f4 d9 bf
       -0.00581215 -0.48029462 -2.5785751 -1.7027737
000050 e5 82 44 3e e7 79 44 be 27 e4 55 3f 23 a8 13 bf
       0.19190557 -0.19187127 0.8355126 -0.5767843
000060 85 54 ce 3d 03 eb 12 3d aa 26 ba be bc c3 aa be
       0.100747146 0.035868656 -0.36357623 -0.33352458
000070 34 f1 70 bd b0 bc b9 bc dc 0b 8a 3c 42 fe 8b bc
       -0.05882378 -0.022672981 0.016851358 -0.017089013
000080 e4 bd 91 bd 5f 63 0b bd 57 9d 08 bf f3 9b a7 bf
       -0.07116297 -0.034030315 -0.5336508 -1.3094467
000090 f8 c4 92 be d2 5a 41 3e 4b 99 07 bd b0 bc 85 3f
       -0.286659 0.18882301 -0.033105176 1.0448208
0000a0 bb 84 df be dc 92 0c 3f d8 45 63 be 77 fd 12 be
       -0.43655953 0.5491159 -0.22194612 -0.14354502
0000b0 f2 30 2c bf 7b b6 ad bb 3f 73 1c 3e 51 6e e0 3c
       -0.67262185 -0.0053012944 0.15278338 0.027396353
0000c0 19 b8 2b be e2 ec a3 bd b0 07 f8 bc f7 de 44 40
       -0.16769446 -0.08004166 -0.030277103 3.0761087
0000d0 43 c9 22 3f a5 9f 0e be fa 7e 51 3e 90 25 20 3f
       0.6358835 -0.13928087 0.20458594 0.62557316
0000e0 9e 65 92 bf 3a d1 79 bf e2 f1 13 3e 85 6c da be
       -1.1437261 -0.9758488 0.1444774 -0.4266092
0000f0 27 d3 6e 3f 52 e5 23 be e6 da 9b bc c6 3d 12 3d
       0.9329094 -0.16005448 -0.019025277 0.035703443
000100 3a f8 6f 3d b8 f4 6f 3d a5 8b 65 3d 51 04 c4 3b
       0.058586337 0.05858299 0.05604138 0.00598196
000110 85 fd cd 3f a1 ff 2f bf 15 06 01 3f e0 84 34 bf
       1.6092993 -0.68749434 0.50399905 -0.7051525
000120 f3 65 cb 3e e8 eb 3b 3f 08 86 0d 3f bf 1c 49 3f
       0.3972622 0.7340684 0.5528264 0.7855949
000130 19 38 1c be 96 6b 90 bf 6f 55 d6 be a1 a6 9c bd
       -0.15255775 -1.1282833 -0.41862056 -0.076489694
000140 e8 6f 93 be a9 97 5a 3d 4d de 14 3e df 1b dc bd
       -0.28796315 0.05336729 0.14537926 -0.107475035
000150 8b d9 cb 3c e1 27 fd bf 06 86 94 bf 2b af f8 bf
       0.024884006 -1.9777795 -1.1603401 -1.9428457
000160 8a 2a 0a bf 9f f2 68 bf 6f 90 9e be 2c 26 ed 3e
       -0.5397116 -0.9099521 -0.3096957 0.46318185
000170 d6 e4 a0 3e c5 a0 08 be 0e 34 82 bf 25 59 9a 3b
       0.31424588 -0.13342579 -1.0172136 0.004710334
000180 a4 63 c2 3c 5d 04 76 bd 5c b8 3b bd 53 99 3f 3b
       0.023729153 -0.060062755 -0.045830116 0.0029235675
000190 c9 99 f2 bc ca 87 ab 3c dc ae c5 3f cb 8c 87 bf
       -0.029614346 0.020938773 1.5443988 -1.0589842
0001a0 1a 90 8e be ef 86 1f 3f d9 06 17 bf f8 79 62 3e
       -0.27844316 0.6231527 -0.58994824 0.2211684
0001b0 cb e8 14 3e 51 f5 39 3f 41 de f0 ba 14 f9 86 3f
       0.14541928 0.7263995 -0.0018376784 1.0544763
0001c0 d2 2f 82 be 96 c3 c3 3d 66 ff d5 3d f2 4a 22 be
       -0.2542711 0.095587894 0.10449104 -0.15848902
0001d0 4a 78 48 bd c9 2e ff bd ef a3 47 3c 22 15 16 c0
       -0.04894284 -0.124600954 0.012185081 -2.3450398
0001e0 8f 7c 81 3f e1 62 c0 3f 3e df a8 3e de 90 42 3e
       1.0116137 1.5030175 0.3298282 0.19000575
0001f0 05 57 01 bf 56 32 5f bf 20 f4 45 3d 8e 8f 0a bf
       -0.50523406 -0.8718618 0.04832852 -0.541253
000200 9c c5 29 bf 3f a9 98 3d ea 60 d1 3d 02 52 1c 3d
       -0.6631715 0.07454156 0.10223563 0.038164146
000210 a4 35 86 bd 9b 1d 0c bc de f9 9f 3d a1 cc 30 3d
       -0.065532 -0.00855198 0.0781133 0.0431639
000220 b7 cc ca 3f 1c 7d 19 bf a8 5e 50 3e 19 91 8c bf
       1.5843724 -0.59956527 0.20348608 -1.098178
000230 b4 b2 a5 3f 1d fe 9d 3f 6e a0 77 3f b7 8f aa 3e
       1.2945161 1.2343174 0.9672917 0.3331277
000240 6a d8 df be 9c d2 4f 3f 36 ac 89 3d 0b c6 55 be
       -0.43719798 0.8118074 0.067223 -0.20876329
000250 10 9e f8 bd 47 a5 09 be b2 c1 81 bd 90 60 88 bd
       -0.12139523 -0.13441955 -0.063357726 -0.06659043
000260 34 35 18 bd 26 10 c0 bf 46 47 4d 3f 8e c8 c2 be
       -0.037160113 -1.5004928 0.8018688 -0.38043636
000270 c7 59 ec bd 6e b3 19 3e e9 b2 6b 3f 85 ab 15 bf
       -0.11540561 0.15009853 0.9206987 -0.58464843
000280 fa 01 9d bd 57 e7 4f be 51 57 8c bf 09 ca 8b 3d
       -0.076663926 -0.20303093 -1.0964147 0.068256445
000290 8e 5f 55 3e 61 11 fd 3c 7c 18 0d bc d4 29 aa bd
       0.20837232 0.030892076 -0.008611795 -0.08308759
0002a0 b1 3f 5c bd 66 30 4c bd ba 55 1d c0 2d 8a b2 bc
       -0.05377168 -0.049850844 -2.4583573 -0.021794403
0002b0 36 30 a4 3f 42 05 94 3e 02 3e ed 3d 5d 8a 34 3f
       1.2827213 0.2891026 0.11584093 0.70523626
0002c0 c1 04 5e 3e c8 35 68 3e 84 42 0e be f8 f3 c0 be
       0.21681501 0.22676766 -0.13892561 -0.37686133
0002d0 97 a1 b7 3e f2 a4 41 3d 08 67 84 3d 5f 99 33 3d
       0.3586547 0.047276445 0.06464964 0.043847438
0002e0 76 74 73 3c 9e 99 09 bd dc d4 42 bd ed 82 7d c0
       0.014859309 -0.033593766 -0.04756628 -3.961116
0002f0 95 58 cd bf 2f a7 2c bd 23 b7 89 3f d3 15 23 be
       -1.6042658 -0.042151626 1.0759014 -0.15926294
000300 19 cf 80 bf a1 d9 59 bf c8 f7 f3 be eb 8f 33 be
       -1.0063201 -0.850977 -0.4764998 -0.17535369
000310 53 f1 2d bf 56 0d 32 3d 6a 51 96 bc 0c 65 b5 bd
       -0.67946357 0.04346975 -0.018349368 -0.08857164
000320 56 50 a6 3c d8 e1 47 3d 7e 95 21 3c 9c 5e 60 bd
       0.020301979 0.048799366 0.009862302 -0.054777727
000330 26 41 2f 40 f1 00 f0 bd 3b 19 5b 3f 6d 9b ed 3f
       2.7383513 -0.117189296 0.85585374 1.8563057
000340 fc 0b 39 3f 8a af d1 bf f8 f8 b8 3d e5 72 0a 3f
       0.7228391 -1.6381695 0.09031862 0.54081565
000350 c2 51 f0 be 7d bf ed 3f f1 a0 80 3c 09 6c ef 3d
       -0.46937376 1.8574063 0.015701743 0.11690528
000360 44 0d ba bb a5 7b 2a bd 2b 59 4a bd 6e 2c 31 be
       -0.005677851 -0.041621823 -0.049401443 -0.17302105
000370 03 19 1b bd 51 b8 5f 3d ec 63 b9 bd bc df cf bf
       -0.03786565 0.054619137 -0.09052262 -1.6240153
000380 e1 be 33 bf 3d f5 28 3f 67 98 d2 bd c5 49 c0 be
       -0.70213133 0.65999204 -0.10282975 -0.37556282
000390 f0 8c 71 3f fe 17 23 be 4c db a4 bd 73 01 36 3f
       0.9435568 -0.15927121 -0.0804964 0.7109596
0003a0 db d0 98 3d 67 d5 64 3e b4 b6 71 3d e9 d0 ea bc
       0.07461711 0.22347032 0.05901213 -0.02866407
0003b0 e5 17 ad 3d 76 fe eb bd 05 5e 75 40 86 3f 80 3e
       0.08451823 -0.11523144 3.8338635 0.25048465
0003c0 9c 07 38 be df 50 65 3f 7a 41 0d bf 77 2c a3 3f
       -0.17971653 0.89576524 -0.55178034 1.2747945
0003d0 ed 1d 9e 3f b7 44 eb bd 44 fd 25 3e db d3 30 bf
       1.2352883 -0.11487716 0.16209894 -0.69073266
0003e0 15 99 fb 3e aa a3 59 bd dc 23 17 bd 1e 10 12 3c
       0.4914023 -0.053134598 -0.036899433 0.008914975
0003f0 c7 d5 84 3d 09 50 d2 bc d7 77 87 bc 82 9d b8 3f
       0.06486087 -0.02567293 -0.016536636 1.4423068

fc1.bias f4 [256]
000000 3b 68 55 3e a7 c2 95 bd 3d ec e7 3e a9 21 59 3c
       0.20840542 -0.073125176 0.45297423 0.013252654
000010 a4 75 aa bf 2c 57 b6 be bb e3 54 bf 43 c4 6c bf
       -1.3317151 -0.35613382 -0.8315999 -0.9248697
000020 7d fe bf be 97 5f 5a bf 89 dc 37 3f 81 0b a6 bd
       -0.37498847 -0.8530211 0.71820885 -0.08107663
000030 4b 6a 6c bf e8 55 ef be 5a 4c 68 bf 12 90 d0 3d
       -0.9234969 -0.4674523 -0.90741503 0.10183729
000040 93 c2 a4 be 07 a8 af be 84 7c 89 bf c8 11 89 bd
       -0.32179698 -0.34307882 -1.0741124 -0.06692845
000050 a7 bb a9 3f fd a7 b2 be 3d f2 7f be f1 c8 03 bf
       1.3260392 -0.3489379 -0.2499475 -0.5147849
000060 46 27 34 bf 75 1b b9 bd 0a 17 07 bf c4 89 2c bc
       -0.70372427 -0.0903844 -0.5276953 -0.010530893
000070 12 92 9a be d8 cb 64 bf 34 24 03 bf 6d e4 16 bf
       -0.30189568 -0.8937354 -0.51227117 -0.589423
000080 ce 15 04 bf e8 b0 7a bf d7 92 a1 bf b9 e3 ed bc
       -0.5159577 -0.9792619 -1.2622937 -0.02903925
000090 45 e4 9e 3c e4 76 19 bf bc 6b 87 bf 0c e0 41 3e
       0.019395957 -0.5994704 -1.0579753 0.18933123
0000a0 57 37 c1 bd 48 dd 79 bf ef 5c 90 bc bd 4d ce be
       -0.09434383 -0.97603273 -0.01762244 -0.40293685
0000b0 38 c2 2f 3d 79 9f 8a bf 78 9f 95 3e 1e 22 d1 be
       0.04290983 -1.0829917 0.29223228 -0.40846342
0000c0 c2 de 9e bf b0 98 e4 be e9 4e 78 bf 93 5d 20 bf
       -1.241173 -0.4464774 -0.9699541 -0.6264278
0000d0 b1 0a d1 be 2c c4 43 bf b5 82 f9 bd 52 58 a2 bf
       -0.4082847 -0.7647121 -0.121831335 -1.2683203
0000e0 50 00 8b be 05 b9 c2 bf 6c ed 8a 3e 6a b2 fc be
       -0.27148676 -1.5212713 0.27134264 -0.4935487
0000f0 5c 40 02 bf b2 e9 63 bf 44 c4 91 bf 28 4b af bd
       -0.50879455 -0.89028466 -1.138802 -0.08559257
000100 d1 b1 71 be de e3 49 3f ed 7c 3c bf 08 15 86 bf
       -0.23602988 0.7886332 -0.7362812 -1.0475168
000110 8c a0 97 bf 88 f2 2e bf 83 ed 6a bf 97 39 15 3f
       -1.184587 -0.68338823 -0.91768664 0.58291
000120 df 3e 06 3e a0 a7 95 bf 14 fd b8 bf a9 0d 47 bf
       0.13109921 -1.169178 -1.4452233 -0.7775522
000130 39 4d 90 bf 25 4d ae be 38 b7 b1 3f 8d 84 e0 3e
       -1.1273566 -0.34043232 1.3884039 0.43851128
000140 69 d1 a2 3d 93 73 44 bf bd 15 08 3f dc 80 50 bf
       0.07950098 -0.7673885 0.5315817 -0.81446624
000150 cb 35 e7 3d ea 32 8c 3f 45 4c e6 3e bd 37 80 be
       0.11289557 1.0953038 0.44980064 -0.25042525
000160 7e e1 bc 3f fa 65 67 3d 19 b9 19 bf 00 c6 51 bf
       1.4756315 0.056493737 -0.6004806 -0.8194275
000170 78 55 be bc a4 f3 e8 3e 61 2b 89 be 7b cf 34 bf
       -0.023234114 0.45498383 -0.26790908 -0.7062909
000180 7d 72 64 bf cf 5f 1d bf a9 54 4a bf 09 57 ce be
       -0.89237195 -0.6147432 -0.7903543 -0.40300778
000190 15 e7 40 bd ae 86 1b bf 2d fb 01 be a1 5a 56 bf
       -0.047095377 -0.6075238 -0.12693472 -0.8373204
0001a0 b9 01 1d be d1 f7 9a 3e 34 bc a4 bf 1a 34 9d be
       -0.15332688 0.30267194 -1.2869935 -0.30703813
0001b0 9d 32 8a be c9 82 72 bf 9e c3 af 3d 1f 87 3a be
       -0.2699174 -0.9473081 0.08582233 -0.18215607
0001c0 c9 9c 09 bf 93 3b 0a bf a0 dd 1f 3e 0a 94 af bf
       -0.5375486 -0.53997153 0.15611887 -1.3717053
0001d0 f8 d2 14 3f d2 d3 95 3f ea df d8 bd 15 cc c3 bf
       0.5813441 1.1705267 -0.10589583 -1.5296656
0001e0 de 3c 9b 3d bb a7 8c bf 09 6d 60 3f 2b f4 c1 bf
       0.07579969 -1.0988687 0.87666374 -1.5152639
0001f0 41 11 89 bd 2e a5 a3 bf 09 5f bc be 76 8b 88 be
       -0.06692744 -1.2784784 -0.36791256 -0.266689
000200 a0 75 75 3f a2 49 9c bf 86 36 61 be f1 07 e0 bf
       0.95882607 -1.2209971 -0.21993455 -1.7502424
000210 dd bf 48 bf 43 96 b1 be 2a d3 0f bf f4 51 2a bf
       -0.7841776 -0.34684953 -0.56181586 -0.665313
000220 38 11 1e bf ef 77 5e bf 78 8c 1c 3f 76 77 20 be
       -0.61745024 -0.86901754 0.6115184 -0.1567057
000230 9a 14 b3 3e 9f 3d 9a be 11 9a f6 3d 3d 7f d0 be
       0.34976655 -0.30125138 0.120411046 -0.40722075
000240 44 8a 10 bf 1c 4f 20 bf 7c cc 93 bd 4b da b0 bf
       -0.56460977 -0.6262071 -0.07216737 -1.3816618
000250 79 7a 1c be 6a 3d aa be ba ea 70 be 9b 44 36 bf
       -0.15281095 -0.3324998 -0.23527041 -0.71198434
000260 90 17 fc bd 48 63 3c bf 10 10 6d bf 8e 37 0f 3f
       -0.12309182 -0.7358899 -0.92602634 0.55944145
000270 50 63 6b 3f 23 fe 71 be 3e d4 30 bf dc 36 57 3f
       0.91948414 -0.23632102 -0.69073856 0.84068084
000280 6f 39 18 bf af eb 79 bf a4 90 03 bf ef db 87 be
       -0.59462637 -0.9762525 -0.5139258 -0.26534984
000290 b7 89 02 3f a0 92 4a bf 97 d1 52 3e 54 cc 42 bf
       0.50991386 -0.7912998 0.20587765 -0.7609303
0002a0 46 f1 89 be 48 21 11 be 47 95 20 bf d3 fb 00 be
       -0.2694189 -0.14172852 -0.6272778 -0.12596063
0002b0 30 49 2c be cc eb 28 3f 00 29 12 3f 6e 9a 52 be
       -0.16824794 0.659848 0.5709381 -0.20566723
0002c0 c0 93 f0 be 1b 82 bc bd 30 e1 a4 be 7e e8 38 bf
       -0.46987724 -0.09204503 -0.32203054 -0.72229755
0002d0 26 b3 0e bf dd 90 36 bf e7 e2 02 bf 87 01 a0 3e
       -0.5574211 -0.71314794 -0.51127476 0.31251165
0002e0 e0 5d 8a 3e 48 4a b8 be ff f8 94 bf 83 7f ad bf
       0.27024746 -0.35994172 -1.1638488 -1.3554538
0002f0 fc b8 b6 bf 59 d5 82 bf b1 14 80 be f1 c9 f8 be
       -1.4275203 -1.0221359 -0.25015786 -0.4859157
000300 e0 78 0f bf c5 d8 31 3f 43 cf 91 bd 7f 8c 60 bf
       -0.56043816 0.6947139 -0.0711961 -0.8771438
000310 4b 1a 24 bd c8 e0 7a 3f 20 ab 02 bd 54 4e 90 be
       -0.040064137 0.9799924 -0.03190148 -0.2818476
000320 96 20 04 bf 3f 4b 91 be 45 67 a2 bf df 2c 28 bf
       -0.5161222 -0.2837772 -1.2687765 -0.6569347
000330 a9 30 4a bf dd 42 0a bf 01 7c 43 3f 8f 4c 29 bf
       -0.789805 -0.54008275 0.7636109 -0.66132444
000340 18 da f6 be cb 06 9e bd 78 ad 59 3e f1 c3 10 bf
       -0.48213267 -0.077161394 0.2125758 -0.5654898
000350 3c 81 93 bf 31 14 2c bf 1c b5 48 bf 4b 9a 8d bf
       -1.1523814 -0.6721831 -0.7840135 -1.1062711
000360 e4 d2 e7 be 39 f2 6f bf 43 1f 59 bf bf 81 00 3e
       -0.45278084 -0.9372898 -0.84813327 0.12549494
000370 d3 50 e6 bd 80 b2 91 bf 99 57 37 3f 26 36 77 bf
       -0.11245885 -1.1382599 0.7161804 -0.96567
000380 ea 6b 95 be 99 ad 95 bf ca 39 9e 3e 7d 87 5d bf
       -0.29183894 -1.1693603 0.30903465 -0.86534864
000390 c7 44 03 3f 5b 6e 7b 3e f9 e6 d6 bf e4 fa 1c bf
       0.5127682 0.24553816 -1.6789237 -0.6132033
0003a0 04 cf f8 bd ab 02 60 be a6 b1 07 bf 7d 3c 47 3c
       -0.1214886 -0.21876018 -0.53005445 0.012160418
0003b0 80 91 62 bf 90 a7 43 3e fb 05 29 3e 40 e6 c9 3e
       -0.88503265 0.19106889 0.16506188 0.3943348
0003c0 f6 4b eb 3e 72 00 18 bd 03 43 8b 3e 3c 02 4e be
       0.4595639 -0.0371098 0.27199563 -0.2011804
0003d0 0a c6 a4 be f9 a5 ff be 58 5c a3 bf 42 7b 9a bf
       -0.32182342 -0.49931315 -1.2762556 -1.2068865
0003e0 e5 8f d1 be 88 50 a7 3d 79 76 52 3f 48 36 18 be
       -0.40930095 0.08169657 0.82212025 -0.14864457
0003f0 20 14 0c 3e f5 05 a5 bd c7 9d de bf c1 72 34 3e
       0.13679552 -0.08057777 -1.73919 0.176219

fc2.weight f4 [256, 256]
000000 9b 6c ad 3c 52 30 2e 3e 68 af 66 3e a8 56 91 bd
       0.021169951 0.1701062 0.2252785 -0.070966065
000010 10 ea 16 be 8f 91 24 be 9b be 96 3d 71 80 4f be
       -0.14737725 -0.16071151 0.07360574 -0.2026384
000020 f1 7c c2 bd 17 b3 17 be c9 b7 39 3d f1 29 8e bd
       -0.09496487 -0.14814411 0.045341287 -0.069415934
000030 56 12 ea be 86 8d 2e 3e f3 bc 40 bf c8 93 04 bd
       -0.45717114 0.17046174 -0.75288314 -0.032367498
000040 75 4c 8a 3e 76 fe 12 3e 1e e3 35 bf 92 dc 3d be
       0.27011457 0.14354882 -0.7104968 -0.18541172
000050 65 f8 cf 3d 3f 19 02 3e 09 13 5d 3e c8 6b 71 3d
       0.10154799 0.12704943 0.21589293 0.05894068
000060 c7 cf 9a be a2 ea 05 bf ee 4d 85 3d 9d 53 90 3d
       -0.30236647 -0.52311146 0.065090045 0.07047198
000070 a0 72 5f 3d 2d ce fd bd f7 cb c9 3d 5c 0f 4a bd
       0.054552674 -0.123928405 0.09853356 -0.049331054
000080 2d 8a 2c 3e fd d9 c9 bd a6 15 46 3e 5a 15 3a bc
       0.16849585 -0.09856031 0.19344196 -0.01135763
000090 13 9b 1e 3d ee 18 8c be 5b 17 f1 3d 7e be ce bd
       0.03872211 -0.2736277 0.11772033 -0.10094927
0000a0 cf 28 d4 3d 13 73 7e bd da aa 6e 3e 97 6c 8c bd
       0.10359346 -0.062121462 0.23307362 -0.06856649
0000b0 4b 33 d9 bc f7 8f ac be 2e dc 5d ba 63 b3 cb be
       -0.026513716 -0.33703586 -0.000846329 -0.397853
0000c0 af e4 bc be d3 f7 09 bd 4a 91 83 be ad 5d 98 3d
       -0.36893222 -0.03368361 -0.25696784 0.07439742
0000d0 e1 85 89 3e 83 61 ad bd e7 bb 1b 3d 36 9d 1a 3d
       0.26859954 -0.084658645 0.038020995 0.037747584
0000e0 bf f4 10 bd 08 67 b3 be 17 8c 98 3c 66 2c 8a 3e
       -0.035389658 -0.35039544 0.018621488 0.26986998
0000f0 d0 6f 0c be 3c be b0 3d 05 7d 35 3e 49 5b a6 be
       -0.13714528 0.08630034 0.17723472 -0.3249152
000100 bd 1b 90 3e 54 98 bf 3e 74 94 ff 3a 21 ec 1c 3e
       0.28146163 0.37420905 0.0019499199 0.15324451
000110 2f b8 b6 be 9a 22 e2 bc d8 37 99 be 44 5a 53 be
       -0.35687396 -0.02760439 -0.29925418 -0.20639902
000120 05 ae a8 bd d5 44 45 be 82 11 b1 be 6b c9 0f be
       -0.082363166 -0.19264539 -0.3458367 -0.14041679
000130 9f cd d2 bd 07 8d fd be 1f 9c b5 3d cc 9c 19 3d
       -0.10293125 -0.49521658 0.08867668 0.03750305
000140 7d d4 22 bf 3d ff e0 bc 52 5c 68 3d a1 08 ce 3e
       -0.6360548 -0.027465457 0.05672867 0.40240958
000150 b6 39 dd bd 02 2e cb 3e 32 90 24 3e 1a 51 20 be
       -0.10802023 0.3968354 0.16070631 -0.15655938
000160 3d e1 69 3e d2 cc a0 3e 08 fa 30 be bd 35 04 bd
       0.22839828 0.31406265 -0.1728288 -0.03227781
000170 9f 62 d3 3d 6f 3c 2f be 33 94 57 3e fd 6a 8b bc
       0.10321545 -0.17112897 0.21052627 -0.01701879
000180 79 01 0a 3f 0a 24 8f be f7 fc dc 3c 8a 3f e4 bd
       0.539085 -0.27957183 0.026976092 -0.111449316
000190 41 c9 1a 3e e5 03 bd 3b 8e 62 eb be 23 99 43 bd
       0.15115835 0.0057682865 -0.4597363 -0.047753464
0001a0 a2 64 8d 3e 2e 9e 70 3d 86 31 bb 3e 38 f3 d4 3c
       0.2761584 0.058744602 0.3656122 0.025994882
0001b0 8e 69 ef 3d 9c 72 6f be 3a 86 05 3e a9 71 20 be
       0.11690055 -0.23383564 0.13039485 -0.15668358
0001c0 34 ff 6e 3d d6 39 cb be ca 4e 23 3e a6 12 81 be
       0.05834885 -0.39692563 0.15948024 -0.2520954
0001d0 e9 f4 17 3e d4 8f a1 3c 20 26 46 be 09 9a 8e be
       0.1483952 0.019721903 -0.19350481 -0.27851894
0001e0 d1 28 eb bc 99 47 75 be 1a bf 11 be b4 2c 14 bd
       -0.028705986 -0.23953094 -0.14233056 -0.036175445
0001f0 1b 0d 90 be 1a f6 8a 3e 3d c1 4d 3e 68 cd 8c bb
       -0.28135 0.27140886 0.20093246 -0.0042969473
000200 04 41 7c be 77 fc 33 3e 9b 40 54 3e 19 71 1b be
       -0.24634176 0.17576776 0.2072777 -0.15179862
000210 c0 d3 22 be 29 dd 17 bf 33 65 0a 3e 5d 3d 49 3e
       -0.15901089 -0.5932184 0.13515167 0.19652314
000220 ab cc bd 3d cb b1 7e be 52 71 1a bf 95 75 8d be
       0.09267553 -0.2487251 -0.60329163 -0.2762877
000230 39 55 18 3e 49 99 1d be 37 41 5d be 91 55 91 bd
       0.1487626 -0.15390505 -0.21606909 -0.070963986
000240 67 9a 82 bd 1e c6 7b 3e 58 cc a0 bc d4 28 07 3f
       -0.06377106 0.24587294 -0.019628689 0.52796674
000250 08 ac b4 3d 76 23 62 bd 2b b3 a3 3d 0a 78 41 3e
       0.08821875 -0.0552096 0.07993158 0.18893448
000260 55 1f c7 be 41 be 2d 3e 78 de 20 3e f7 55 f6 be
       -0.38891092 0.16967107 0.15709865 -0.4811246
000270 93 f1 21 3e 27 0e f0 39 48 49 9b bd 64 51 b2 3e
       0.1581481 0.00045786912 -0.07582337 0.3482772
000280 a1 5d b5 bc 80 3a 37 3e 8c 6e a0 3d 61 49 55 be
       -0.022139372 0.1789341 0.07833585 -0.20828773
000290 af 63 d5 be 71 d7 5c 3d 1e 2e 09 3e 8c ec 1f 3e
       -0.41677615 0.0539164 0.13396499 0.15617579
0002a0 14 4a ae bc 19 a4 86 bd 3c 57 12 bf 8b 44 07 3e
       -0.021275558 -0.06574268 -0.5716436 0.13209741
0002b0 29 f7 ff bc dd 42 ca be 5f b1 85 3c da df 10 be
       -0.031245785 -0.39504138 0.016319929 -0.14147893
0002c0 ca a5 fd 3d 75 36 3a 3e 19 fd 68 be 53 4e b6 3c
       0.123851374 0.18184836 -0.22752799 0.022254145
0002d0 89 64 6a 3e 34 3e 48 bd d7 f1 cc 3e 98 8d 89 3e
       0.22889914 -0.048887447 0.4002826 0.2686584
0002e0 b2 4f f1 3c be db 45 3e 87 a4 7e be a1 74 bc be
       0.029456947 0.19322106 -0.2486745 -0.3680773
0002f0 c9 55 7e 3b 3f f9 9a be 95 16 34 3d 5b 39 ef bd
       0.0038808456 -0.30268285 0.04396685 -0.116808616
000300 46 c9 e7 3b c9 4b 23 3f 8a 9d 2e bf 6d 08 e1 be
       0.007073554 0.63787514 -0.68209136 -0.4395174
000310 2e eb e7 3d f5 a1 a1 3e 31 9e 08 be b1 5a 9c 3e
       0.11324154 0.31568876 -0.13341595 0.30537942
000320 e1 3b 31 be d3 f3 3e 3e 22 a1 29 be 46 3c 19 bf
       -0.17307998 0.18647699 -0.16565374 -0.59857595
000330 e9 f8 c4 ba 5e 03 a9 bd 69 ff e9 be 93 33 05 3d
       -0.0015027794 -0.08252595 -0.45702675 0.032519888
000340 95 f0 35 3e 94 e2 26 bf df e9 07 be 4d c2 c4 3e
       0.17767556 -0.6518948 -0.13272808 0.3842949
000350 1c d4 97 bd 4c 8e 68 3e 4f 0c 03 3e 52 28 fb 3d
       -0.074135035 0.22710532 0.12797664 0.1226355
000360 5c 0e ed 3d 7e 05 52 3e 28 97 85 be e1 36 77 3d
       0.115750045 0.20509908 -0.26091886 0.06035507
000370 6d 26 93 3e 00 0f 9a 3d 47 ea ca bd e5 0c 5b be
       0.28740254 0.07522392 -0.09907966 -0.21391638
000380 ef 63 d1 be ac c1 4f be 76 0f cd 3d 52 7e 12 be
       -0.40896556 -0.20288724 0.100127146 -0.14306
000390 46 0f b0 be bb 65 1a bf b7 d6 8e be f1 66 1f 3f
       -0.34386653 -0.6031148 -0.2789819 0.6226645
0003a0 52 18 7c be c6 5b 93 bd 91 2f 1e be 92 63 d5 be
       -0.24618652 -0.07195239 -0.15447833 -0.4167753
0003b0 ab 18 f1 bd 6b b4 5f 3d 3f 2e 83 bd fa 70 26 3e
       -0.11772283 0.05461542 -0.06405305 0.16254035
0003c0 a7 3b 45 3e 6b 4d f1 bd 3d 17 da be d4 f9 99 be
       0.19261037 -0.117823444 -0.42595854 -0.30073416
0003d0 37 aa a7 3e 69 ab 56 3e d9 d6 41 be f1 2f c8 be
       0.3274705 0.20963825 -0.18929614 -0.39099076
0003e0 ac d2 94 3e f2 2e 50 3e 90 7b c8 3d 05 33 bf bc
       0.2906698 0.20330408 0.09789193 -0.023339758
0003f0 59 c2 97 3e b0 0c aa bd 09 7d dc be 6a 1d 63 bd
       0.29640463 -0.08303201 -0.43064144 -0.055447973

fc2.bias f4 [256]
000000 1e 7c 50 3e d8 6e 15 3e f3 61 2f be 2f 63 c1 be
       0.20359847 0.14593065 -0.17127208 -0.37770984
000010 f2 be 94 bc 2f 41 00 3d c1 cd 44 be 7e 73 57 3e
       -0.018157456 0.031312164 -0.19219114 0.2104015
000020 2c 76 a2 bd 63 ba ca 3e 0b d6 e9 bb fd 50 7b 3e
       -0.07932696 0.39595327 -0.0071361116 0.24542613
000030 dc 88 2f 3d 42 19 7f 3b 33 fa 2d be ad 6d 01 3e
       0.04285513 0.0038924967 -0.16989975 0.12639494
000040 ba 6e 66 be bb f5 85 3e 36 cd 11 be c8 34 e0 bd
       -0.22503176 0.2616404 -0.14238438 -0.10947567
000050 00 a3 1c bf 4d 81 15 be 8b 94 aa bd f9 a9 32 be
       -0.6118622 -0.14600106 -0.083291136 -0.17447652
000060 07 be 5a bd 80 b8 9d bd eb 8d 24 be 70 40 44 bd
       -0.05340388 -0.07701206 -0.16069762 -0.047913015
000070 5e fb 75 3e 86 eb 07 bd 1d 95 8b be 14 7f a8 be
       0.2402167 -0.033183597 -0.27262202 -0.32909453
000080 ab 3f cc be 42 5b 43 3d a8 b0 f4 be e3 19 03 bf
       -0.39892325 0.047694452 -0.47791028 -0.51211375
000090 c4 44 2e 3e 4f d7 44 be 53 68 bc 3c 62 b7 e0 be
       0.1701842 -0.19222759 0.022998964 -0.4388991
0000a0 54 44 4b 3e 3b 4f db 3d 87 af e5 bd 5a 12 b9 3e
       0.19850284 0.107084714 -0.1121512 0.36146814
0000b0 f7 fe b6 be 63 92 f5 bd 66 30 3a be d9 5e 73 be
       -0.35741398 -0.11990812 -0.18182525 -0.2376665
0000c0 fe 7a 61 3c fd 5d 00 3e c5 64 01 bf cd 5a 25 bf
       0.013762234 0.12535854 -0.5054439 -0.64591676
0000d0 34 92 51 3e 69 10 71 3d 1a b6 7d bf 66 21 2d be
       0.20465928 0.05885354 -0.9910599 -0.16907272
0000e0 73 6f 41 be f2 28 0a be 1a b5 89 3e ec 0a 25 bd
       -0.18890171 -0.13492182 0.26895982 -0.04029362
0000f0 a1 02 4a bd 5e eb e4 be f1 b2 5a be 3d 4d e8 bd
       -0.049318913 -0.4471082 -0.21357323 -0.11342857
000100 9d 3f 4f bf 3e b8 67 3e 33 d0 ab be 6b cb 87 bc
       -0.8095644 0.22628877 -0.3355728 -0.01657649
000110 f8 7b 07 bf c7 e7 0c bf 05 03 d3 bd 59 69 cc be
       -0.52923536 -0.55041164 -0.1030331 -0.39924124
000120 c7 8d e4 3d e2 14 61 be a1 2a 86 3d 3d e1 88 3d
       0.111598544 -0.21980622 0.065510996 0.06683586
000130 fe fb dc 3e 11 7a 4d 3d 91 6f eb 3d d9 39 4c bd
       0.43161005 0.05016524 0.11495889 -0.049859855
000140 e9 9f 63 3d 60 ac b4 be 80 64 65 bd 2d 6c 39 be
       0.055572424 -0.35287762 -0.056004047 -0.18107672
000150 4a d4 94 bd f2 ef 3d be 29 dd a8 be cb 41 b8 be
       -0.072670534 -0.18548563 -0.32981232 -0.35987696
000160 e6 13 d2 3e 3d 16 b5 3e da 3d ac be 4a af 7d 3e
       0.41030806 0.3536853 -0.3364094 0.24773899
000170 38 2f 67 bd 47 6f 06 bf 20 1b 1d be 6a 34 b2 3e
       -0.056441516 -0.52513546 -0.15342379 0.34805614
000180 66 3d a9 3d 11 a2 ad be bf ff cb be 2d 55 c9 3d
       0.08263664 -0.3391271 -0.39843556 0.09830699
000190 00 1c 86 be ee 3f 91 3e 15 0a 66 be 40 54 a9 be
       -0.26193237 0.28369087 -0.22464783 -0.3307209
0001a0 d3 06 a8 bd 59 ee 5e 3d ca a7 08 bd ee 1b 3b be
       -0.082044266 0.054426525 -0.03336314 -0.18272373
0001b0 17 40 12 bd d2 9c db bd 11 ba 28 be b8 8e 19 bd
       -0.035705652 -0.107232705 -0.16477229 -0.037489623
0001c0 53 30 9f bd 48 3d 93 3e 4b 10 dc bc e3 10 c1 3d
       -0.07772889 0.2875769 -0.026863238 0.09427049
0001d0 bb 48 8d be ea 1e 4d bd 2f f4 2e be 99 42 da be
       -0.2759455 -0.05007831 -0.17085336 -0.42628935
0001e0 11 2d 2e 3e a3 86 7b bf f1 31 37 be a1 d3 7f be
       0.17009379 -0.98252314 -0.17890145 -0.24983074
0001f0 76 fb 25 3e 78 a8 6c be de c8 b0 3e 56 b6 a6 be
       0.16209206 -0.2311114 0.3452825 -0.32560986
000200 05 7c 87 3c d7 27 90 3b a2 58 fe bd 21 3b e9 be
       0.01653863 0.0043992805 -0.12419249 -0.45552924
000210 77 72 82 be a4 32 34 3e b4 ed 69 bf d4 a9 ca be
       -0.25477955 0.17597443 -0.9137833 -0.39582694
000220 21 6f 1d be 8c 07 b7 bc ae 83 e4 3a 2f 60 e1 3d
       -0.15374424 -0.022342466 0.0017434263 0.11004674
000230 dc 56 9b be d2 62 45 3d 06 52 82 be 2d 44 98 bd
       -0.30339706 0.048189946 -0.25453204 -0.074348785
000240 c6 de 91 3e 74 7f eb 3e 6a 7c fe 3d 4d d7 10 bf
       0.28490275 0.45995677 0.12426074 -0.5657852
000250 9a 3c 15 3e 02 cd 33 bf 90 28 a8 3e d8 91 50 be
       0.14573899 -0.7023469 0.32843447 -0.20368135
000260 0e 9a 3a 3e 8a 7b 24 be b9 67 99 be 2d 7e d3 bc
       0.1822283 -0.16062751 -0.29961947 -0.025817001
000270 47 37 8f 3e 6e f9 7f be a4 11 9b be 7f f3 7e be
       0.2797186 -0.24997494 -0.30286896 -0.24897574
000280 2a e0 93 3d 25 0b e0 3c 4b d0 26 3e 6b 47 ff bd
       0.0722049 0.027349064 0.16290395 -0.12464794
000290 d7 cc c5 3e 80 a1 df be 93 a2 a4 bc 89 39 06 bd
       0.38632843 -0.43677902 -0.020097053 -0.032769714
0002a0 fa 09 dc 3e 15 ef 88 be 4c 26 0e bd ad 86 05 3b
       0.42976362 -0.26744905 -0.03470449 0.0020374462
0002b0 10 6e 0f bf 88 58 1a 3f ff d2 79 be 24 ba 9f be
       -0.5602732 0.6029134 -0.24396895 -0.31196702
0002c0 95 ae 0d bf c3 53 0d bf f6 90 fa be 37 d8 fd be
       -0.55344516 -0.55205935 -0.4893872 -0.4957902
0002d0 68 f9 f8 3d 26 1f b1 3d 57 80 88 be 50 3a de be
       0.121569455 0.08648519 -0.26660416 -0.43403864
0002e0 89 ec bf be ce 9e 51 be 57 dd be be 1d 7c b6 3b
       -0.3748515 -0.20470735 -0.37278244 0.0055689947
0002f0 09 08 94 bd a0 be f9 bd 15 c5 e6 3e 98 c6 2b bd
       -0.07228095 -0.12194562 0.45072237 -0.04193744
000300 e4 55 da bc 6b d7 06 3f 25 f5 99 be 34 e0 18 be
       -0.026652284 0.5267245 -0.30069843 -0.14929277
000310 05 85 39 bd a6 d3 35 bf be a8 af be 40 9b f0 3c
       -0.045292873 -0.71026075 -0.34308428 0.029370904
000320 3e 1d 11 bf 9e f4 16 bf 64 ef 74 be e9 a6 07 be
       -0.56685245 -0.58967006 -0.23919445 -0.13247265
000330 6d 05 b8 bc 99 95 2b be 47 4c fc be 23 8f 4c be
       -0.022463525 -0.16756286 -0.49276945 -0.19976477
000340 f9 72 81 bd a9 eb 49 be 82 57 c3 3e 88 8d 62 bf
       -0.063207574 -0.19718803 0.381527 -0.8849721
000350 95 7f 8d be 61 db 96 be 5b b6 8f bc 49 41 8a bb
       -0.276364 -0.29464248 -0.017543009 -0.0042192084
000360 58 12 7b be 09 1e 5d 3e 20 55 a8 be 70 7e b9 be
       -0.24518716 0.21593489 -0.32877445 -0.36229277
000370 38 63 ce 3e 3e 34 07 bd a4 24 ce be ef 53 f5 be
       0.40310073 -0.033008806 -0.4026233 -0.479156
000380 d8 0b e0 be 50 9e ee bd 18 74 57 be ae 57 22 3e
       -0.43759036 -0.116512895 -0.2104038 0.1585376
000390 ba 29 40 bf af e4 00 3e 0b 4b ab be 6a 87 3d be
       -0.7506367 0.12587236 -0.3345569 -0.18508688
0003a0 c8 af ce bb 60 d2 4a be 6a 97 12 bd 69 58 77 3d
       -0.006307576 -0.19806814 -0.03578893 0.06038705
0003b0 35 b9 d5 3e 02 71 00 bf d0 d4 9a bd 9b 40 80 3d
       0.41742864 -0.50172436 -0.07560122 0.062623225
0003c0 c3 70 27 bf 02 34 7e 3d 6f 3b 02 be d6 3f 74 3d
       -0.65406436 0.062061317 -0.12717985 0.05963119
0003d0 c2 37 bf be 8e 82 03 bd 7a ef 83 be c7 d8 96 3c
       -0.37347227 -0.03210693 -0.25768644 0.018413914
0003e0 1a fe 80 be 10 8a ae 3e 08 18 8d 3e 26 53 9a be
       -0.25193864 0.34089708 0.27557397 -0.30141562
0003f0 df f4 1b be e4 44 ba bc 00 b5 12 bf b7 00 23 bf
       -0.1523013 -0.022737928 -0.57307434 -0.63672966

output.weight f4 [6, 256]
000000 26 a7 d2 bd e1 25 21 3f a6 d4 6b 3e e9 7c 16 3e
       -0.10285787 0.62948424 0.23030338 0.14696087
000010 7d 4b 9a bf 3b 4f 84 3e 52 71 ff be 3d 80 c4 bc
       -1.2054287 0.25841698 -0.49891144 -0.02398693
000020 36 3b 3a be d4 b9 25 3f 07 41 37 bc fc fe 68 be
       -0.1818665 0.64736676 -0.011184937 -0.22753519
000030 f5 03 a3 3d 2c 04 09 3e f7 42 05 bf ed 3d a8 bd
       0.07959739 0.13380498 -0.52055305 -0.082149364
000040 f7 c0 d8 3d f3 bd 9f 3e a4 fe c5 be bc 6b f9 bc
       0.1058368 0.31199607 -0.38670838 -0.03044688
000050 c7 d2 b0 3d 04 53 c1 bb 0b eb f6 bb 38 56 10 bd
       0.086339526 -0.005899789 -0.0075353435 -0.035238475
000060 87 49 83 3e 2d 17 cf bd 0c a9 61 be b4 f1 0e 3e
       0.25642034 -0.10111842 -0.22037143 0.1395939
000070 05 09 83 3e 43 9a 04 3f 51 6f 02 3d 12 45 8e 3c
       0.2559282 0.51797885 0.03184444 0.01736692
000080 1e a6 b0 3d 84 aa 0a bf 14 9a 23 bf 9f 34 89 3e
       0.08625434 -0.54166436 -0.6390698 0.2679796
000090 9a 10 bb ba 5e 47 5e be ba 02 84 be 8a 3c 33 3e
       -0.0014271915 -0.21706912 -0.2578333 0.17503563
0000a0 c5 af 75 be cd 68 18 3e 51 b6 15 bd 97 8f e5 3e
       -0.23992832 0.14883728 -0.036550824 0.44836113
0000b0 b6 4c 28 bf 36 33 bf 3d c5 28 02 bc e5 93 05 bf
       -0.6574205 0.093359396 -0.0079442905 -0.52178794
0000c0 0d f3 26 be 01 00 e4 bd 98 25 b1 bc 9b 89 8b bd
       -0.16303654 -0.11132813 -0.021624371 -0.068133555
0000d0 ce f2 d5 3d 4e 3f 74 be 8d db bf be 6c 90 04 bc
       0.10446702 -0.23852274 -0.3747219 -0.0080910735
0000e0 ea 35 e9 3e 30 24 3e 3f e7 16 06 bf d6 a6 63 bd
       0.45548946 0.7427397 -0.52378696 -0.05557903
0000f0 14 03 3f bd 8d 35 d4 3e d3 4b 24 be e9 38 f1 bb
       -0.046633795 0.41447106 -0.1604455 -0.0073615205
000100 20 a8 c8 3e fa a5 1a bf 54 ce 48 bf 1d 16 41 3d
       0.3919077 -0.6040951 -0.7843983 0.04714023
000110 d3 15 be bd 6c 56 68 3e 55 f1 16 3c f6 1a 08 bf
       -0.092815064 0.22689217 0.0092128115 -0.5316614
000120 c9 ac 02 bc 72 3a 8a bc 91 3d 58 bf 77 56 5c be
       -0.0079757655 -0.016873572 -0.8446894 -0.21517359
000130 68 1f 88 3e c6 e0 bf be 68 a9 5c 3c d9 38 60 be
       0.2658646 -0.37476176 0.013468124 -0.21896686
000140 83 19 aa be 8b 2e 9a bf 0d 22 29 3e 17 f9 f7 bd
       -0.3322259 -1.2045454 0.16516896 -0.12108057
000150 9d 2e 41 bd 2d 8d 5f 3d ad 5e a6 3d ca 8f 9a 3d
       -0.047163595 0.054577995 0.08123527 0.07546957
000160 e0 65 a8 3d 09 cf f6 3a e1 4e 22 3d 37 09 32 be
       0.08222556 0.0018830012 0.039626006 -0.17386328
000170 0f 4e 46 3c c4 5e a7 3e cc 35 1e be 0a b3 17 3f
       0.012103572 0.32689488 -0.1545021 0.59257567
000180 de 28 65 3c 39 04 78 bf 72 80 8f bb c0 bc 10 3a
       0.013986794 -0.96881443 -0.0043793255 0.000552129
000190 cb ac 16 3e 74 32 a7 bd a8 a8 68 bf 67 22 c7 3c
       0.14714353 -0.0816392 -0.9088235 0.024308397
0001a0 6a bb b4 3e ee c2 c1 3d ce d0 10 3e a0 67 16 be
       0.35299236 0.09461008 0.14142153 -0.14687967
0001b0 35 4b 80 be 2e 8b d0 bc f1 79 3a 3e ec 9c c8 bc
       -0.25057378 -0.025456991 0.1821058 -0.024488889
0001c0 e3 64 13 be 00 a6 80 ba a1 67 47 3a d8 9d ff bc
       -0.14393954 -0.0009815097 0.00076066895 -0.031203195
0001d0 7d cd ba bd 60 15 01 bd d1 01 00 3f 4b 3e 19 be
       -0.09121225 -0.031514525 0.5000277 -0.14965169
0001e0 f6 7a dd be 66 38 6a 3f 2a 39 4f 3b 76 09 49 3f
       -0.43257874 0.9149231 0.0031619766 0.7853006
0001f0 84 82 99 3c 18 26 11 be ad 9a 91 bd 95 1f b5 3d
       0.018738993 -0.14174688 -0.0710958 0.088439144
000200 cc cf 99 be 3d 4d 69 3e 75 c2 1f 3c 5f a3 9f bd
       -0.3004135 0.2278337 0.009750952 -0.077948324
000210 ea e7 73 3d 6a d4 06 3d c7 46 53 3d 3d 25 5c 3e
       0.059547342 0.032917418 0.05158117 0.2149858
000220 81 01 c6 3e 56 88 3c 3e f4 48 db 3c 2b 52 9d 3b
       0.38673022 0.18411383 0.026768185 0.004801055
000230 e3 8f a9 be 29 2f 94 3e 35 85 55 be 1e 5e 8e bd
       -0.3311759 0.2894223 -0.20851596 -0.06951545
000240 2d 87 be 3d 89 53 c8 3e 2b c3 35 be 47 e4 d3 be
       0.093031265 0.39126232 -0.17750232 -0.413851
000250 be cb 00 3d 76 d3 d0 3c 96 fc 8c be 1d 02 74 be
       0.031444304 0.025491457 -0.27536458 -0.23828931
000260 fd 56 56 3d 30 cb 88 3e eb fa 2e c0 bc a5 59 bc
       0.052329052 0.2671752 -2.7340648 -0.013284143
000270 bf b2 c2 3e f2 cb 34 3d 46 bc 8b 3e 2f 12 06 be
       0.38026997 0.04413981 0.2729208 -0.13092874
000280 c0 0a ed 3e dd fb 2b bf 7b 73 f0 bd 7b c1 7d 3d
       0.46297264 -0.6718119 -0.11740776 0.061952095
000290 af fc 0e be 1f a6 bb bf c5 0d 2c be e6 53 02 c0
       -0.13963579 -1.4660071 -0.16802128 -2.0363708
0002a0 70 46 e8 be 91 1d 28 bf 90 cc 85 be ee 04 34 3d
       -0.4536624 -0.65670115 -0.2613263 0.043950014
0002b0 78 b5 f0 3e 22 19 eb be 1e 9d f2 bd 06 70 89 bb
       0.4701345 -0.45917612 -0.11846374 -0.0041942624
0002c0 52 c8 9c 3e ec 9d 94 3e 14 73 e8 bc b4 d4 d6 3e
       0.30621582 0.29026735 -0.028375186 0.41959155
0002d0 e0 9a 30 3f 76 e3 4b 3c bf a0 7f 3d b4 23 b1 3a
       0.6898632 0.012444368 0.06240916 0.0013514669
0002e0 e0 8e 8e 3e 57 b0 68 3f 53 fc 22 be 96 ad 26 3e
       0.2784338 0.90894073 -0.15916567 0.16277155
0002f0 dc 2d f8 bd 32 17 35 3d 6d aa dd bd ca b6 45 3f
       -0.12118122 0.044211574 -0.10823522 0.7723204
000300 76 00 45 bd c5 bc 12 3f 24 22 fb 3c ad ec 90 3e
       -0.048096143 0.5731929 0.030655928 0.2830557
000310 f3 83 c5 3d e7 df 15 3e 37 ee 64 bd 35 0e 1f 3e
       0.09644308 0.14636193 -0.055891242 0.15532763
000320 80 47 ad 3d 2a 15 10 3f c9 c2 ca bf d0 35 ca 3d
       0.08460903 0.56282294 -1.5840694 0.09873545
000330 76 4f fe be 44 57 97 3f b1 7b 93 3e 7c a6 bd 3e
       -0.4967 1.1823506 0.28805307 0.3704108
000340 84 cb 36 be 27 6b 6d be 5c 95 e1 3e 6f db 15 3f
       -0.17851073 -0.23185407 0.44059265 0.58537954
000350 2a e4 00 3e 2d aa 97 be cf 80 f7 bb dd 8c e8 bc
       0.12587038 -0.2962202 -0.007553197 -0.028387481
000360 82 03 ea 3e 9c eb cf be f9 e6 33 3e 68 c5 6a 3f
       0.457058 -0.40609443 0.17568578 0.9170747
000370 f1 ab 47 be 0a 19 fc 3c 24 33 92 3d e3 d3 7f 3e
       -0.19499184 0.030773658 0.071386606 0.24983172
000380 90 25 1c 40 bf 7c 29 bd fe fd 28 bc 70 ed aa 3e
       2.4397926 -0.041378733 -0.010314463 0.33384275
000390 40 50 b9 3e 91 64 d4 3e c6 c3 b9 3d e8 76 df 3d
       0.36194038 0.41482976 0.09070544 0.109113514
0003a0 03 f2 9c 3c 54 05 ac bd 81 55 fd be 83 30 a0 3e
       0.019158369 -0.08399454 -0.49479297 0.31287012
0003b0 9b b8 fc 3e 38 43 30 3c 02 e3 a3 3e d5 d5 d3 bb
       0.49359593 0.010758214 0.3200913 -0.0064646997
0003c0 4f f9 c5 3e 82 d4 12 3e 34 8c e0 be 5a 33 a7 be
       0.3866677 0.14338878 -0.43856966 -0.32656366
0003d0 06 3e 36 3b 2f 78 83 3d da a4 d1 be ef 9c 9b bc
       0.0027807965 0.064194076 -0.40946084 -0.01899573
0003e0 13 cc d1 3d 69 e8 fa bd 35 13 43 be 0a af 0e be
       0.10244002 -0.1225136 -0.19050296 -0.1393396
0003f0 57 5d 3f bf f8 c8 32 3d d5 cc 0a 3d f7 58 c3 3f
       -0.747518 0.04364869 0.03388675 1.5261525

output.bias f4 [6]
000000 b8 6e 24 be 6e e3 46 be ee 0d 12 3e a4 b0 6d 3c
       -0.16057861 -0.19422695 0.14263126 0.014507446
000010 7d 25 a7 3c 3a 4b 81 be
       0.020403618 -0.25252706
