trained_model/02_Ant/TD3_Ours_actor.pth (torch, 302942 bytes, 6 tensors)

fc1.weight f4 [256, 27]
000000 eb 7e a1 3f 90 4d c6 3e 4c 81 29 be 3e 5a fa 3e
       1.2616857 0.3873105 -0.16553229 0.48896974
000010 b0 56 17 bf 70 c1 3d 3e a5 91 97 be 05 01 1f bf
       -0.5911665 0.18530822 -0.29603305 -0.6211093
000020 b8 10 07 3e 02 6f 44 3e bd d1 88 3e 20 40 33 3f
       0.13189971 0.19182971 0.26722518 0.7001972
000030 65 53 7b bf b2 b4 76 bc 53 bb c3 bd 78 f3 35 bc
       -0.98174125 -0.01505773 -0.09557214 -0.011105411
000040 1f 97 8c bd 18 88 28 be 34 00 88 bd e2 d2 01 bd
       -0.068647616 -0.16458166 -0.06640664 -0.031695254
000050 99 43 91 bd 5f e7 00 3d 80 ec e5 bd 10 22 33 bb
       -0.07092971 0.031470653 -0.112267494 -0.0027333535
000060 6a 93 69 3b 25 46 90 bc f3 12 88 bb 69 3d cd be
       0.0035640844 -0.017611573 -0.0041526495 -0.40085915
000070 85 71 72 3e 45 63 14 c0 bf 5b ab be 65 5d 88 be
       0.23676117 -2.318559 -0.33468434 -0.26633754
000080 bc 90 42 bd f3 65 99 bb a8 82 c3 be e2 4e b8 3b
       -0.04750131 -0.0046813427 -0.3818562 0.005624638
000090 d3 81 37 be 71 63 a9 3e 2d 97 b4 3e 91 11 3a be
       -0.17920618 0.3308368 0.35271588 -0.18170764
0000a0 7a 7d ca 3b 84 27 a4 3d 61 5f a6 3e a8 d1 a6 be
       0.0061795088 0.080153495 0.32494643 -0.3258183
0000b0 04 80 d1 be 8b a6 43 be 0c 96 8c bd 45 55 b6 3c
       -0.4091798 -0.191065 -0.06864557 0.022257457
0000c0 e8 44 fb bc 76 46 90 bd e6 79 13 3c c7 6f a8 3c
       -0.030672505 -0.07044689 0.009001231 0.020561112
0000d0 be 34 b0 bc 4f ae a3 bc fb 3a 6a 3f fd 5a bf 3c
       -0.021509524 -0.019980578 0.9149625 0.023358816
0000e0 c1 b5 8b bf 9f 84 3c bf f9 d2 10 bf 31 0a 52 be
       -1.0914842 -0.73639864 -0.5657192 -0.205117
0000f0 1f 95 fd 3d 92 b3 a2 bd 9c 83 63 3d 1a d7 c3 3e
       0.12381958 -0.079444066 0.055545434 0.38250047
000100 ba 70 74 3e 65 b9 e8 be d9 a6 39 3d 5e a4 35 3c
       0.23871127 -0.45453945 0.045325134 0.0110865515
000110 3f 43 89 3e 73 3a f3 3e 2c 7b 8e be e4 3a 11 be
       0.26809117 0.4750553 -0.27828348 -0.14182621
000120 f8 4d 0f 3e ff 66 81 3c 7d 3f 7e 3c bb 66 dc 3c
       0.13994586 0.015796183 0.0155180665 0.026904454
000130 9c a8 b0 bd 5b cc 39 bb 0c bb 04 bd 28 21 a4 3c
       -0.0862591 -0.0028350565 -0.032404944 0.020035341
000140 e8 c9 e0 bc 41 4a 05 3d fc c7 38 bf 3c 80 8f bf
       -0.027440026 0.032541517 -0.7218015 -1.1211009
000150 b6 26 47 3f eb 54 e1 be ce 10 94 3f a5 28 33 3d
       0.77793443 -0.440101 1.1567628 0.043739934
000160 b1 c7 99 3e b4 0c 69 bd 63 57 2e 3f 40 53 a7 bd
       0.30035165 -0.05689688 0.6810209 -0.081701756
000170 95 5b 3d 3f 55 c8 27 be f8 f6 4b bf cb 94 5a bd
       0.7396787 -0.16385014 -0.7967372 -0.053364556
000180 04 e2 85 3e d6 56 02 be ea 57 4c 3e 58 28 7b 3e
       0.26149 -0.12728438 0.19955412 0.24527109
000190 d9 7d 07 3e e6 82 b9 3d f9 a4 60 3c 72 db c1 bc
       0.13231601 0.0905817 0.013711208 -0.02366421
0001a0 88 6f bd bd d6 9c 0f bc fd da 65 bd 62 5f 02 3d
       -0.092497885 -0.00876542 -0.056117047 0.031829245
0001b0 a0 01 cd bf 0d 9b 1e bf da cb a5 be 1f fb 13 3f
       -1.6016121 -0.6195534 -0.3238209 0.57805055
0001c0 24 28 0d bf 7d 78 de bd 92 29 a5 3e 60 be 3f 3e
       -0.55139375 -0.10862825 0.32258278 0.18724966
0001d0 d8 8b 3d be 9b 6e e5 3e 90 6a eb bc b8 49 9c 3d
       -0.18510377 0.44810948 -0.028737336 0.07631248
0001e0 85 ef 0c 3f 58 95 49 3e a9 ae 58 bd ef a9 b8 bd
       0.5505298 0.19685876 -0.052900944 -0.09016787
0001f0 f3 83 26 bd 64 80 a6 3d 8e c3 80 bd e0 20 d0 bb
       -0.04065318 0.08129957 -0.06287299 -0.0063515753
000200 e4 d6 f3 3c d4 60 49 3d 95 56 53 bd f5 61 3b 3d
       0.029765554 0.049164608 -0.051596243 0.045747716
000210 ba f0 0d 3d cf 68 6a bd 2a 11 31 3d ba c6 80 be
       0.034653403 -0.05722886 0.04322926 -0.25151616
000220 df 78 95 3e 66 48 3f 3f e9 c4 17 3f bc 33 b3 3e
       0.2919378 0.74719846 0.59284836 0.35000408
000230 ea a7 e4 bd 44 67 98 3e 76 94 99 3e d3 13 9f bd
       -0.111648396 0.29766285 0.2999608 -0.07767453
000240 07 1e 89 be 36 02 02 bf d6 3b c4 3e 69 65 7e be
       -0.26780722 -0.50784624 0.383269 -0.24843372
000250 24 2f 83 be cf 42 cf 3d 06 9c a7 bd 2d 1e 89 bd
       -0.25621903 0.101201646 -0.08184056 -0.06695209
000260 a9 7e 25 be 87 ab f0 3d b9 ca 29 bd 02 c7 6d bd
       -0.16161598 0.11751466 -0.041453097 -0.058051117
000270 09 69 9f bb 54 dc 99 bc 0b ac 1b 3b 92 bc 8c bd
       -0.004864816 -0.018781818 0.0023753669 -0.068719044
000280 11 e2 f1 3d 0e 67 0f bd a4 f9 8d be 2f 52 e6 bf
       0.11810697 -0.03501039 -0.27729523 -1.799383
000290 14 b2 8d bd ce 59 bd bf de b3 e8 be 3a 10 84 be
       -0.06918731 -1.4793031 -0.45449728 -0.2579363
0002a0 81 14 d3 bd 46 cc 5a bf b3 3e a4 3e 2f 93 84 be
       -0.10306645 -0.85467947 0.32079086 -0.25893542
0002b0 94 c5 05 be 34 b1 93 be 9a f4 0c 3e 6e 1b 8d be
       -0.13063651 -0.28846133 0.13765183 -0.2755999
0002c0 68 e0 15 be ef cd 13 be 1b 73 8c bd b5 1f b9 3b
       -0.14636385 -0.14434026 -0.06857892 0.0056495317
0002d0 98 0f fa 3d 12 1f 0d 3e 97 ac eb b9 0d f0 0d 3e
       0.122100055 0.13781384 -0.00044951282 0.13861103
0002e0 c9 d2 be 3d 3a e9 60 bc 86 ad c2 bd 66 5f 08 3d
       0.09317548 -0.013727481 -0.09505753 0.033294104
0002f0 f3 b1 01 be e6 8b 56 3d d0 15 53 3f 49 fe e6 3d
       -0.12665538 0.05237951 0.8245516 0.1127897
000300 91 7e 04 c0 4b 2d 28 3e 43 9b 64 3b ae 8b b8 be
       -2.070225 0.16423528 0.0034882582 -0.36044067
000310 0b 89 ad 3e eb 89 1c 3e 63 73 cd 3d c6 a5 e8 bd
       0.33893618 0.15286987 0.10031774 -0.11359744
000320 44 c3 2b be 2d 1e 78 bc 24 0c 34 bf 19 5e 4e be
       -0.16773707 -0.015143913 -0.70331025 -0.20153083
000330 5c a8 9f 3e ef 4e 04 be a1 ad 5b 3d 52 d9 1c 3e
       0.31183136 -0.12920736 0.053632382 0.15317276
000340 ed 5e 1c 3d 20 b5 75 3d df db d6 3c e4 e3 f7 3c
       0.038176466 0.059987187 0.02622789 0.030260034
000350 d8 a3 5e bb 4e da dc 3b 70 ea 89 bb f6 e5 1c bd
       -0.003397217 0.006739891 -0.0042088553 -0.038305245
000360 de 01 6c 3e 26 e6 eb be 3d 44 5e 3f 01 68 8a 3d
       0.23047587 -0.46074027 0.86822873 0.067581184
000370 5b 40 4b 3f 54 68 43 3e 7a 48 a2 3e 56 12 58 be
       0.79395074 0.19082767 0.3169592 -0.21100745
000380 d5 69 24 be a7 bf 68 3e f5 77 53 3c df b6 e5 3e
       -0.16055997 0.2272936 0.012907018 0.44866082
000390 80 f0 89 3e a8 12 12 be f5 67 b5 3e 3d 99 07 3f
       0.269413 -0.1426493 0.35430875 0.529682
0003a0 1c c1 d8 3d bf 87 8f 3d 56 7b f4 3d 39 44 0c 3d
       0.10583708 0.070083134 0.11937587 0.03424475
0003b0 2d 8c 76 3b 47 d2 4d 3b 81 40 33 3c b5 4a 1d 3d
       0.0037620172 0.0031405853 0.010940672 0.038401324
0003c0 48 13 eb 3c f7 29 42 3c eb 6d cb 3b 32 5b a0 bc
       0.028695717 0.0118508255 0.0062081716 -0.019574735
0003d0 66 77 42 3e 56 a9 14 c0 5a c1 01 bf 1d 60 b9 be
       0.1899086 -2.3228354 -0.50685656 -0.3620614
0003e0 58 9c c2 3d f6 7a 99 be 94 d6 8a bf b2 d9 2a 3e
       0.095024765 -0.29976624 -1.0846734 0.16684607
0003f0 82 12 e7 3e ef d4 1b be 4f d6 4d bf fc 0e 13 3c
       0.45131308 -0.15217946 -0.80405134 0.0089757405

fc1.bias f4 [256]
000000 56 9a 23 be 1f 00 b9 be d8 cd 46 bf 26 e5 59 be
       -0.15976843 -0.36132905 -0.7765784 -0.2127882
000010 8c c9 35 be 55 ab b3 be e8 07 52 3b cf 2b 51 3d
       -0.17752665 -0.35091653 0.003204817 0.05106717
000020 6a b0 6b bc 4e 1d 92 be 14 6e 27 3e 94 1b 7a 3e
       -0.014385322 -0.28537983 0.16350585 0.24424583
000030 1f eb d6 be 86 d9 8d be 01 23 bf be a9 bd 6d 3c
       -0.41976258 -0.2770502 -0.37331393 0.014510551
000040 6f 95 fe be b7 92 e5 bc 03 7c 10 bf 58 e1 f3 bd
       -0.49723384 -0.02802406 -0.56439227 -0.11908215
000050 04 09 d6 be 13 48 13 bd 7d 4f 2d be 70 7b cc be
       -0.41803753 -0.035957407 -0.16924854 -0.39937925
000060 03 c9 a3 bd 55 f3 e5 be 27 04 42 3e 0c e2 a4 3d
       -0.07997324 -0.4491221 0.18946896 0.080509275
000070 e5 02 d4 be 9d 33 9b be 06 a5 03 be 64 3a 96 3d
       -0.41408458 -0.30312815 -0.1285592 0.07335356
000080 e1 f3 5d 3d 3b 93 64 3c 52 33 f0 be c8 ad 8d bd
       0.05418766 0.013951118 -0.46914154 -0.06917912
000090 08 c7 d8 bd e2 fd c5 be 7a 22 07 3e c6 49 dc bd
       -0.10584837 -0.3867026 0.13196746 -0.10756259
0000a0 84 55 c8 be 3b bb 23 be 34 ee 79 3e a8 fa f1 3d
       -0.39127743 -0.15989392 0.24407274 0.11815387
0000b0 83 65 18 bf 55 b5 5d be a5 ea 20 3e 23 28 c9 be
       -0.59529895 -0.21651204 0.1571451 -0.39288434
0000c0 3b 8f 0d be 39 da 68 3e fa e0 ad 3d 21 36 07 bf
       -0.1382417 0.22739495 0.084901765 -0.5281697
0000d0 ee 74 47 be ba 8a 6d be 5e e0 6e be dc ae 0d 3e
       -0.19478199 -0.23197451 -0.23327777 0.13836235
0000e0 14 e8 17 3e 84 b9 6d 3e ea eb c8 3e 72 05 81 bf
       0.14834625 0.232153 0.39242488 -1.0079787
0000f0 a8 12 97 3c 50 d8 12 be c1 10 17 bf 5f 83 f8 be
       0.018441513 -0.14340329 -0.5900994 -0.48537728
000100 1d b7 b4 be 20 8d f1 be cb 2b 96 be dc 14 ef be
       -0.35295954 -0.47177982 -0.29330286 -0.46695602
000110 25 75 b2 be 18 3d 2c 3d 5f 38 76 be 93 ed ec be
       -0.34855 0.04205045 -0.24044941 -0.46275005
000120 a5 ae f5 3d 3b c6 98 3c 68 7a ab bd d1 7a e6 3e
       0.119962014 0.018649211 -0.083729565 0.45015576
000130 83 17 ee 3d 4b 62 9a 3e ce 7d 12 bf ba 2b d0 bd
       0.11625578 0.30153117 -0.5722321 -0.1016459
000140 3b 92 be be ad b6 f7 bd 8f fd 6c be 0e a2 f3 bc
       -0.3722094 -0.120953895 -0.231436 -0.02974036
000150 bc 0f 0a be a4 85 28 be a4 0a 2d 3e f7 0a 79 3d
       -0.13482565 -0.1645723 0.1689859 0.060801473
000160 ee 65 c5 be d0 e2 12 be 1f 3b d7 be f5 ea 7d be
       -0.3855433 -0.14344335 -0.42037293 -0.2479666
000170 58 b9 87 be 4a 71 54 be 06 9d 92 bd 26 c9 c5 3d
       -0.26508594 -0.20746341 -0.07158856 0.09657507
000180 e1 c3 24 3e fc e7 65 be 3b 27 f2 bd 81 b4 f3 3e
       0.16090347 -0.22451776 -0.11823889 0.4759865
000190 46 e8 cf 3e d9 67 57 be b7 15 66 be 90 31 b0 bd
       0.40606898 -0.21035708 -0.22469221 -0.08603203
0001a0 1c 4f a2 be 23 f0 24 3e 5f ad 3e be 24 a6 0c bf
       -0.3170098 0.1610723 -0.18620823 -0.5494101
0001b0 e9 e9 08 3f 78 9b c4 be 79 66 ac 3d 14 f5 23 be
       0.5348192 -0.38399863 0.084179826 -0.16011459
0001c0 53 4c 93 bc c8 55 ed bd 7f a7 93 be 3d bf 0b be
       -0.01798073 -0.11588627 -0.28838727 -0.1364717
0001d0 73 c2 23 be b0 2b 26 be a5 25 c1 be 41 b4 95 be
       -0.15992145 -0.16227603 -0.37724033 -0.29239085
0001e0 31 12 13 bd 5d ec 6a 3e a5 eb a1 be 39 ab a5 3e
       -0.03590602 0.22941728 -0.31625095 0.32357195
0001f0 4f 22 89 3e f9 f3 24 be 60 06 88 bd 16 de d7 be
       0.26783988 -0.16108693 -0.06641841 -0.42161626
000200 e0 fd a6 bd 9f f6 aa bd 99 94 9a bd ab a1 f6 bd
       -0.081538916 -0.083478205 -0.07547874 -0.120425545
000210 a0 13 70 be 5e dc ad 3d be c8 69 bd bf 28 f8 be
       -0.23444986 0.08489297 -0.05707621 -0.48468587
000220 f6 af d5 3c e7 df 88 3e 63 58 97 bd b4 a5 f2 bd
       0.026084881 0.26733324 -0.07389905 -0.118480116
000230 a1 e3 b8 3e ff 85 0d bf 91 91 d3 3d 4c 91 f7 bd
       0.36111167 -0.55282587 0.10330499 -0.1208826
000240 c1 f6 cc be 5d b2 48 be fb 65 ac be fd 39 17 3c
       -0.40032008 -0.1959929 -0.33671555 0.009230134
000250 d3 07 e0 be ab d1 63 be 9d 0f 03 bf e5 73 d7 3d
       -0.4375597 -0.2224795 -0.511957 0.10520152
000260 a9 c8 bb bd f8 20 83 be 70 9d d3 be ec 0b 0d be
       -0.09169132 -0.2561109 -0.41331053 -0.13774079
000270 27 2e 44 be 12 66 00 bc 7c 3c d6 be 50 84 f8 3d
       -0.1915823 -0.007836835 -0.4184302 0.121346116
000280 b1 f8 de be 9e fa d6 be 84 da 5d 3e de 44 63 be
       -0.4354911 -0.4198808 0.21665388 -0.2219424
000290 64 9b 9a bd 9d bc 5f 3d 50 81 60 3e 47 bd 99 3d
       -0.0754917 0.054623235 0.21924329 0.07506805
0002a0 87 22 42 3d 90 2d 3a be 21 8e f5 bc e4 25 96 be
       0.04739621 -0.18181443 -0.029974999 -0.29325783
0002b0 e6 a1 98 be dd 78 3f 3c 0f 11 c0 be ab 7b 7e be
       -0.2981102 0.011686531 -0.37513015 -0.24851863
0002c0 09 77 a4 be 2d f8 cc 3d a3 51 88 be 73 a6 06 bf
       -0.32122067 0.10008273 -0.26624784 -0.5259773
0002d0 d9 2f 01 bf 05 63 8a be 47 a9 2d bf 0a 38 17 be
       -0.50463635 -0.2702867 -0.6783642 -0.14767471
0002e0 ef 1e a3 be 04 c0 1f be 74 7f 11 3d ad 3b 5a 3e
       -0.31859538 -0.15600592 0.03552194 0.21311827
0002f0 f1 fd e8 be 4a 2b c8 be 4d ae d0 be 95 d6 fa 3d
       -0.45506242 -0.39095527 -0.4075798 0.122479595
000300 a6 4c 47 bf 76 ed ed be 91 cc 1a bf 67 56 9a bc
       -0.7785133 -0.4647023 -0.60468394 -0.018840028
000310 b5 e9 03 bf 52 ca 10 bd cb 48 20 be ce df d0 3c
       -0.51528484 -0.035349198 -0.15652768 0.025497343
000320 4b 0d 16 3e 70 a3 00 bf 51 2c b8 be c0 ae 9b 3e
       0.14653508 -0.50249386 -0.3597131 0.3040676
000330 0b 20 fc 3e 94 ce 8b 3e 4e e3 ab be 95 5a b1 bd
       0.49243197 0.27306044 -0.33571857 -0.08659855
000340 5f 18 b0 be 49 16 9e bd c6 6a 9a 3e 2b 1c d3 bd
       -0.34393594 -0.07719094 0.30159587 -0.10308107
000350 52 38 17 3e 55 01 d7 be a5 a8 f8 be b7 fc 1a be
       0.14767578 -0.41993204 -0.48566166 -0.15135466
000360 bd 23 e2 be a2 4f 8b be 92 12 32 bf b3 42 44 bc
       -0.4416789 -0.27209193 -0.69559586 -0.011978793
000370 c7 50 72 3e 04 71 61 bd 66 b1 93 be f4 dc 54 be
       0.23663627 -0.05503942 -0.28846282 -0.20787412
000380 dc a4 d1 be 1b 19 90 bd ec 01 dd be b9 40 c2 be
       -0.4094609 -0.070360385 -0.4316553 -0.37940004
000390 d2 8a e4 be 8b 87 1d bf 79 f4 2b 3e 4a 52 87 3e
       -0.44637161 -0.6153495 0.16792478 0.2642997
0003a0 d6 a3 ee 3d f3 26 55 3e 39 d0 e9 3d e4 7f 67 be
       0.11652343 0.20815639 0.114166684 -0.2260738
0003b0 e1 89 e4 bd b0 fc 0a bf 3a 19 c8 3d 6b df 7b 3e
       -0.11159111 -0.5429182 0.097704366 0.24596946
0003c0 36 24 33 bd 82 eb 83 be 29 49 ef be 87 5f 21 be
       -0.043735705 -0.25765616 -0.46735504 -0.15759097
0003d0 64 12 2c be 32 ee 76 3e 49 0d 1d bd ce 9f 2f bd
       -0.1680389 0.24114302 -0.038342748 -0.04287701
0003e0 59 91 94 be af a9 93 3e 7c cc a2 3d 8f 6f 81 be
       -0.2901714 0.28840396 0.079491585 -0.25280425
0003f0 71 3a 96 be 1d 7f 45 be c5 ee 33 3e 8b 27 c7 bc
       -0.29341462 -0.19286771 0.17571552 -0.024310848

fc2.weight f4 [256, 256]
000000 82 f1 c1 be c0 1a eb bd 5b a2 00 bf 39 21 9a be
       -0.37879568 -0.114797115 -0.50247735 -0.30103472
000010 01 18 b6 bd 0d a2 3e 3e 2f 58 fa 3c 27 0b a7 bd
       -0.08891297 0.18616505 0.030559627 -0.08156424
000020 68 0f a3 bd 97 5b 61 be 25 e2 9a bb 5b b7 73 be
       -0.07961923 -0.22007595 -0.0047266656 -0.23800413
000030 65 a2 e3 3d e4 46 a5 3e 21 c2 ba bc c6 58 4f be
       0.11114959 0.32280648 -0.022797646 -0.20248708
000040 f6 49 e8 be 3f c6 54 3e 3d cf 75 be 55 cb 53 3e
       -0.45368928 0.2077875 -0.24004836 0.20683034
000050 b6 28 d2 be 15 09 05 bd 64 2b 97 3e ce 9b 53 bc
       -0.41046685 -0.032479364 0.29525292 -0.012915565
000060 0c 4d 17 3d bf e2 57 be b7 86 83 bd da 77 d9 be
       0.036938712 -0.2108259 -0.06422179 -0.42474252
000070 52 a1 44 bd 32 af 8d be d2 9b 1d be d6 60 d9 3d
       -0.04800541 -0.27672726 -0.15391472 0.10614173
000080 1d 3d 80 bd e1 70 47 be 0e 7f db 3d c5 c8 85 bd
       -0.062616564 -0.19476654 0.10717593 -0.065324344
000090 2d 77 c0 3e cd fd 61 be 72 0d 1a 3e 08 d2 6c 3e
       0.37590924 -0.22069474 0.15044191 0.23126996
0000a0 d7 20 88 be 25 7d 64 3e b8 ad 02 bf 1d f3 fe bd
       -0.26587555 0.22313364 -0.51046324 -0.12448714
0000b0 10 1d 3d be 5f de 3c be ce ca 58 bf 03 4b 77 3e
       -0.18468118 -0.18444203 -0.84684455 0.24149708
0000c0 f0 9b 5e bd aa df a3 3e 7b 46 4a 3d f9 f3 61 bd
       -0.054347932 0.3200658 0.04938362 -0.05516431
0000d0 54 23 9c 3d c6 a9 34 be 0b 8d 21 3e fe b2 37 bc
       0.07623926 -0.17642888 0.1577646 -0.011212109
0000e0 37 60 1b be b2 71 96 3e 1e 69 6e 3d 3c eb a4 3c
       -0.15173422 0.29383618 0.058205716 0.0201317
0000f0 ee a6 6d bd f5 8b e3 be e5 d7 dd 3e 3a ca 30 bf
       -0.058020525 -0.44442716 0.43328777 -0.69058573
000100 e8 4c 74 be fc 32 bd 3e 04 0e 20 bd 37 45 a4 bd
       -0.23857462 0.3695296 -0.039075866 -0.08021014
000110 2c bd c0 be 5b 74 96 be 18 cc 48 bf fb b1 ea be
       -0.37644327 -0.29385647 -0.7843642 -0.45838913
000120 fe 24 05 3f 0d b3 97 3d cd bf 24 be 80 1d 0e 3e
       0.5200957 0.07407198 -0.16088791 0.13878441
000130 96 cd d6 3d 2f f2 4a be 18 c1 cd 3d 41 72 2f bd
       0.10488431 -0.19818948 0.10046595 -0.04283357
000140 34 ce c2 3e b8 e6 aa be 5c 1a 6d bd 6a 67 88 be
       0.38047945 -0.3337915 -0.057886466 -0.266414
000150 6c d8 29 be ef ca 72 be 43 8e 63 be d7 b5 73 bb
       -0.16586465 -0.23710226 -0.22222237 -0.0037187242
000160 6f 81 a0 bb 4b af 05 3e fb 2d 2d be 0f de 51 3e
       -0.004898242 0.1305515 -0.16912071 0.20494865
000170 48 2c 03 bf 4b 51 9f bd 31 46 0a be 80 68 7c be
       -0.5123944 -0.07779177 -0.13503338 -0.24649239
000180 fa d2 67 3e a9 8c e6 3e 6e 16 20 3e fb ff 7e be
       0.22639075 0.4502919 0.15633556 -0.24902336
000190 ee fe d2 3c d6 ac 6f 3d 83 31 b8 3e 5b ca ae be
       0.025756326 0.05851444 0.35975274 -0.3413876
0001a0 72 65 fd bd c6 ce df be 37 d8 28 bd 92 1e e2 3e
       -0.12372865 -0.43712443 -0.041221824 0.44163948
0001b0 43 5a d2 3d 04 1b 9c bd b1 89 c6 3d f1 49 7d 3e
       0.10271122 -0.0762234 0.09694231 0.24735238
0001c0 d8 17 98 be 0f 59 7c 3e a8 3d 19 bd 21 cb 2f 3d
       -0.2970569 0.24643348 -0.037412316 0.04291833
0001d0 45 7f c5 3d 11 3c 93 3d 14 37 6c be 72 56 be be
       0.09643415 0.07189191 -0.23067886 -0.37175328
0001e0 0f 76 a4 be 78 27 95 3d 3f 57 7d be c7 2f 84 3d
       -0.32121322 0.07282919 -0.24740313 0.06454425
0001f0 0c 10 5c 3d 55 5c 0b 3e d8 4d 03 be 7b 8f 77 3c
       0.05372624 0.1360944 -0.12822664 0.015109892
000200 a2 0d 2d 3e 76 d9 0a be b5 98 7f be e8 bd 95 3e
       0.16899732 -0.13559517 -0.24960597 0.2924645
000210 5f 3a aa 3d 59 79 91 bd 51 b7 69 be 20 16 2c bc
       0.08311915 -0.07103223 -0.22823836 -0.010503322
000220 91 26 d6 bc 15 db 80 3e 2c ea a9 3e c7 31 9a be
       -0.026141437 0.25167146 0.3318647 -0.30116102
000230 30 2f ab bd f2 15 03 bf 04 ed 23 be 61 d7 e8 3d
       -0.0835861 -0.5120536 -0.16008383 0.11369205
000240 6b ba 96 bd 43 a3 7e 3e f9 49 c5 bd 36 ea bf 3e
       -0.07359775 0.24866967 -0.0963325 0.37483376
000250 e6 38 9d 3e 8e f0 8c 3e 4c 91 8c be e0 e8 a5 3c
       0.30707473 0.2752728 -0.27454603 0.020252645
000260 78 4f b7 be 4a 22 9a 3e 67 78 d4 3c f6 b0 1c be
       -0.35802817 0.30104285 0.025936319 -0.1530188
000270 91 c2 36 be 70 2c 4c 3d f9 d1 a0 bd 5d b7 ff 3d
       -0.17847659 0.049847066 -0.07852549 0.12486146
000280 bb fa 8d bc b9 14 6b 3e 79 05 9b bd bb 0d d2 3d
       -0.017331472 0.22957124 -0.07569403 0.10256525
000290 17 73 e6 be 9e 67 5f 3e 22 52 db bd 88 9b 4e 3e
       -0.45009682 0.2181687 -0.10709025 0.20176518
0002a0 16 bd 3b 3e 44 37 6c be 5b 3b 66 be c6 38 77 be
       0.1833385 -0.23067957 -0.2248358 -0.24142751
0002b0 96 af 44 be b9 a8 39 3d 7a 9b 21 bf 4f 12 51 3e
       -0.19207606 0.045326922 -0.63127863 0.2041714
0002c0 da 19 1a bf d3 3b af 3e 72 44 12 bd 0f 20 e9 bd
       -0.60195696 0.3422533 -0.035709806 -0.11383068
0002d0 33 7e dd be 8b a2 af bd 8b 02 dc bd aa f8 8b 3e
       -0.43260345 -0.085759245 -0.107426725 0.27338153
0002e0 97 cf 3c 3d 2b f0 26 3c 1e 4b 0b bf ea da 81 be
       0.04609641 0.010189096 -0.54411495 -0.2536233
0002f0 cc 22 d7 3e 73 47 e0 bd ae ca 58 be e3 3b 32 be
       0.42018735 -0.10951128 -0.21171066 -0.17405657
000300 a1 75 4a 3e 6b b0 09 3e 33 33 22 bf 79 56 36 3e
       0.19771434 0.13446204 -0.63359374 0.17806424
000310 64 41 ef bd ea 4d 1c bf 28 de aa 3e 4c e7 c0 be
       -0.11682394 -0.6105639 0.33372617 -0.37676466
000320 5e 0a 1b bf dd 23 5d be 25 5e ca be 78 70 25 be
       -0.60562694 -0.21595712 -0.39524952 -0.16156185
000330 d0 c6 6c be 04 5d 98 3e 66 33 7b be 93 67 5e be
       -0.23122716 0.29758465 -0.24531326 -0.21719198
000340 0a d7 e7 be 60 2d 93 be 21 98 fa 3e 67 1d 9e 3d
       -0.4528125 -0.28745556 0.4894419 0.07720452
000350 45 64 cd bd f7 b1 ee be 6a dc 6f be eb 0b 6e 3d
       -0.100288905 -0.4662015 -0.23423925 0.058116835
000360 40 af 9c be 22 33 6c be cd e3 1d 3f 52 dc dc 3d
       -0.30602455 -0.2306638 0.6167572 0.1078421
000370 70 d0 83 be 92 f3 43 3e 90 16 ba 3e e1 c3 98 bd
       -0.25744963 0.19135883 0.3634534 -0.07459236
000380 9a f7 96 3e ff 9d 68 bf 2f 0f 28 bd 7c 2f 8e bd
       0.2948578 -0.9086608 -0.041030105 -0.06942651
000390 0f 75 fd bc f6 98 75 be 72 b5 0d 3e e8 75 4d be
       -0.030939607 -0.23984131 0.13838747 -0.20064509
0003a0 03 f4 cb 3d e1 8e a2 be 42 09 bd 3e da ec df be
       0.09958651 -0.31749633 0.36921126 -0.4373539
0003b0 4c e4 11 ba 18 20 72 be 86 f8 ed 3d c6 94 8b be
       -0.000556533 -0.23645055 0.11619668 -0.27261943
0003c0 5e 02 1c 3d 34 26 cf 3a 16 06 c2 be da 2a ab 3e
       0.038088195 0.0015804232 -0.37895268 0.3343113
0003d0 20 f9 bf 3d 3c 14 d9 be 05 cb 0c bc 93 f1 09 bf
       0.09373689 -0.4239825 -0.0085933255 -0.5388424
0003e0 a4 9a 06 3d a3 d3 cf 3d dd 55 7e 3e 24 61 b3 bc
       0.03286232 0.101477884 0.24837442 -0.021896906
0003f0 10 b6 81 be 2e fa 99 bd 5e f1 54 bd a9 0d a1 3e
       -0.25334215 -0.07518421 -0.051988 0.31455734

fc2.bias f4 [256]
000000 41 03 83 3e b6 07 97 3c de 16 e0 3d 78 cb bd be
       0.2558842 0.018436294 0.109418616 -0.37069297
000010 dd 96 31 be 56 22 85 be 34 bd 64 bb 54 4b 3e be
       -0.17342706 -0.2600276 -0.0034902813 -0.18583423
000020 c6 c9 47 be 85 c2 0d bd 58 2e 37 bc 17 da 30 bc
       -0.19510564 -0.034609336 -0.011180483 -0.010794184
000030 3a f5 f2 3d 4f df 19 bc cd 4d 90 be 5c ee 8a 3a
       0.118631795 -0.00939162 -0.28184357 0.0010599601
000040 ea 15 80 be b3 aa 54 3d c8 44 87 be d1 bc 59 3d
       -0.2501672 0.051920604 -0.26419663 0.053158585
000050 6f a2 29 be 95 98 3d be 3b 14 f5 be a0 1f b6 be
       -0.1656587 -0.18515237 -0.47866997 -0.35571003
000060 00 54 6e be 1a 83 8a bd 18 39 09 3f 57 d4 99 be
       -0.23274231 -0.06763287 0.53602743 -0.30044815
000070 2d df f2 3d 07 74 e2 bd a0 4c 99 3e e4 cc 5a bd
       0.11858974 -0.11057287 0.29941273 -0.053418055
000080 7f ab 92 3e 94 94 10 be 5f 87 4f be bd ae d9 3d
       0.28646466 -0.14119178 -0.20266484 0.10629032
000090 20 df bd 3e 88 4f 6f be 13 1d d1 bc 10 74 e7 3d
       0.37084293 -0.23370183 -0.025526559 0.11301434
0000a0 ae 39 ed bd 52 58 c5 be 3e aa 37 be 07 36 dd be
       -0.11583267 -0.38543946 -0.17936036 -0.43205282
0000b0 81 6d 97 3d ba 38 bf be eb 69 c6 be 14 79 96 be
       0.07393933 -0.37347966 -0.38752684 -0.2938925
0000c0 b9 18 0b 3e bd 51 2d be ef ac 8b be 76 92 33 be
       0.1358365 -0.16925712 -0.27280375 -0.17536339
0000d0 18 a3 27 be 0f 91 2e 3e 17 c4 54 3d 44 85 28 be
       -0.16370809 0.17047523 0.05194482 -0.16457087
0000e0 4d 51 12 bf 15 ec 01 be 4c 26 33 be d6 13 0c bf
       -0.57155305 -0.12687714 -0.17495078 -0.5471777
0000f0 3d b6 5b be 93 fe 99 bd 2a 92 7e 3e 09 d9 af 3e
       -0.21456237 -0.07519259 0.24860445 0.34345272
000100 e8 0d ca be 5f 9d ae be 48 cb 3a be 9a 50 0c be
       -0.39463735 -0.3410444 -0.18241608 -0.13702622
000110 c1 1e d7 be ec 69 f1 bd 8f 13 f9 bd ad c0 1e be
       -0.4201565 -0.11787781 -0.12161934 -0.15503187
000120 e9 46 9c be 67 71 ba be bc 90 24 3e 7a 45 e8 be
       -0.3052285 -0.36414644 0.16070837 -0.45365506
000130 f3 f3 52 be 26 3e c5 be 9b 7a 71 be b6 61 69 3d
       -0.20600872 -0.38523978 -0.23581927 0.05697795
000140 f7 28 b2 bd ca dc 88 be 42 8c 60 be 2a 1d d1 bd
       -0.0869922 -0.2673095 -0.21928504 -0.10210641
000150 b3 ec e2 bd ec 02 b0 be 18 9e 86 be 3d 86 22 3e
       -0.11080303 -0.3437723 -0.2629249 0.1587152
000160 ef f1 4f be 25 70 8a be 2a e5 81 be 21 b8 ec 3d
       -0.20307134 -0.27038684 -0.2537015 0.11558557
000170 c5 2b a5 3e 8f 90 42 be 8a d4 5c 3e 95 f0 f2 3c
       0.32259956 -0.19000457 0.21565452 0.029655734
000180 b7 59 40 be 72 45 01 3e f5 ab 3d 3e 92 73 48 be
       -0.18784223 0.12624148 0.18522628 -0.19575337
000190 cc 02 e7 be 47 c4 75 3e e5 57 bb 3e 30 8e f3 3d
       -0.4511932 0.24000655 0.36590496 0.118923545
0001a0 42 35 87 be c5 59 e1 be 3e a1 4a 3d b4 bf 15 be
       -0.2640782 -0.440138 0.04947018 -0.1462391
0001b0 31 12 b0 be 04 b8 55 bd 4f 6a 8e be 2e 90 7a 3e
       -0.3438888 -0.052177444 -0.27815482 0.24469063
0001c0 63 5f 81 3d 9a b4 1a be b2 16 08 be 9d c1 b2 be
       0.06317022 -0.15107957 -0.13289908 -0.3491334
0001d0 36 e8 7c 3d d1 8b f0 be 27 3f d8 bc 83 6e cc bd
       0.06174489 -0.4698167 -0.0263973 -0.09982016
0001e0 32 ce d6 bd da 62 33 3e 9a 2b 6f bc d1 4e cf 3d
       -0.104885474 0.17518178 -0.014597798 0.10122455
0001f0 f3 65 f0 bd 19 77 cd bd 9c 29 64 3d 42 c3 92 be
       -0.11738195 -0.10032482 0.055703744 -0.28664595
000200 1b ad 50 bb 4b c2 01 bf 84 56 0a 3d 00 9f f5 be
       -0.003184146 -0.5068709 0.033773914 -0.4797287
000210 1b da 49 be 75 7e 06 bf c5 18 14 be 0f 36 6c 3d
       -0.19712107 -0.5253671 -0.14462574 0.05766874
000220 b9 a8 97 be 32 76 8d be 96 ba 62 3e 3d 12 eb 3e
       -0.29620913 -0.27629238 0.2214149 0.45912352
000230 70 4e 1c 3d c0 53 a5 bc 4f 7a 99 be 22 e6 79 bd
       0.03816074 -0.020181537 -0.29976127 -0.061010487
000240 d0 d1 dd be a1 c6 61 3d 59 01 ff 3c 83 a7 b1 3d
       -0.43324137 0.055121068 0.031128572 0.086745284
000250 92 b9 c6 be 23 9e 0e be 17 60 ab 3d 30 97 69 3e
       -0.38813454 -0.13927512 0.08367937 0.2281158
000260 cf ee 89 bb ae b1 0a 3e 17 16 81 3d 62 90 ea be
       -0.0042093764 0.13544342 0.063030414 -0.4581328
000270 b0 61 f4 bd ed 2a 9a be 62 d2 a5 be c1 28 a8 3e
       -0.11932695 -0.30110875 -0.32387072 0.32843593
000280 bc a8 bb be 38 3c 21 be c1 d4 8a bd 25 67 1a be
       -0.36652172 -0.15745628 -0.06778861 -0.15078409
000290 9b 04 52 3e a7 70 e5 be c5 df a7 be 19 57 1f be
       0.2050957 -0.4481251 -0.3278791 -0.15560569
0002a0 50 96 fb bb b9 84 ec 3d 30 25 35 be 2a 96 56 bc
       -0.0076778308 0.11548752 -0.17689967 -0.013097325
0002b0 e7 a3 a0 be 2e 67 6b be e6 88 af be c7 ab 47 be
       -0.31375048 -0.22988579 -0.34284133 -0.19499122
0002c0 6d d3 bf be 2b 9e ca 3e 24 fb 52 bd 18 77 19 be
       -0.37465993 0.39573798 -0.051509038 -0.14986837
0002d0 e1 bf d6 3d ba 58 36 be 4a 94 e5 bb 59 b0 39 3e
       0.10485817 -0.17807284 -0.007006203 0.18133678
0002e0 8e bd ca 3e 55 5d 2d bd 66 d3 6b be 0b 29 ba be
       0.39597744 -0.042325336 -0.23029861 -0.36359438
0002f0 73 7c 99 be 45 52 78 be 8e 7d ca be 4a 07 20 3e
       -0.2997776 -0.24250133 -0.39548916 0.1562778
000300 5e 34 4c 3d c9 38 0b bd 01 89 a0 bd e1 2b 4d be
       0.04985463 -0.0339897 -0.078386314 -0.2003627
000310 48 71 58 3e a9 12 9f be 45 c3 1f bc 47 81 c4 bd
       0.21136963 -0.31068924 -0.009751146 -0.0959497
000320 52 72 cf be c0 70 c6 bd 76 5e 61 3c b0 94 07 3e
       -0.40516907 -0.09689474 0.013755431 0.13240314
000330 80 63 1f 3e 10 c5 12 bf bb 87 8c be bb f8 03 3e
       0.155653 -0.57331944 -0.27447304 0.12887852
000340 e1 b9 50 be e9 93 a1 bb 2f 3f b0 bd 91 7f 0a 3e
       -0.20383407 -0.0049309623 -0.08605801 0.13525225
000350 cf 21 00 3e ad 93 15 3e 66 93 0b 3e 2f 05 94 be
       0.12512897 0.14607115 0.13630447 -0.28910205
000360 e2 96 8b be bd a2 7e be 60 69 ab bd 86 0f 9f be
       -0.27263552 -0.24866767 -0.08369708 -0.3106653
000370 00 f3 11 be 2e 80 1f be ea 28 35 be 17 d7 1b 3e
       -0.14252853 -0.1557624 -0.17691389 0.15218769
000380 e3 56 a9 be d5 41 11 be 51 13 9f be 20 a8 a2 bc
       -0.33074102 -0.14185269 -0.31069425 -0.019855559
000390 ca 77 65 bd d2 fb 5f be 16 c3 0e bd 6a 8b 94 be
       -0.056022443 -0.21873406 -0.034854017 -0.29012614
0003a0 48 9d 73 be ec b1 53 3e 7e e1 d0 bd 55 bf cb be
       -0.23790467 0.2067334 -0.10199259 -0.39794412
0003b0 06 a6 c7 bd b5 c4 87 bd 14 90 7f 3d 6d 8b 23 be
       -0.09748463 -0.06629316 0.062393263 -0.15971155
0003c0 aa 5f 4e 3c e6 ff b0 bd 63 a0 00 be ba 06 ee be
       0.01259605 -0.08642559 -0.12561183 -0.46489507
0003d0 34 0d 17 be 93 96 6d be 2b 30 29 be 95 9b c5 bc
       -0.1475113 -0.23201971 -0.16522281 -0.024122039
0003e0 54 1c ed be 63 d9 81 be 54 0e c2 3d c8 c1 43 3d
       -0.46310675 -0.25361165 0.09475389 0.047792226
0003f0 3b 74 8c bd c4 b3 0a be 49 d6 42 be 74 e5 9f bd
       -0.06858107 -0.13545138 -0.19027056 -0.078074366

output.weight f4 [8, 256]
000000 6c 2b c3 ba 6f c4 25 bd 3f fb 26 bc 36 bb ad 3d
       -0.001489026 -0.040470537 -0.010191738 0.08482973
000010 a4 39 05 3e 7a e5 b7 be 2f 45 4b 3e 51 e0 c2 bd
       0.1301027 -0.35917264 0.1985061 -0.09515441
000020 f6 16 0e be 0f 95 68 be f0 17 08 3e 3b 62 3d be
       -0.13875946 -0.22713111 0.13290381 -0.18494503
000030 2c 35 cf bd c6 e8 d7 3d 1c e9 22 be 1b 95 8f be
       -0.101175636 0.10542445 -0.15909237 -0.28043446
000040 3d 9a 2e bc 84 2e 82 bd 45 27 78 be 7a 11 06 be
       -0.01065689 -0.063565284 -0.2423373 -0.13092604
000050 30 b1 98 3e ce 60 c3 be 1b 3a 8a 3c 21 ae 0e bc
       0.29822683 -0.38159794 0.01687341 -0.008708508
000060 44 9a 5a 3e 29 5c a8 bf 48 bb 1b 3e f6 54 05 3f
       0.2134791 -1.3153125 0.15208161 0.52082765
000070 07 b7 fb bd 43 fa 6e 3f f3 1f c2 bd 2e 26 a0 3c
       -0.12290769 0.9335062 -0.0947875 0.019549455
000080 ae 6d 54 bd 1d 46 b9 bd b5 8b f8 3f 60 bb 67 3c
       -0.05186241 -0.09046576 1.9417635 0.014143795
000090 47 80 13 be 69 12 9c 3c 2e d0 82 3d f1 17 58 3e
       -0.14404403 0.019051747 0.063873634 0.21102883
0000a0 eb 79 35 3e ee d6 6a be 46 a8 69 bb 13 70 80 3d
       0.1772229 -0.22933552 -0.0035653277 0.062713765
0000b0 30 f0 9c be 1e 08 7e 3d 23 8b d1 3e 1c c4 5f be
       -0.30652 0.06201946 0.40926465 -0.21852154
0000c0 04 8b 2b be cf 85 df 3d 04 2e 10 be ce 90 2d be
       -0.16752249 0.10914194 -0.14080054 -0.1694977
0000d0 42 2f 9b bd 06 37 87 3e a6 8b ce 3c 55 cf 3e 3f
       -0.07577373 0.26409167 0.025213074 0.74535114
0000e0 db 47 29 3d 0f 8b 25 bb c8 06 3a 3f ce 3b 39 be
       0.041328292 -0.0025259887 0.726666 -0.1808922
0000f0 f3 f1 35 bd 8c 6f fd 3f 95 f4 17 be 54 13 07 be
       -0.044420194 1.9799666 -0.14839394 -0.13190967
000100 4a 7b d4 bd 1a bc 11 bf 21 5a 6c be 80 17 a3 be
       -0.10375078 -0.56927645 -0.23081256 -0.31853867
000110 ea b6 a6 3e 76 95 ed bd 3c fc 7c bd ed e0 8a bc
       0.32561427 -0.11600773 -0.061763987 -0.016952956
000120 71 0f 82 3e 8e 44 00 3d f2 a4 1c 40 0e c2 55 bc
       0.25402406 0.03131538 2.4475675 -0.0130467545
000130 0c 61 f6 bf d2 ca c0 be aa 5f 06 bd 05 9a d0 bc
       -1.9248366 -0.3765474 -0.032806076 -0.025464067
000140 52 5b 8e bd b8 32 0a be 16 8a 5d 3e 89 8a 96 bd
       -0.06951012 -0.1349591 0.21634707 -0.07350642
000150 9f 66 16 be 8a 12 b3 be 3a 39 fb bd 3b d8 b6 be
       -0.14687584 -0.34975082 -0.122667745 -0.35711846
000160 89 8d dd bd d3 e3 39 bf 5c 43 91 3e e9 92 38 3c
       -0.10818011 -0.7261326 0.28371704 0.011265495
000170 57 ac 53 3e eb b5 a9 bd ea 58 f5 bd ba 56 96 3f
       0.20671211 -0.08286651 -0.1197985 1.1745217
000180 8a 5c ae bc ae 92 54 3f 9c 58 68 bb bf 28 14 3d
       -0.02128436 0.83036315 -0.0035453206 0.03617167
000190 c8 2c 59 3e e6 54 4e bd 26 04 29 3e fa 94 37 40
       0.21208489 -0.050373934 0.16505489 2.8684678
0001a0 b2 d8 72 3e 72 65 af be 66 26 db be fd c9 17 c0
       0.23715475 -0.34257084 -0.42802733 -2.3717034
0001b0 ee 2e 2f 3e 04 c9 56 3d 0e 07 90 bd 0a 8e a7 3d
       0.17107746 0.052437797 -0.070325956 0.08181389
0001c0 7b a5 a2 bd 5f 4e 83 3d ec df 88 be 49 82 18 3e
       -0.07941719 0.064114325 -0.2673334 0.1489345
0001d0 8e 23 78 3f aa 81 42 be da 2a 87 3d 70 78 ce 3d
       0.9692925 -0.18994775 0.0659997 0.100815654
0001e0 b7 1c 12 be 4f 3e 10 bb 85 07 60 bc 0f 6b 51 3e
       -0.14268766 -0.0022009795 -0.013673668 0.20450996
0001f0 d6 7b a1 be 1b 0c 48 be c4 af ce be 27 c3 d8 3d
       -0.31539792 -0.19535868 -0.40368474 0.10584097
000200 f3 68 dd 3e b9 45 84 bf d4 4b ef bc 4a 1a 11 3e
       0.43244132 -1.0333778 -0.029210962 0.14170185
000210 cc b0 19 3e 60 38 1a 3e 1e e2 50 3f db 75 11 3e
       0.15008849 0.15060568 0.8159503 0.14205115
000220 87 b8 3b 3e 83 90 77 bc ff 5c b5 3d 8a 5d 72 3e
       0.1833211 -0.015110138 0.08855628 0.23668495
000230 4e ba 3e 3d 04 89 e9 3b f3 a9 9f 3d 9f b1 14 3c
       0.046564393 0.0071269292 0.07796087 0.009075551
000240 50 f2 ae be 19 9a bc 3c 0b e2 48 3e 0a 18 c1 3d
       -0.34169245 0.023022698 0.19617479 0.09428413
000250 73 87 00 be 50 7b 72 bf 29 a8 c8 be 0a 33 b8 3c
       -0.1255167 -0.9471941 -0.39190796 0.022485275
000260 1e fd bf 3c 43 77 83 3d aa 85 eb 3c 29 41 88 be
       0.023436125 0.06419232 0.02875026 -0.26612213
000270 f5 4b 12 bd e6 9d f7 3e 08 7d cb bd ab e3 14 3c
       -0.03571697 0.48362654 -0.09935957 0.009087483
000280 0a 23 4b be 6e 3d ff bc 8e 63 0a be 64 6e 9b 3c
       -0.19837585 -0.031157222 -0.1351454 0.018973537
000290 86 b6 59 3e c8 5a 1d be 57 78 2f 3e ce 07 95 bd
       0.21261033 -0.15366662 0.1713575 -0.07276879
0002a0 00 03 8b 3d eb c9 91 be 5a 7f 80 3f 4a e5 20 bc
       0.067876816 -0.28474364 1.0038865 -0.009820292
0002b0 68 92 03 be c1 25 64 3e 4b 8d d5 be 28 67 7f 3e
       -0.12848818 0.22280027 -0.4170936 0.24941695
0002c0 a7 c5 17 be 01 d0 33 3f 94 e1 00 be b6 77 f9 bd
       -0.14821492 0.70239264 -0.12586051 -0.12181036
0002d0 9b 49 9b 3d 4a a5 49 bd 7e 8a cd bc 43 69 2f be
       0.075823985 -0.049229898 -0.025090452 -0.17129998
0002e0 cd 23 b3 3e e1 2a 42 be a5 25 04 be eb b7 58 bf
       0.3498825 -0.1896167 -0.12904985 -0.84655637
0002f0 76 67 07 bd 54 26 55 be b8 db 35 bd 71 73 4a bd
       -0.033057652 -0.20815402 -0.044398993 -0.0494265
000300 32 27 cc 3d 69 51 95 3e 48 54 fb bd 5a be b0 3e
       0.099684134 0.29163674 -0.12271935 0.34520227
000310 82 75 73 3d 74 c7 55 3c db 2f 4d 3e 17 cc 00 bd
       0.059438236 0.013048042 0.20037787 -0.031444635
000320 0a df 83 3d 3f 48 48 3f 82 49 d6 3d ce 10 48 bd
       0.06439026 0.7823524 0.10463239 -0.04884415
000330 67 af 7e 3e dd be 60 be 64 ae ac be 11 c3 85 3e
       0.24871598 -0.21947809 -0.337268 0.26125386
000340 21 01 dd 3d d3 52 cd be fd 32 83 3d e4 e2 9c 3c
       0.10791231 -0.40102252 0.064062096 0.019151159
000350 bf f2 aa 3d b6 5a 3c 3e 02 a4 91 3d 6f 60 42 be
       0.083470814 0.18393978 0.0711136 -0.18982099
000360 65 09 1f 3e 00 9f 5c be 45 a4 0f c0 53 d0 8e bd
       0.15530927 -0.21545029 -2.2444012 -0.069733284
000370 e5 f0 ce be b5 95 9f 3e cc 93 b4 3d 13 04 b0 3d
       -0.40418163 0.31168905 0.088172525 0.08594527
000380 8c 0f 97 3b a7 fb dd 3d 29 7b 47 bd c2 d5 81 bc
       0.0046100076 0.108390145 -0.04870144 -0.015848998
000390 ab 69 e1 bd 6d a7 9c ba a0 53 dc 3d 44 b7 18 be
       -0.11006483 -0.0011951752 0.10758138 -0.1491366
0003a0 b9 d3 0e bd a7 39 af be a7 22 3b 3e 85 bd b0 3d
       -0.034869883 -0.34223673 0.18274938 0.08629898
0003b0 75 33 50 3e f6 6c c0 bd 65 cd 46 3e 21 e1 49 3e
       0.2033213 -0.09395783 0.1941429 0.19714786
0003c0 4f 3f f9 bd 52 96 5b 3e ed 6f c1 be ba 5c 33 3e
       -0.12170278 0.21444061 -0.37780705 0.17515841
0003d0 2c 4d 3e 3e 08 49 f3 3f a8 e7 2d 3d 92 f3 e7 3d
       0.18584126 1.9006662 0.042457253 0.11325754
0003e0 a0 b2 fc 3e 28 51 2f bf e3 cb 91 be 42 55 3a 40
       0.4935503 -0.6848321 -0.28475866 2.9114537
0003f0 65 67 d2 3d d6 1d 87 be 2f dd f9 bc dc bd 65 bd
       0.10273627 -0.2638995 -0.030500976 -0.056089267

output.bias f4 [8]
000000 99 b5 99 3c 84 18 d4 bc 73 1d 13 3d 08 8b 0e 3d
       0.01876335 -0.025890596 0.035916757 0.03480056
000010 4e 69 31 3e 80 a5 1b bd 58 ae 3c bc 20 1f 8e 3c
       0.17325327 -0.03799963 -0.011516176 0.017348826
