trained_model/02_Ant/TD3_Baseline_critic.pth (torch, 606834 bytes, 10 tensors)

q1_fc1.weight f4 [256, 35]
000000 b9 8b cd bc 05 58 a6 bf 13 f5 a7 3f da 96 06 3f
       -0.025091039 -1.2995611 1.3121666 0.5257393
000010 49 6b a9 bf 18 ae 74 be 8b 6c 08 3e c8 7b 6b bf
       -1.3235866 -0.23894536 0.13322656 -0.9198575
000020 dd 26 88 bc f6 98 bb bd b2 18 16 3f e8 a8 59 be
       -0.016620094 -0.09160034 0.5863143 -0.21255839
000030 b0 37 3f 3e fd 80 03 bf 8d 0d 3b 3f 6b 51 b9 3d
       0.18673587 -0.51368695 0.7306755 0.09048732
000040 fb 81 c6 bd e8 a9 ef 3e 6a d9 1f be d4 6c 92 3e
       -0.096927606 0.46809316 -0.1561028 0.28598654
000050 92 97 54 3e 13 57 16 3c 0e 0a d0 3e ff 57 96 3e
       0.20760944 0.009176034 0.4063267 0.2936401
000060 d2 7e 36 bd c1 9b 1f 3d 39 4d bc ba 31 8e 8c 3e
       -0.04455454 0.038966898 -0.0014366276 0.27452233
000070 54 1c f8 be c0 1d 0e 3e 7e 3e 0a bf 92 ed 75 bf
       -0.48459113 0.13878536 -0.54001606 -0.9606563
000080 67 79 40 bf 5e e3 8c be 05 39 9d be 30 88 05 3f
       -0.75185245 -0.27517217 -0.30707565 0.5216093
000090 dc c0 b1 3d 63 dc a3 bf b7 fa e8 bf ca 09 ff bf
       0.08679363 -1.2801632 -1.8201512 -1.9924862
0000a0 77 cf 2b 3f f1 9d f6 bd c4 6d 59 bf e8 95 69 3e
       0.6711344 -0.12041844 -0.84933114 0.22811091
0000b0 be 0a 39 be 55 d7 e7 3e 22 ff 6c 3d 30 fd 41 bf
       -0.18070504 0.45281473 0.0578605 -0.7577696
0000c0 49 37 ec 3d f9 31 6b bf 76 02 a5 3d e2 66 ab 3e
       0.11533982 -0.9187313 0.0805711 0.3347693
0000d0 6c c8 6e bf 1f 15 bb bd d4 8d 3b be 0e 0e 27 3e
       -0.9327457 -0.09134888 -0.18315822 0.16313955
0000e0 f2 c6 8c be a1 82 16 be bf 47 21 3e 75 d4 2b bd
       -0.27495533 -0.14698268 0.15750025 -0.04195066
0000f0 da 7f 2c 3e d8 b4 d9 bd dc 11 62 be 6e ee 85 be
       0.16845647 -0.10630196 -0.22077125 -0.2615847
000100 0e 39 a9 be 6a 62 0a bd a8 b0 31 be 3a 7d 8e 3e
       -0.33051342 -0.03378526 -0.17352545 0.27829915
000110 93 ce 40 3e 55 53 02 3f c2 be 2b bf 84 51 f2 3e
       0.18828802 0.50908405 -0.6708795 0.47327816
000120 b9 27 60 bf 3c a7 af 3e 94 9b af be 29 95 0b 3f
       -0.8756061 0.34307277 -0.34298384 0.54524475
000130 9f c4 0f bf 6d 5b 56 3f 0f 82 1e be 10 d4 e9 be
       -0.56159395 0.83733255 -0.15479301 -0.45669603
000140 fa b4 87 be d0 1f 0f 3f 86 22 8a 3d 87 95 16 3f
       -0.26505262 0.5590792 0.06744866 0.5882191
000150 c4 cc 56 3e 1f 0f 11 be 23 93 7d be 6b e7 e2 be
       0.2097655 -0.14165924 -0.2476316 -0.44317183
000160 b3 ca f0 be 3c eb d4 bb 96 0d ff bd bb d3 0b be
       -0.47029647 -0.0064977687 -0.12453763 -0.13654988
000170 a4 c9 24 be d9 25 c9 3d ea bd eb bd 55 a1 b8 bd
       -0.16092545 0.09821672 -0.115108326 -0.09015147
000180 ef ef 29 bd ae 5f 97 3f 0b 85 fe be 08 60 91 bf
       -0.041488584 1.1826074 -0.4971088 -1.1357431
000190 3d 04 c5 bd 6d 1d 61 be 6a 89 38 3f c4 22 14 3f
       -0.09619949 -0.21983881 0.7208468 0.5786555
0001a0 b3 31 da 3e c9 22 f0 be a6 80 34 be 6f 0b 50 3f
       0.42616042 -0.4690154 -0.176272 0.81267446
0001b0 a9 0c 23 3f 32 da 1f 3e 4c de 3d be 1f d9 9a be
       0.6369119 0.15610579 -0.18541831 -0.30243775
0001c0 1f 36 df bf 53 81 b1 3d 50 98 44 3f e7 a1 fc bd
       -1.7438391 0.08667245 0.7679491 -0.12335568
0001d0 d4 19 d9 be d9 66 f4 be e9 50 ee 3e f8 1c 05 be
       -0.42402518 -0.47734717 0.46546105 -0.12999332
0001e0 4b 4b f7 be d8 d1 4a be 6a 23 f1 3e 20 90 8f 3d
       -0.4829963 -0.19806612 0.4709733 0.070099115
0001f0 bd 4d 45 3d 30 66 fa bd 45 2d 28 3e 48 80 25 3d
       0.04816984 -0.12226522 0.16423519 0.04040554
000200 8e 09 9c 3e e7 a3 d9 3d 3d 7d f4 bb f5 57 3c be
       0.3047604 0.10626965 -0.0074612186 -0.18392928
000210 ef 97 52 be 7e c7 a9 bf 30 b9 1f 3f fa 8f a5 bf
       -0.2056577 -1.3264005 0.6239195 -1.2934563
000220 3e c8 23 3e 72 b2 c1 3e 55 47 cc 3f ae 61 a3 3e
       0.15994355 0.37831455 1.5959269 0.3191046
000230 2d 44 dd 3e bf 7f 07 3f b7 a5 d5 3e 80 97 ac bf
       0.43216076 0.529293 0.41727993 -1.3483734
000240 db 15 6d bc e3 62 e3 3e 78 57 08 bf 93 65 05 bf
       -0.014470543 0.44411382 -0.53258467 -0.52108115
000250 23 4a bd bd 1d 2b de bf 91 58 40 3e 9d d6 4a bf
       -0.09242656 -1.7356907 0.18783785 -0.79233724
000260 70 02 68 be 19 23 fd 3d 42 53 88 be 16 48 d8 be
       -0.2265718 0.1236021 -0.2662602 -0.42242497
000270 d1 5e ad bd 3d fc 1f 3d fc 14 b4 bd 28 8d 8f bd
       -0.084653504 0.039058913 -0.08793065 -0.07009345
000280 9f db 6a 3d 10 1f 16 3e 01 22 a9 bd 94 72 11 3c
       0.057338353 0.14660287 -0.08258439 0.008877415
000290 4b 9f f1 bd 41 3a e0 bc 2e 4a e7 bd de df 89 be
       -0.11797961 -0.027371528 -0.112934455 -0.2692861
0002a0 a5 43 8a bf 43 19 0f bf b7 bb b4 be f4 d3 58 3f
       -1.0801893 -0.5589792 -0.35299465 0.84698415
0002b0 6a fe 69 be f0 68 6f bf 1f 94 1f 3d 5d 4d 5c 3f
       -0.22850958 -0.93519497 0.03895962 0.86055547
0002c0 48 d9 59 3e ac 0e 33 3f c2 e5 3d bf 69 13 04 bf
       0.21274292 0.6994426 -0.7417871 -0.5159212
0002d0 4d f8 c9 3d db fe 3b bf 29 f3 ff be c7 d0 84 3e
       0.09861813 -0.73435754 -0.49990204 0.25940534
0002e0 fb ec 18 3d 23 70 70 be c5 4b 00 bd fa 55 cd be
       0.037335377 -0.23480277 -0.03132226 -0.40104657
0002f0 24 67 2a 3e 7d 07 86 be 8f bb 46 3e 0c 7e db 3e
       0.16640908 -0.26177588 0.19407485 0.42869604
000300 c2 6d 73 3d 7c 8e 1a 3f 3b da b6 3d 78 7c 32 3d
       0.059430845 0.60373664 0.08928343 0.043575734
000310 d9 fd 4c bd 94 5f dd bd 38 ac 09 be 85 d3 27 bd
       -0.050046775 -0.10809246 -0.13444602 -0.040973205
000320 a0 fc e0 3d 2b 60 97 3c 61 5d 6d 3e 3c c9 8d 3e
       0.109856844 0.018478474 0.23180152 0.27692592
000330 8b 6e 22 bd 4c 85 2b be 69 3d 07 3e 8f 5d 5f be
       -0.039656203 -0.16750067 0.1320702 -0.21813034
000340 6d a9 4e be 52 af 66 3e 5f db 1e bf ae 13 73 3f
       -0.20181818 0.22527817 -0.62053484 0.94951904
000350 6e 14 0e 3f 04 41 e2 3d e3 65 b0 be 54 90 cd be
       0.55499923 0.11047557 -0.34452733 -0.40149176
000360 d3 13 37 be b1 40 f8 3e 60 50 6e 3e 12 a7 36 3f
       -0.17878656 0.48486856 0.23272848 0.7134868
000370 ac 42 c3 bd 9c 86 0c bf 2f 9b 48 3e 0e 1f fd 3d
       -0.09534201 -0.548929 0.19590448 0.12359439
000380 a8 65 ab be 58 5c c4 3e cc ff 46 be c8 50 01 be
       -0.33475995 0.38351703 -0.19433516 -0.12628472
000390 fd 87 07 bd 97 87 87 bc b8 5d 76 be 51 89 a8 be
       -0.033088673 -0.016544146 -0.24059188 -0.32917264
0003a0 6c a9 f5 3e 37 08 35 be 34 a2 b3 3d 9b 34 bf bd
       0.4798082 -0.17678915 0.08771172 -0.093362056
0003b0 dc 75 53 be b8 9d 4d 3f bb 89 40 be 7e 8c b5 3e
       -0.20650429 0.80318785 -0.1880254 0.3545875
0003c0 fe 01 45 3f 3f 6e 45 bc 2d ce 86 3f 16 74 35 bf
       0.76956165 -0.0120502105 1.053167 -0.7088026
0003d0 3c 36 00 bb d7 02 8f bf 13 74 9e 3e 4e d0 1b c0
       -0.0019563576 -1.1172742 0.30947933 -2.434589
0003e0 71 9d 0b 3f f6 6c 95 bf 6a 02 2b 3f f5 83 97 3e
       0.5453711 -1.1673877 0.6680056 0.29592863
0003f0 8b 47 44 3e 5d 54 29 3d ba 7a 87 3d 3b c0 14 3e
       0.19167916 0.04134022 0.06615205 0.14526455

q1_fc1.bias f4 [256]
000000 dd 38 1c 3d 04 ae 31 be 6d 26 e5 be 66 7d 08 bf
       0.038140167 -0.17351538 -0.4475588 -0.5331634
000010 5c 15 8c be 88 df 90 be f5 38 d6 be e7 21 0e 3d
       -0.27360046 -0.2829554 -0.4184033 0.0347003
000020 39 b1 80 3e fa 8e b4 3e b1 56 d6 be 50 ca 74 be
       0.2513521 0.35265332 -0.41863015 -0.23905301
000030 c3 bb fa be 5b e7 b0 3d da 39 3d be 3f d8 8b bf
       -0.48971376 0.086378776 -0.184791 -1.0925368
000040 60 c9 90 be e0 c2 37 3f ae 8e 01 3c ef c9 0f 3f
       -0.28278637 0.7178173 0.007907553 0.561675
000050 e7 da 25 bf 0b 1f 4a bd 64 dc d1 be 2a ca 9b 3e
       -0.64787143 -0.04934601 -0.40988457 0.30427676
000060 b2 b6 18 bf ef eb 2e bf b7 78 18 bf c9 9e fc 3d
       -0.5965377 -0.68328756 -0.59559196 0.12334973
000070 34 a4 32 3b 66 ab db be 57 1d c5 be d6 a4 10 3f
       0.0027258517 -0.42904204 -0.38498947 0.5650152
000080 d4 eb 5d bf c8 f0 ef be 31 28 33 bf 25 f3 84 be
       -0.8668797 -0.4686339 -0.699832 -0.25966755
000090 62 81 b7 be 7a 54 8a 3f e2 cf 4d 3e b7 72 25 bc
       -0.358409 1.080703 0.20098832 -0.010098151
0000a0 66 53 1e bf c7 0d a0 be 8d 6b 32 bd 4a 22 37 3e
       -0.61846006 -0.3126051 -0.0435596 0.17884174
0000b0 2d e8 1e bf 37 97 56 be 65 39 2f bf 73 42 19 bf
       -0.6207302 -0.20956121 -0.6844695 -0.5986702
0000c0 c5 6b f5 be 9d 34 a1 3d 5d 77 3d bf 31 e5 8f 39
       -0.47933784 0.07871363 -0.7401026 0.00027445846
0000d0 7a 42 37 bf ed 82 d2 be 2c ab d4 bd 38 1e f9 3e
       -0.7158581 -0.41115513 -0.10384211 0.48655868
0000e0 f8 4f 8e 3e f8 08 62 be 26 57 a8 be 8b ea c9 be
       0.27795386 -0.22073734 -0.3287899 -0.39436755
0000f0 76 5f e3 3c a6 ec c0 3f c5 da cc 3d 85 b4 de be
       0.02775548 1.5072219 0.100026645 -0.434971
000100 7a 04 3c bf bf a4 f7 3d 7b b9 e9 3e 70 a8 c7 be
       -0.7344433 0.1209197 0.45649323 -0.38995695
000110 95 be ed 3e 0b 75 62 bc c3 6f 78 bd 99 e9 85 be
       0.46434465 -0.0138218505 -0.06065346 -0.26154783
000120 b7 b4 19 3f 76 c0 30 3f 29 c1 31 3f 61 32 c6 be
       0.60041374 0.6904367 0.69435364 -0.3871031
000130 39 3c 97 3e 5d 54 72 be 67 30 9b bd b7 03 f9 3a
       0.29538134 -0.23664995 -0.075775914 0.00189983
000140 ec ad 4a be 95 9b 01 3f cc 07 47 3e 91 db 11 be
       -0.19792908 0.50628024 0.19436568 -0.14243914
000150 bf b7 89 3f 2c a9 08 be b2 85 e9 be 63 af 2c 3f
       1.07592 -0.13345784 -0.45609814 0.6745512
000160 e1 e7 cc be 05 b5 01 bf de 19 bd be dc 06 fa bd
       -0.4002066 -0.5066684 -0.36933798 -0.122083396
000170 72 9e 43 3e ee e5 2b be f0 88 30 bf b4 81 bc 3e
       0.19103411 -0.1678693 -0.6895895 0.36817706
000180 5f 2b 07 3f c3 b2 6c bd 3a eb 2c bf 1e 49 18 bf
       0.52800554 -0.057787668 -0.6754643 -0.5948657
000190 5d e6 83 be 4c 1a e8 3c 34 3b 80 bd 36 ec bb 3e
       -0.2576169 0.028332852 -0.06261292 0.36703652
0001a0 6a 50 60 bf be 96 90 be a6 c6 2d bf 9d e4 22 3e
       -0.876227 -0.28240007 -0.6788124 0.15907522
0001b0 40 d7 80 be 5c c9 6e bd 17 af 9d 3e 48 20 04 bf
       -0.25164223 -0.0582975 0.30797645 -0.5161176
0001c0 16 0c 8c bd 40 a4 15 bf e8 a8 e6 3e 59 53 f4 3e
       -0.06838243 -0.5845375 0.4505074 0.4771984
0001d0 45 68 4a 3f 7d 56 c6 be 83 bc 17 bf c6 cd b6 3e
       0.7906535 -0.3873786 -0.5927202 0.35703868
0001e0 da 99 04 bf f3 fc 39 bf d0 c3 4f bf 21 bb 8f be
       -0.5179726 -0.72651595 -0.8115816 -0.28072456
0001f0 ee c5 cc 3e 10 77 57 bc d2 55 7c be be 49 a5 be
       0.39994758 -0.013150945 -0.24642113 -0.32282823
000200 3c ec 87 3e 94 53 2d be 7c 82 e4 be 88 d2 39 bf
       0.2654742 -0.16926414 -0.44630802 -0.7258687
000210 e9 72 d6 be 75 fd 69 3e fd 0d ea bc bc b0 83 bf
       -0.41884544 0.22850592 -0.028571123 -1.028831
000220 e1 cc 1f bf e8 68 09 3e ce 4f 85 be 9b f5 6f 3d
       -0.62421995 0.13418925 -0.2603745 0.058583837
000230 e1 63 27 bf b4 44 a8 be 7d 90 b6 3d 29 15 1e 3e
       -0.6538678 -0.32864916 0.08914278 0.1543776
000240 24 be 1f 3f 8b 0a 8d 3f 6f 86 db be bd 12 b6 be
       0.62399507 1.1018842 -0.42876002 -0.3556117
000250 fb 95 b0 3e 46 94 98 bc 6f f7 75 bf 20 63 9d be
       0.34489426 -0.01862539 -0.9608068 -0.3073969
000260 bd 13 4d be d2 d7 40 bf ef 89 3a bf 37 8b 90 be
       -0.20027061 -0.75329316 -0.7286672 -0.28231212
000270 36 ed 80 3e f5 90 ac be 1f f8 1b 3f 7a b0 70 bf
       0.25180978 -0.33704343 0.6092548 -0.9401928
000280 d4 f7 ad 3e b0 22 07 bf 07 6b 74 bd dd dc 1d bf
       0.3397814 -0.52787304 -0.05967238 -0.61665136
000290 c5 d1 48 3e 4a 1e d9 be fb e6 02 be df aa 3d be
       0.1961127 -0.4240592 -0.12783425 -0.18522213
0002a0 92 0e 35 3f 5a 50 c6 be a9 80 0a bf 12 07 26 bf
       0.7072536 -0.38733178 -0.5410257 -0.6485454
0002b0 0a dd 07 3f 49 b4 31 be 59 ee d3 3d 48 f4 55 be
       0.53071654 -0.1735393 0.103481956 -0.20893967
0002c0 5b d2 2b 3f 8b 99 e6 3b ac 8b 6c 3e a6 c4 ac be
       0.6711785 0.0070373467 0.23100156 -0.3374378
0002d0 dc f4 f1 be dc 2e 13 bf 50 68 b9 3e 18 d7 f2 3d
       -0.47257125 -0.57493377 0.36212397 0.11857432
0002e0 da 50 0f be ed d6 4a bf 00 2b 70 bd e6 91 88 3e
       -0.13995686 -0.792342 -0.058634758 0.26673812
0002f0 90 b2 f7 be ce ad 63 bf cf 25 81 bd 1b a4 26 be
       -0.4837842 -0.8893708 -0.063060395 -0.16273539
000300 e7 b3 2b 3f 14 14 f3 be 11 33 3e be 99 7c e9 be
       0.67071384 -0.47476256 -0.18574168 -0.45602873
000310 ce c3 04 3f 52 b8 51 be 88 e2 52 be 56 a2 59 3e
       0.51861274 -0.20480469 -0.20594227 0.21253332
000320 4f d8 46 bf e2 97 20 bf 87 7e f1 3d f3 55 13 3e
       -0.7767381 -0.62731755 0.11791711 0.14388256
000330 c5 2e 6e bf 5d 46 43 bf b7 02 05 3e 10 92 80 3e
       -0.93040115 -0.7627924 0.12989317 0.25111437
000340 10 39 5f 3e 79 6e 86 be f0 26 6a 3e e6 53 6a be
       0.21799111 -0.2625616 0.22866416 -0.22883567
000350 3a 84 a2 bd dd 27 1a bf 11 52 0f 3f e3 90 9b 3e
       -0.079353765 -0.60217077 0.559846 0.30383977
000360 57 bf 86 be 48 1e 65 be e3 0f 03 3f 27 c7 c0 3e
       -0.26317856 -0.22374833 0.51196116 0.3765194
000370 c6 c3 1d 3e e9 d8 0e be 3c 50 c3 be fe 28 2f be
       0.15406713 -0.13949932 -0.3814715 -0.17105481
000380 fc b3 99 bd bf 5d bf be 10 1d 33 bf a4 5b f5 be
       -0.075050324 -0.3737621 -0.6996622 -0.4792148
000390 78 5d 24 be b0 10 dc 3e c9 02 02 bf ff 73 ce bd
       -0.1605128 0.42981482 -0.507855 -0.10080718
0003a0 91 d7 21 be 91 30 13 bf e0 e0 38 be 6a 7f 4d be
       -0.15804888 -0.5749598 -0.18054533 -0.20068136
0003b0 99 6f e3 be eb cc 6d be fb 27 19 3f 9b a0 02 3f
       -0.4442108 -0.23222701 0.5982663 0.51026314
0003c0 f1 81 1a 3f ae ec cd be 4f 1c fc 3e 4a 48 f9 be
       0.60354525 -0.40219635 0.49240348 -0.48687965
0003d0 a8 9b a3 be 25 50 8d 3e 65 35 2f bf fe 3d 9f 3e
       -0.31954694 0.27600208 -0.6844085 0.31101984
0003e0 dd 25 bb be 24 34 4a 3c 60 38 0b 3e ca 74 6e bf
       -0.36552325 0.012341533 0.13595724 -0.93146956
0003f0 fc 0d bf 3e dd 8d ef bd c5 2c a5 bf 72 c5 8e 3e
       0.37315357 -0.1169698 -1.2904288 0.27885014

q1_fc2.weight f4 [256, 256]
000000 30 ad 0b be 33 dd be bc be 12 95 3d 7b a0 be be
       -0.13640285 -0.023298835 0.072789654 -0.37231812
000010 39 c8 a6 be 60 dc 30 3c 8b 38 d1 3e 59 8e 2b 3e
       -0.32574633 0.010794729 0.4086345 0.1675352
000020 63 12 ff bc 72 c7 e6 bd b7 ea e6 bd 98 ce 5d 3f
       -0.031136697 -0.1126851 -0.11275237 0.8664336
000030 8d 97 e3 3e 98 82 76 3e a0 b1 e3 bd 1c 95 25 c0
       0.44451562 0.24073255 -0.11117864 -2.587226
000040 fb 05 0f be 06 36 11 3e 10 ad 77 bc 5b 3f 38 3e
       -0.13967125 0.14180765 -0.015116945 0.17992918
000050 c0 c7 92 3e ba c8 10 3e 05 c6 a1 3e 26 c6 96 3c
       0.28668022 0.14139071 0.3159639 0.018405031
000060 ac 5d c2 3d 2f d1 b4 3e 34 ce 6e 3e 2a 33 cb be
       0.09490523 0.35315844 0.23320848 -0.39687473
000070 5e bc a2 bd 95 38 b0 be 89 27 05 be 0b c2 0f be
       -0.079460844 -0.3441817 -0.13003363 -0.14038865
000080 9e 97 97 3c ef a8 ff 3d 22 b9 d5 3d af 99 62 3d
       0.018504914 0.124833934 0.10435702 0.055322345
000090 f9 66 94 3e ca 60 9a bf 37 7a 3f 3e d8 79 81 be
       0.28984812 -1.2060788 0.18698965 -0.25288272
0000a0 ac 37 8c be 68 29 80 3e bc 3c 1c 3d f3 4d ed 3e
       -0.27386224 0.2503159 0.03814386 0.46348533
0000b0 ed 81 83 be db 98 a8 be ac d8 b8 3e ba de 62 3e
       -0.25685063 -0.3292912 0.36102808 0.22155276
0000c0 3e 79 6c be 30 ce 82 be 72 d7 71 be 0c b8 95 3c
       -0.23093125 -0.25547934 -0.23617342 0.018276237
0000d0 71 0b 32 bf c2 e6 40 3f e3 93 95 3d db 80 48 3b
       -0.6954871 0.7535211 0.07303598 0.0030594382
0000e0 9e 2d eb 3c d3 a0 ae be ef ce 3d be 46 b8 b3 3e
       0.028708275 -0.34107074 -0.1853597 0.35101527
0000f0 b5 e9 74 3e d6 da 41 bf 10 63 c8 be 1c 4a f3 be
       0.23917277 -0.7572454 -0.3913808 -0.47517478
000100 9a 5d 18 be af 86 be be 2c 13 81 bd 01 cd f3 bb
       -0.14879456 -0.3721213 -0.06302485 -0.00744021
000110 a1 5d 0a 3e 29 fa 0c 3f 31 b3 dc 3d ba ef 33 3f
       0.13512279 0.55069214 0.107763655 0.7028767
000120 b3 de af be 8b 35 ae 3d 9a d1 7f 3b 2a e6 cf bb
       -0.34349594 0.08506306 0.0039034844 -0.0063445764
000130 66 cb 94 be 6a 84 a4 3e 95 1a 70 be 87 92 f7 3d
       -0.2906143 0.32132274 -0.2344764 0.12088495
000140 af 5e b6 3d 87 98 97 be 85 22 43 3d 0f 95 5c 3e
       0.08904778 -0.29608557 0.047640342 0.21541236
000150 3e 33 72 3e fb 19 50 3d 02 75 99 be a9 64 7f be
       0.2365236 0.050806027 -0.29972082 -0.24940743
000160 6b 6b b8 bd 70 47 47 3d 24 7c 77 bf fe 8b e4 bd
       -0.09004863 0.048652112 -0.966738 -0.11159514
000170 24 28 cb be 3c 92 db 3e 3e 48 81 be a8 fc 08 3d
       -0.39679062 0.42885005 -0.2525043 0.033444077
000180 10 ca 16 3e 3a f1 20 bf 24 f4 59 bf 54 4c c0 3c
       0.14725518 -0.6286808 -0.85138154 0.023473896
000190 fc 27 87 3e 90 b9 2d 3f 19 d8 8d be 26 47 bc be
       0.26397693 0.6786127 -0.27703932 -0.36773032
0001a0 b7 11 01 bf ac c8 a2 3d 6d 71 7e be a0 31 2f bd
       -0.50417656 0.079484314 -0.24847956 -0.042771935
0001b0 88 12 67 3f 63 5e 28 bd 1b 57 ba 3c 58 f4 9f 3e
       0.9026265 -0.04110564 0.022746613 0.31241107
0001c0 f0 74 b7 bc 54 a6 11 bf d3 a1 09 3e 28 41 2a be
       -0.022394627 -0.5689442 0.13440637 -0.16626418
0001d0 c9 51 8d 3d f8 c9 aa 3e 64 b0 8d be f9 e6 73 3e
       0.06900365 0.33357215 -0.27673638 0.23818578
0001e0 aa 09 e2 3c 1b 84 15 bf 8d cd 0b 3c dc 04 80 bd
       0.027592499 -0.584047 0.008532894 -0.06250927
0001f0 af 92 4e 3e 3b 35 6e 3c cc c1 03 3f a3 9e 1e be
       0.20173143 0.014539058 0.51467586 -0.15490203
000200 2b 26 3c be 83 69 7c be 7f 29 2e be 81 20 22 3d
       -0.18373935 -0.24649625 -0.17008017 0.03958178
000210 15 18 91 3e 63 b1 2e 3f e9 35 6b be 52 9f 33 c0
       0.28338686 0.6823942 -0.22969784 -2.8065991
000220 ac 99 c1 3d cb de a6 3d a2 3d db 3e e5 54 20 bf
       0.09453139 0.08147963 0.4282046 -0.6262954
000230 9f 5c c7 bd 27 c4 32 3e cc ce 85 3c 5c 62 7a 3d
       -0.09734463 0.17457639 0.01633396 0.06112896
000240 62 25 c9 bd 37 07 64 3d 00 b2 5f be 60 ef 8a bd
       -0.09821583 0.055670943 -0.21845245 -0.067839384
000250 b3 50 c1 3e 21 f0 fe 3d 00 2e 13 3e e8 38 a2 be
       0.3775688 0.12448145 0.14373016 -0.3168404
000260 12 0b 8e 3e 09 7d 5a 3e b3 e6 b7 be 2b 66 68 be
       0.2774282 0.2133676 -0.35918197 -0.22695224
000270 ce c1 57 3e 9a d0 e7 bc 54 e5 a7 be 68 0e 6c bd
       0.21070024 -0.028297711 -0.3279215 -0.057630926
000280 27 c5 da 3e b4 41 50 3e e3 72 fd 3b 90 14 5c be
       0.4272854 0.20337564 0.007734643 -0.21492219
000290 ae 25 c5 3d 53 39 cd 3d 0b 9e 32 3e 25 3a 7a 3e
       0.096263275 0.10020699 0.17443101 0.24436243
0002a0 78 39 77 3e 57 50 4c bf 04 f4 34 3e b9 75 e6 bc
       0.24143016 -0.7981009 0.1767121 -0.028132306
0002b0 d4 c7 08 be df 8c 02 3f fd 73 ca 3d da d3 a0 3c
       -0.13357478 0.509962 0.09885404 0.019632269
0002c0 59 ab 0d bf 24 59 27 3c 8a 71 af 3e 47 b7 7f 3c
       -0.5533958 0.010214124 0.3426631 0.015607662
0002d0 1e 49 0e 3e 50 8c 35 bd f2 8c 32 be c0 41 4a bf
       0.1389508 -0.044323266 -0.17436579 -0.79006577
0002e0 14 26 de 3b be a9 b2 be 43 25 6b 3d 7d be d1 3b
       0.0067794416 -0.34895128 0.057408582 0.006400882
0002f0 6d 35 16 bd 86 07 3f be 43 95 5c be 24 83 19 bd
       -0.036672045 -0.18655214 -0.21541314 -0.03747858
000300 58 55 2e bf 18 51 c1 3e 3e d0 a4 bd 91 e7 93 3e
       -0.68098974 0.37757182 -0.080475315 0.2888761
000310 bf 96 41 3e 5b 10 2b 3c 5a 40 f5 3d d5 8d 64 be
       0.18905161 0.010440911 0.11975165 -0.2231973
000320 6d fa c9 be 6a 71 96 be 72 00 47 3e 85 a7 85 bd
       -0.39448872 -0.29383403 0.19433764 -0.065260924
000330 6a d4 96 bf 3d 6e 07 3e 39 d3 0a be c9 df 17 be
       -1.1783574 0.13225646 -0.13557138 -0.14831461
000340 ed 6c cb 3e b8 ee 86 3c eb 48 a2 bf c0 67 db bd
       0.3973154 0.016471252 -1.2678503 -0.10713148
000350 16 d3 e7 bd 38 65 1a be bb 3c 99 be 63 3d 89 3e
       -0.11319558 -0.15077674 -0.29929146 0.26804647
000360 32 3d d5 bc 12 d4 60 3e 7a 03 c4 3d fe 29 a5 be
       -0.026030157 0.21955898 0.095709756 -0.322586
000370 2b 61 6c bd 47 7e bc bd 10 5d 2d bf c8 fb 27 3e
       -0.057709854 -0.09203773 -0.6772013 0.1640464
000380 1d e3 1e be 9f a8 d5 3e 5a 4d 3e 3d d7 80 8f 3e
       -0.15516324 0.4173021 0.046460487 0.28027984
000390 69 90 9a bd 26 ef 4e 3d ed 10 25 be 52 2f d9 be
       -0.07547075 0.05052104 -0.16119738 -0.42418915
0003a0 2e 22 dc 3d 01 af a8 bd 4b 7f 5e bd d7 b5 72 bd
       0.10748707 -0.08236504 -0.054320615 -0.059255447
0003b0 a2 82 af be 32 a7 19 3e f4 b8 d2 3e 2c 13 1b be
       -0.34279352 0.15005186 0.41156733 -0.15144032
0003c0 04 9a df bd 8e 3d c4 3d 08 23 36 be a4 ed 55 3d
       -0.10918048 0.09582053 -0.17786801 0.052228585
0003d0 94 33 3c 3e c8 9e b7 be b0 90 b0 bd 6d 5b d6 be
       0.1837905 -0.35863328 -0.08621347 -0.41866627
0003e0 f2 e5 d8 be a1 09 a8 3e ef dc 18 bd 1e c0 4d 3d
       -0.42362934 0.32819846 -0.037320074 0.050232045
0003f0 84 ef 97 be 20 e5 09 3f 18 eb 1c bf 9e d5 ae bd
       -0.29674923 0.5386524 -0.61296225 -0.08536838

q1_fc2.bias f4 [256]
000000 f4 55 0d 3f 30 7e ab 3e 4c 43 b0 be f3 a9 5b 3e
       0.5520928 0.3349471 -0.34426343 0.21451549
000010 c9 5b ea be b9 53 7b 3f 0e f0 59 3f f7 0d 6a bf
       -0.45773152 0.98174626 0.8513192 -0.9142756
000020 a5 42 4b bf 5b 8d 3b bf c4 98 c4 be a4 ab c7 3e
       -0.79398566 -0.73262566 -0.383978 0.3899814
000030 6d c4 2c bf bf a5 0d bf 52 a9 96 be 59 4d 60 3f
       -0.6748722 -0.55331033 -0.29426056 0.87618023
000040 db 32 52 bf 3c 18 89 3f ea 4d 44 3f e5 f3 2e bf
       -0.8210885 1.0710521 0.7668139 -0.68340904
000050 1f ad 55 3f d2 07 96 be 5b 58 2f 3f da 0b df 3e
       0.83467287 -0.2930284 0.68494195 0.4356373
000060 8e 1d 7c 3f 88 0e 30 bf d9 04 d0 be 56 54 76 3f
       0.98482597 -0.6877217 -0.40628698 0.96222436
000070 33 19 9e be 0e d9 1e 3f 04 79 80 bf b9 d2 8a 3f
       -0.308786 0.6204995 -1.0036931 1.0845557
000080 4a e0 92 bf ca e7 fb be b3 96 11 3f f0 26 1b bf
       -1.1474698 -0.4920028 0.56870574 -0.6060629
000090 87 5e 55 3f df ca 99 3e 0e a4 55 bd 9d 10 33 3e
       0.8334736 0.3003759 -0.052158408 0.17486806
0000a0 a6 dc 60 3f f7 f3 35 bf 5f 9c 5f bf 4a 09 38 3f
       0.8783668 -0.71075386 -0.8734798 0.71889174
0000b0 ae 1e eb bd 32 22 83 3f f9 07 b4 3e bd 64 b9 bd
       -0.11480461 1.024481 0.35162333 -0.090524174
0000c0 a7 f9 30 3f 39 8e df be e7 00 8c 3f 95 4f d0 3e
       0.6913094 -0.43663195 1.0937775 0.40685716
0000d0 5b 75 70 bf 9e 98 85 3f 20 cf 46 3f 4d 88 1c bf
       -0.9392907 1.04372 0.776598 -0.6114548
0000e0 f3 10 a4 bd fb 7d d7 bd 08 18 3e be c1 fa 81 bf
       -0.08011045 -0.10522076 -0.18563855 -1.0154649
0000f0 72 3d 92 3e 74 ca 18 3f a0 e3 3e bf 92 cb 80 3f
       0.28562504 0.5968392 -0.7456608 1.0062125
000100 a5 58 69 bf 2f 29 d3 3e 55 a3 13 3f e9 b1 6f bf
       -0.91150886 0.41242358 0.576711 -0.93630844
000110 41 59 3e bf 6a c7 bc be d5 e2 79 3f 7f cb 98 bf
       -0.7435494 -0.3687089 0.97611743 -1.1937102
000120 c4 7d de 3e ee 75 97 3f 54 08 0e 3e b4 43 83 be
       0.43455327 1.1832864 0.13870364 -0.2563759
000130 c3 d3 71 3f df 22 ce 3d 9f 88 2e bf 43 dd 55 bf
       0.9446375 0.10065245 -0.6817722 -0.83540744
000140 74 f5 0b bf 81 f2 74 3f 39 81 5a ba b5 c8 14 bf
       -0.54671407 0.9568253 -0.0008335296 -0.58118755
000150 74 a7 1e 3f f4 97 62 bf 94 90 20 bf 5c 12 a4 be
       0.61974263 -0.8851311 -0.6272061 -0.32045257
000160 a9 27 6c 3d 67 51 89 3e 8e e5 19 3f d9 7e 39 bf
       0.05765501 0.26819918 0.601159 -0.7245918
000170 ae a4 19 3f 29 58 49 3f 16 3f f7 be ea f1 57 3f
       0.60016906 0.78650147 -0.48290318 0.84353507
000180 0a 98 81 3f 10 bd 06 bf 11 e3 d7 be 56 5a a1 bf
       1.0124524 -0.52632236 -0.42165425 -1.2605693
000190 2e ab 34 bf ef ee 17 bf e4 2e 18 bf ef ad 4d 3f
       -0.705737 -0.5934896 -0.5944655 0.80343527
0001a0 ee d7 19 3f e5 17 01 bf f3 e3 16 3f 35 fe 10 3f
       0.6009511 -0.50427085 0.5894157 0.5663789
0001b0 b2 c9 3e 3f d4 ef 6d 3f 57 5c d6 3e a4 bc 08 3f
       0.7452651 0.92944074 0.41867325 0.5341284
0001c0 eb a4 5e bf bc 3e 80 3f dd 9c 16 bf bc 28 6a bf
       -0.86970395 1.0019145 -0.58833104 -0.91468406
0001d0 52 2c 71 3e 7d 19 19 3f ac cd 78 3f b7 44 15 bf
       0.23552063 0.5980452 0.9718883 -0.58307976
0001e0 59 31 76 3f dc 0d 3d 3f 80 68 17 3f f5 77 2a bf
       0.9616905 0.7384927 0.5914383 -0.6658929
0001f0 7d 2f 53 3f c7 b7 9a bf 20 81 86 3f 84 c2 84 bf
       0.82494336 -1.2087334 1.0508156 -1.0371861
000200 0a ae 5d bf ba a6 fb be 0f 03 20 3f 06 4d 63 3f
       -0.8659369 -0.4915064 0.6250467 0.88789403
000210 16 bf 09 3f c4 60 35 3f 3e ff 34 3f 29 95 4c bf
       0.538072 0.7085078 0.7070197 -0.799151
000220 04 83 9c be 6d ae 43 3f 57 f4 d1 3e 9a 2a 22 3f
       -0.30568707 0.7643803 0.4100673 0.63346255
000230 59 59 70 3f f5 7d 87 3f 67 9c 67 3f 2e 5a 38 bf
       0.93886334 1.0585314 0.90473026 -0.72012603
000240 2f 31 81 bf 2e 5c 43 bf 6b a7 3c bf 24 e8 89 3f
       -1.0093135 -0.7631253 -0.7369296 1.0773969
000250 24 0f 1c bf 03 bd 30 3f 28 eb 97 3f 5f bc 38 3f
       -0.609606 0.6903841 1.1868639 0.7216243
000260 b6 b4 5a bf f2 31 09 bf 92 69 63 bf 1b b2 37 be
       -0.85431993 -0.53591835 -0.8883296 -0.17939036
000270 cf 84 53 bf 7d 9a 6b bf c9 fa f7 be 85 fb 22 bf
       -0.82624525 -0.92032605 -0.4843352 -0.6366504
000280 ff cd c4 be e3 36 4c bf 4f f9 11 bf 4c f5 0c 3f
       -0.38438413 -0.7977125 -0.5702104 0.55061793
000290 58 bf 16 bf ae 02 89 3f 03 09 28 3f 25 9b 56 bf
       -0.5888572 1.0703943 0.6563875 -0.8383048
0002a0 de 51 25 bf 44 0b 17 3f 14 38 73 3f 33 45 eb 3e
       -0.64578044 0.59001565 0.95007443 0.45951232
0002b0 a1 09 76 3f 55 3f b5 be d3 ec 24 bf b8 09 45 bf
       0.9610844 -0.3539988 -0.64423865 -0.76967955
0002c0 cd 6c 44 3f 6d 50 4b bf bd 26 b6 3e 55 8b 22 bf
       0.76728517 -0.79419595 0.3557643 -0.63493854
0002d0 d4 7a 8a 3f 01 87 3c bf 1e 23 3b bf 0c 00 6b 3f
       1.0818734 -0.736435 -0.7310046 0.91796947
0002e0 2b 80 b1 3e f0 e5 43 bf ce 47 99 be 06 d1 86 3f
       0.34668097 -0.7652273 -0.29937595 1.0532539
0002f0 b8 54 6e 3f b8 fe 53 be 06 f6 81 3f 97 7d 22 3f
       0.9309802 -0.20702636 1.0153205 0.63472885
000300 34 b3 72 bf 16 29 cd be cc 9f 1a bf bc c1 63 3f
       -0.9480469 -0.4007041 -0.6040008 0.8896749
000310 a1 cb 0f bf 92 c7 cb 3e a7 ef c6 3e d7 a6 65 bf
       -0.5617009 0.39800698 0.38854715 -0.897077
000320 4f b3 34 3e e5 8f 2f 3f 3e 57 75 3f 08 4f 77 be
       0.17646526 0.6857894 0.95836246 -0.24151242
000330 36 52 1f bf 68 1a f5 be 8c 10 72 3f bd da d9 be
       -0.6223482 -0.4787171 0.945565 -0.42549697
000340 5a 59 71 be d9 e9 5d 3f fc 68 2b bf 79 6c e2 3e
       -0.23569241 0.8668495 -0.6695707 0.44223383
000350 5f 87 4b 3f 71 78 24 3f 86 39 62 3f ee 8b 2d bf
       0.79503435 0.6424628 0.88369024 -0.6779164
000360 01 f7 38 3f 76 be 39 3f 86 50 d6 be 7a 60 96 3f
       0.722519 0.72556245 -0.4185831 1.1748192
000370 42 61 23 3f a8 39 09 3f 54 3b 74 3f 94 85 49 bf
       0.6382028 0.536036 0.9540303 -0.7871945
000380 e5 10 31 be 02 ba 00 bf e2 67 54 3f 81 c2 94 3f
       -0.17291601 -0.50283825 0.8297101 1.1621858
000390 c0 36 72 bf 8d d6 4f bf 19 59 6a bf 23 09 88 bf
       -0.9461479 -0.81186754 -0.915422 -1.0627788
0003a0 13 3e 96 bf 6e 69 47 bf 85 b5 5a bf 87 78 91 bc
       -1.1737694 -0.7789525 -0.85433227 -0.017757667
0003b0 8a ce 07 be 90 af 46 3f 7b 5a 7e 3e 47 9d 62 3f
       -0.13262382 0.7761164 0.24839203 0.88521236
0003c0 fe 82 71 3f 0b 40 50 bf aa 72 fa 3e 49 63 5b 3f
       0.94340503 -0.8134772 0.48915607 0.8569837
0003d0 eb 9f 75 3f 22 1f e9 be 0b 69 35 bf 27 54 13 bf
       0.9594714 -0.45531565 -0.7086341 -0.5755028
0003e0 5f 7e f4 3e ca dd 21 bf 61 fc 8b 3f 5f f7 28 3f
       0.47752663 -0.6322905 1.0936395 0.6600246
0003f0 8c be 8d bf b8 2d 0c 3f 5b 9e 28 3f ff 5f 3e bf
       -1.1073775 0.5475726 0.6586663 -0.7436523

q1_output.weight f4 [1, 256]
000000 a2 cb 44 3f e1 f2 77 3f 5a 38 11 c1 7a 7e 57 3f
       0.7687322 0.9685498 -9.076258 0.8417736
000010 08 35 84 bf 67 8d df 3d 70 a6 65 3e c3 a3 9b bf
       -1.0328684 0.10915642 0.22426772 -1.2159351
000020 a0 28 35 c0 c7 c6 3f bf 85 86 0d c1 0b 22 94 3f
       -2.8306046 -0.74912685 -8.845342 1.1572889
000030 1d ed 61 bf 75 8a 4a c0 aa 3e 05 c1 17 f0 45 3e
       -0.8825243 -3.1647007 -8.327799 0.19329868
000040 ca e3 23 bf 19 3b 04 3f c1 e2 72 3e 54 79 84 bf
       -0.64019454 0.51652676 0.23719312 -1.0349526
000050 c1 22 8c 3e 29 c0 18 c1 b8 6d 8c 3e 68 5b 05 3f
       0.27370265 -9.546914 0.2742746 0.520926
000060 aa 4e 1f 3e 15 41 66 bf 19 16 db bf 75 f9 01 3f
       0.15557352 -0.8994306 -1.7116119 0.50771266
000070 a2 74 c9 be 48 75 ab 3e df e6 52 bf 29 0a 08 3f
       -0.39346796 0.33487916 -0.8238353 0.53140503
000080 0b f0 01 bf ad 10 26 bf b2 6b 2e 3f f9 12 1d c0
       -0.507569 -0.64869195 0.6813308 -2.454283
000090 b2 58 8a 3e d2 1c 34 40 1c 93 fd c0 47 a9 68 3f
       0.27020794 2.814259 -7.9242077 0.90883297
0000a0 23 77 05 3e f3 34 12 bf 1e a4 b9 bf 38 21 24 bf
       0.13033728 -0.57112044 -1.450321 -0.6411319
0000b0 57 92 01 c1 f1 2c 27 3e 7e f6 2b 3f 8e f7 00 bc
       -8.0982275 0.16325738 0.6717299 -0.007871522
0000c0 bf 05 02 3f ad c0 a7 c0 0d c2 84 3e c2 9f bd 3e
       0.5079002 -5.24227 0.259293 0.37035948
0000d0 88 f7 19 bf 30 d1 39 3e 26 69 e3 3e c6 e3 b1 be
       -0.6014333 0.18146205 0.4441616 -0.3474409
0000e0 4c 62 17 c1 48 f3 ac c0 78 24 c4 bf 0b bc 23 bf
       -9.461498 -5.4046974 -1.5323629 -0.63958806
0000f0 fd 5a 04 3f 91 7e 9c 3e e9 6a 38 bf 1d 9c 18 3f
       0.5170134 0.30565313 -0.7203813 0.5961321
000100 68 1f 03 bf de 43 db 3e ca b4 b7 3e 9d de b4 be
       -0.512198 0.42825216 0.3588012 -0.3532609
000110 ed 9a 3e bf dc 17 0a c0 ba 2e c5 3e a9 1f b7 be
       -0.7445515 -2.1577063 0.38512212 -0.35766342
000120 4c f2 d0 3e aa 26 52 3f a4 fd 33 3f ab 96 13 c1
       0.40809858 0.82090247 0.703089 -9.224284
000130 37 b8 1f 3e 76 16 c9 3f 91 01 e5 be 15 15 f6 be
       0.15597616 1.570998 -0.44727758 -0.4806296
000140 ed 87 1b bf b2 b2 c2 3d fe 55 c4 c0 e0 78 2e bf
       -0.6075428 0.0950674 -6.135497 -0.6815319
000150 de b9 3a 3f 63 e3 1f c0 45 6f 5d c0 9d 3e 25 c1
       0.7293986 -2.4982536 -3.4599164 -10.327786
000160 66 56 42 c1 4f 07 0d 3f 0e 23 80 3e 13 db 28 bf
       -12.146093 0.5508928 0.25026745 -0.6595928
000170 c5 04 90 3e 15 61 44 3e 00 e1 e6 bf c0 5b 6d 3f
       0.2812864 0.19177659 -1.8037415 0.92718124
000180 3d 0d 50 3e 93 cf dc bf bc 59 b4 c0 b9 91 10 bf
       0.2031755 -1.7250847 -5.635954 -0.56472355
000190 26 7c 2b bf 9f 78 fe be d0 72 02 bf ef ea 76 3e
       -0.6698631 -0.49701402 -0.5095644 0.24113058
0001a0 60 17 e3 3e 5a 6e c5 c0 10 72 d0 3e 1c fe 0f 3f
       0.4435377 -6.1697206 0.40712023 0.56247115
0001b0 e9 6a 53 3e 09 66 ad 3e 45 ab 15 3f 73 b6 c7 3e
       0.20646252 0.3386691 0.5846446 0.39006385
0001c0 94 d5 34 bf a7 49 6d 3e 2b 58 1a bf c0 b6 0a bf
       -0.70638394 0.23172627 -0.60290784 -0.54185104
0001d0 fe 4f 84 3f fc 02 e5 3f af ef 75 3d 10 30 97 c0
       1.0336912 1.7891536 0.060043033 -4.724617
0001e0 35 af f6 3d 99 9e 61 3e 40 2b fa 3e 95 4e 71 c0
       0.12045137 0.22033156 0.48861122 -3.7704213
0001f0 1a 82 7c 3e d8 5c fd be aa bd 36 3e 82 ab 22 bf
       0.24659005 -0.49484897 0.17845789 -0.6354295
000200 dc e3 9a c0 d1 53 3b c0 ea b9 be 3e 3e 49 85 3e
       -4.840315 -2.9269907 0.37251216 0.26032442
000210 f6 67 d8 3e c8 18 bf 3e 4d 54 f0 3e c9 5d 05 bf
       0.42266816 0.37323594 0.46939316 -0.5209623
000220 0d 81 c7 bf 29 9f 90 3e 13 57 f4 3e e8 2d e5 3e
       -1.5586258 0.2824643 0.47722682 0.44761586
000230 c3 71 78 3d 9d 72 81 3e 80 34 9a 3c b1 22 0a bf
       0.060655367 0.25282755 0.018823862 -0.53959185
000240 8c cf e8 be 32 82 f4 be 52 54 75 bf 52 c6 35 3e
       -0.45470846 -0.4775558 -0.9583179 0.17751434
000250 1e d5 9e c0 a6 53 dc 3e d6 7c 02 3f b5 dd 92 3e
       -4.9635153 0.4303257 0.50971735 0.28684774
000260 a0 bb 10 bf 94 48 03 bf 69 d9 9e c0 62 f2 f6 c0
       -0.56536293 -0.5128262 -4.9640393 -7.7170877
000270 35 df a9 be 80 41 ca be 09 c6 e4 bf bc 2b ef c0
       -0.33178106 -0.39503098 -1.7872936 -7.4740887
000280 e6 86 65 c0 9d bf 94 bf 9d 27 06 bf dc 7f 22 bf
       -3.5863585 -1.1620976 -0.52404195 -0.6347635
000290 27 be 90 bf e6 7d 08 3e 51 f4 b1 3e 74 31 30 bf
       -1.130803 0.13329276 0.3475671 -0.6882546
0002a0 ad f3 e9 be 96 e7 9e 3e 13 ad 1f 3e 60 db a3 3e
       -0.45693722 0.3103606 0.15593366 0.32003307
0002b0 99 67 13 40 7c 9d db c0 af 2a c6 bf 27 53 21 bf
       2.303198 -6.862974 -1.5481776 -0.63017505
0002c0 d7 d9 ac 3e 4f 87 b9 be c6 29 03 3f 29 59 4a c0
       0.3375995 -0.36236045 0.51235616 -3.161692
0002d0 a3 bf 95 3e 38 8b c0 be 92 44 a9 be d0 2e 4b 3e
       0.2924777 -0.37606215 -0.33060127 0.19842076
0002e0 5d ca 2d 3f b7 23 1e c0 54 4a f2 c0 e6 9b fb 3e
       0.67886907 -2.4709299 -7.5715733 0.4914238
0002f0 bd 8e bc 3e b9 08 7e c0 bf 2f 10 3e 94 86 c8 3e
       0.3682765 -3.9692824 0.14080714 0.39165175
000300 f0 14 01 bf 4d ed 97 bf 3c 8d 90 c0 77 ce d2 3d
       -0.50422573 -1.1869293 -4.5172405 0.10293286
000310 2e 79 34 bf 02 82 c1 3e d0 e7 8f 3f 75 89 d6 be
       -0.70497406 0.377945 1.1242619 -0.41901746
000320 34 86 bc 3f 80 e8 2e 3f 43 78 1f 3e ff bf 51 c0
       1.4728456 0.68323517 0.1557322 -3.2773435
000330 9e 95 9a c0 25 b4 19 c0 a9 58 c4 3d 8d b6 36 bf
       -4.830764 -2.4016201 0.09587223 -0.713723
000340 38 bf 2d c1 3f e3 2d 3e 2d be 5a bf 83 cb 44 3f
       -10.859184 0.16981219 -0.85446435 0.76873034
000350 e7 70 5f 3e bf 92 88 3e e5 8e 0a 3e aa 0c 74 bf
       0.21820413 0.26674458 0.13531072 -0.95331824
000360 0f 14 97 3e bc 6f 57 3e b4 0e e5 bf 37 88 cf 3e
       0.2950749 0.21038717 -1.7895112 0.4053361
000370 e2 48 ad 3e c2 57 09 3f 4e 3b ff 3d dc 8e 5d bf
       0.33844668 0.5364953 0.12462483 -0.8654611
000380 88 80 e8 c0 63 6d 68 c0 43 da ae 3e 88 d7 8d 3f
       -7.26569 -3.6316764 0.34150895 1.10814
000390 1a 5b 33 c0 66 6a c5 be 59 88 c2 c0 c0 25 3a bf
       -2.8024354 -0.38557738 -6.079144 -0.7271385
0003a0 a9 a1 dc bf dc 2a cf be 6d 65 c0 be 24 42 54 c1
       -1.7236835 -0.40462387 -0.37577382 -13.266148
0003b0 2d 35 03 c1 fa f9 53 3e 0c 78 b4 3f db 0a 45 3e
       -8.200482 0.20700827 1.4099135 0.19242422
0003c0 ca a9 b0 3d ea b0 88 be f2 bb aa 3e 74 ec 58 3e
       0.08626135 -0.26697475 0.33346516 0.2118395
0003d0 9d 58 8f 3e 5e fb a6 c0 1f 72 a0 be 64 af 3a bf
       0.27997294 -5.2181845 -0.31337067 -0.72923875
0003e0 5e d8 a1 3f de 81 59 c0 5e f8 91 3e c3 21 67 3e
       1.2644155 -3.3985515 0.28509802 0.22571473
0003f0 fd 83 d6 be e8 b4 09 3f 45 d6 a5 3e bf 0d 4c c0
       -0.41897574 0.53791666 0.32390037 -3.188339

q2_fc1.weight f4 [256, 35]
000000 e6 a3 91 3f 62 f9 88 3c 4b 72 eb bf c5 ef e9 bf
       1.1378143 0.016720477 -1.8394254 -1.8276297
000010 26 aa 45 bf 81 c3 20 3e 75 c2 8e 3d 8a de 91 3e
       -0.7721275 0.15699579 0.069706835 0.28490096
000020 73 e5 64 3f 37 e0 f5 3e a7 e0 04 3f f7 c9 4b bf
       0.8941261 0.48022625 0.5190529 -0.7960505
000030 a1 40 3a bf d3 1d 07 be 1b c8 8a 3f 10 7a 28 3f
       -0.72754866 -0.13194971 1.0842317 0.6581125
000040 4f 5e 88 bf ef 06 87 3e 90 32 da be 81 bb 83 bc
       -1.0653781 0.26372477 -0.426167 -0.01608062
000050 ca 7f 5e 3e ed 40 eb 3d fe 3d a1 3d 69 db 63 be
       0.21728435 0.11486993 0.07873152 -0.22251667
000060 20 52 f4 3d e4 6a e8 bd 78 cc 85 bc 17 83 2b bf
       0.119297266 -0.11348513 -0.01633285 -0.669969
000070 03 2e a5 be df 59 aa 3e 62 06 1e be 0e d6 39 3e
       -0.32261667 0.3327169 -0.15432122 0.18148062
000080 80 98 dd be dc ce 11 bf 50 c1 9f bf ec c6 9b bf
       -0.4328041 -0.5695627 -1.2480869 -1.2170081
000090 e2 80 77 bf 0d da a0 bf c3 48 09 bf cc 35 81 3e
       -0.96681035 -1.2566544 -0.5362665 0.25236356
0000a0 31 bf 3a 3f ee c4 f9 3e 14 f3 ae bd 29 66 56 3f
       0.72947985 0.48783058 -0.08542457 0.83749634
0000b0 fa f7 f0 bd cc ad d4 bb 55 af 08 3f c2 ac 0f 3e
       -0.11766048 -0.0064904448 0.53392535 0.14030746
0000c0 be e5 c0 be 90 94 18 be 63 8b b6 be 99 15 73 3e
       -0.3767528 -0.14900422 -0.3565322 0.23738708
0000d0 ee 91 ee 3e a4 4f 6e 3e 16 57 3e 3e f2 ee 77 be
       0.4659571 0.23272568 0.18587908 -0.24212244
0000e0 37 98 5a 3d 25 10 24 bd 47 c6 d3 3c 2b f7 6a 3e
       0.05336782 -0.04005446 0.025851382 0.2294585
0000f0 89 f1 c3 3d c6 25 99 3e 55 58 3c 3e 28 cc 87 3d
       0.095675536 0.2991163 0.18393071 0.066307366
000100 02 e8 13 3f 3f 51 db 3d 23 c6 8b 3f e2 3c 17 3f
       0.5777589 0.10708856 1.0919842 0.59077275
000110 85 88 e8 be 0d 8b d6 3f 30 60 42 3e ce b2 3e bf
       -0.45416656 1.6761185 0.18982005 -0.74491584
000120 d8 fd 57 3e 73 9f 1a 3f 4a 7c 83 be 2c 8d 98 3e
       0.21092927 0.6039955 -0.25680763 0.29795206
000130 b7 fd e3 3e 87 c7 48 bf 82 16 81 be 4b 71 84 3d
       0.44529507 -0.78429455 -0.25212485 0.064669214
000140 46 e1 39 3f ff ad ca be 99 a6 7d be 93 ab c3 be
       0.72609365 -0.39585873 -0.24770583 -0.38216838
000150 62 cc 96 3e 98 6c 4a 3f c5 f8 4a bc 4a f9 0b 3f
       0.29452807 0.7907195 -0.012388413 0.5467726
000160 1e 1e 83 be 0f 9c 42 bc 6d 3d 0c be 6f bc 27 3e
       -0.25608915 -0.011878028 -0.13695307 0.16380475
000170 af 8c 92 be 09 09 01 3c 1e b8 70 be 53 95 9c bc
       -0.28622958 0.007875689 -0.23507735 -0.019114172
000180 03 bd 23 3e 9d a7 e9 3e e6 af 11 3f a7 38 0b 3f
       0.15990071 0.4563569 0.56909025 0.5438332
000190 72 58 ef be 24 f6 85 3f a7 b7 b8 bf 54 b1 ee 3e
       -0.46747166 1.0465741 -1.4431046 0.46619666
0001a0 b9 df 79 bf 13 97 f0 3f 1e e7 d0 bd ff 70 96 3f
       -0.97607 1.8796104 -0.10200332 1.1753234
0001b0 f3 d8 91 bf c4 5e 6d bf fb 93 16 bf f7 4b 12 bf
       -1.1394333 -0.92722726 -0.5881955 -0.57147163
0001c0 1f f5 1c bf c0 3b e7 3e 93 4f 8a 3e a4 26 55 3f
       -0.61311525 0.45162773 0.27013835 0.83262086
0001d0 7f 7c 78 be 72 e9 30 be 7d b7 c5 be 2e 6e ea bd
       -0.24266241 -0.17276552 -0.38616553 -0.11446796
0001e0 ab 65 d1 be 38 23 4f 3f da 6f ea be 85 66 18 bf
       -0.4089788 0.80913115 -0.4578846 -0.5953143
0001f0 3d 45 e5 bd a4 0d 6e bd 2a e3 0e be 74 22 8e 3c
       -0.11194847 -0.058118477 -0.13953844 0.017350413
000200 5b 2e c8 bd c7 7f a1 bb f2 78 2e be d0 72 37 bd
       -0.097744666 -0.0049285623 -0.17038324 -0.044787228
000210 3b 4c 04 be 80 1b ed 3d 27 75 d1 bd 0d fd 1a 3e
       -0.12919705 0.11577511 -0.10227423 0.15135594
000220 54 e4 3a 3f eb ab 8d be 40 b7 9d be 74 99 d4 3d
       0.7300465 -0.27670226 -0.3080387 0.10380831
000230 b2 18 40 3e 32 18 b3 bf c3 71 0e be 64 61 fb bf
       0.1875942 -1.3991759 -0.13910584 -1.9639096
000240 a9 3d d8 3f 7f 8e ed bd 8e a6 85 3d 18 0c 78 bd
       1.6893817 -0.115994446 0.065259084 -0.06055841
000250 cf 6a c7 be 80 90 a6 be fa b8 74 bf df 4e 3d 3d
       -0.38948676 -0.3253212 -0.9559475 0.046217795
000260 8d a9 2b be 6a 19 ff be fb 22 05 bf a6 b9 7e 3e
       -0.16763897 -0.49824077 -0.520065 0.24875507
000270 1b ad 06 3e e5 6a 7a 3e 9d 75 ca be a3 c4 e1 bd
       0.13151972 0.2445484 -0.39542857 -0.110238336
000280 ac 7a 58 bd a4 ea 8f bd b7 93 57 bd b1 b3 a8 bd
       -0.052851364 -0.07027176 -0.052631106 -0.082373984
000290 8d 8b 35 bd c0 ae 2e 3d ab 42 88 3d a5 c4 49 3c
       -0.04432254 0.042647123 0.06653341 0.01231495
0002a0 9d 35 31 3e 2d 34 8c be 91 39 34 be 0f 4c 01 bf
       0.17305608 -0.27383557 -0.17600085 -0.5050668
0002b0 34 fa fc be c3 78 98 3e 5b 78 06 bf 60 d9 57 3f
       -0.4940964 0.29779634 -0.525274 0.8431606
0002c0 1e df 55 3f 95 d5 0a c0 6b 1e 32 c0 69 db 27 40
       0.83543575 -2.169286 -2.7831066 2.6227667
0002d0 5e aa f1 3d bf 8e 83 be cd 88 36 3e 0e 7b 95 3d
       0.11800073 -0.25694844 0.17825623 0.072988614
0002e0 55 1c ab 3e 35 8c 07 3f 30 c0 ea be 2a c5 b7 bd
       0.33420053 0.52948314 -0.45849752 -0.08973153
0002f0 6d 74 84 be 96 f0 c1 bd c7 80 49 be 3f 7e 82 bd
       -0.25870076 -0.09469716 -0.19678031 -0.06371736
000300 db ef 04 bc cb 1d a6 3b a9 2c b9 3c 1b 8d 20 3d
       -0.008113827 0.0050694696 0.022604303 0.03919707
000310 ff b5 29 3b b9 48 5a 3c 34 b3 81 3c 08 22 c2 bc
       0.0025895832 0.0133230025 0.015832521 -0.023697868
000320 e5 84 f6 bb 36 ec e2 3a db cf ec bc b2 69 37 3d
       -0.0075231665 0.0017312828 -0.028907707 0.044778533
000330 8c 6d 59 3e 5c 9a d4 3c 6e 75 9a bd 12 2b 3e 3e
       0.21233195 0.02595251 -0.07541929 0.18571118
000340 ea c1 48 bd a3 30 46 bd 5c f0 af be 05 32 57 be
       -0.049013056 -0.048386227 -0.34363067 -0.21015175
000350 79 70 4d 3f 80 60 24 3e bf d6 69 bf d4 02 0d be
       0.80249745 0.16052437 -0.913433 -0.1377061
000360 65 d3 10 3e f1 08 7b bf 18 b1 aa 3e 4e 09 59 bf
       0.1414314 -0.9806052 0.33338237 -0.8477982
000370 74 e6 69 3f 3c e2 7a be 4d 61 06 3d 1d f4 06 3f
       0.9136727 -0.24500364 0.032807637 0.5271624
000380 4b 48 4c 3f a2 69 20 3f 4d 01 0f 3f b2 5f 1e be
       0.7979781 0.6266118 0.5586136 -0.15466192
000390 91 2e 61 3e d8 04 b0 3d 09 2f da bd 06 6a b5 bd
       0.2199042 0.08594674 -0.106535025 -0.08858113
0003a0 44 f3 84 3e 1c 76 9a bd a7 44 cf 3d 46 22 5e bc
       0.25966847 -0.07542059 0.10120516 -0.013557976
0003b0 27 7f 96 bc 59 69 b3 be 01 c4 04 be d1 b7 70 be
       -0.018371178 -0.3504131 -0.12965395 -0.2350762
0003c0 d3 e1 05 3f 45 fe c4 be 30 c7 b9 3e 5e 23 ca be
       0.52297705 -0.38475242 0.3628478 -0.39480108
0003d0 88 63 d6 3e 8c 19 c5 bd e2 ec 89 3f f4 c5 8b 3e
       0.4187281 -0.09624013 1.0775416 0.27299464
0003e0 21 7b 12 be 2d 23 b8 3e 88 2f 6f bb e4 d4 14 bc
       -0.14304782 0.35964337 -0.0036496837 -0.00908396
0003f0 98 ef 38 be a3 03 3e be 3f 71 56 be 6b c9 84 be
       -0.18060148 -0.18556075 -0.20941637 -0.2593492

q2_fc1.bias f4 [256]
000000 77 3d 27 bf 25 cd 19 ba aa 88 68 be 56 64 09 3e
       -0.6532816 -0.0005867056 -0.22708383 0.13417181
000010 be d7 7e 3e 5e 05 17 3e 92 4f 0f 3d cd 03 20 3f
       0.24886987 0.14748141 0.034987994 0.625058
000020 29 40 50 3f 32 1f 06 3e 84 bc 40 bf 16 2e 5b bf
       0.813479 0.13097838 -0.7528765 -0.85617197
000030 c6 df a5 3e 5f 52 00 3e 44 13 95 be 99 ce f4 be
       0.32397288 0.12531422 -0.2911626 -0.47813872
000040 59 c2 1c be 8e f6 5a bf 0f 04 18 bf a7 ac 09 be
       -0.15308513 -0.8553246 -0.5938119 -0.13444768
000050 50 ca 89 3c 08 91 12 bf 85 af 3c 3f 92 5b f4 be
       0.016820103 -0.5725255 0.7370532 -0.47726113
000060 32 7e f9 be 3c 7b 94 be ba fa 23 be 9b 1d 4e be
       -0.48729092 -0.2900027 -0.16013613 -0.20128481
000070 71 a9 48 3e d7 23 c7 3e 46 22 c0 be db 43 94 3e
       0.19595887 0.3889453 -0.3752615 0.2895802
000080 d1 88 a4 be 0f b4 10 bf d2 5c f4 be c3 a9 ac be
       -0.32135633 -0.5652475 -0.47727066 -0.33723268
000090 d1 c3 c5 be 99 d9 b0 be 43 c7 ba be d9 96 39 be
       -0.3862596 -0.34541014 -0.3648015 -0.1812395
0000a0 38 7d dd be e9 7c 71 bf b9 52 f6 3e 5f 3a 1f 3e
       -0.43259597 -0.9433122 0.48109987 0.1554961
0000b0 7c cd a0 be 23 c0 05 3e f3 ee 1f bf 7f 0f 14 3f
       -0.31406772 0.13061576 -0.6247398 0.57836145
0000c0 49 bf b6 be 5c ea 80 bf 0e 1a 45 be 72 fe 58 bd
       -0.35692814 -1.0071521 -0.1924822 -0.052977033
0000d0 7a ea 27 3f 36 f8 b3 bd 03 74 bb bc 8b 9c b0 3c
       0.6559216 -0.08787577 -0.022882467 0.02155902
0000e0 70 9c 3a bc b6 40 ad be 17 9c d7 be cb 4a 58 3e
       -0.011389837 -0.33838433 -0.42111275 0.21122281
0000f0 da cd 1b be 8b 02 04 bf b1 06 9e 3b a6 80 6f bf
       -0.15215245 -0.5156638 0.004822575 -0.93555677
000100 14 63 f1 3e 36 2d df be 66 fb 9b bf bd 6f f4 3d
       0.47145903 -0.4358918 -1.2186096 0.11935375
000110 ab 8e 5f 3e 1c 44 1f bf c0 ed f9 3e 35 02 36 be
       0.21831767 -0.622133 0.488142 -0.1777428
000120 22 b3 b3 be 4e df fb 3e be 51 49 3f ca 8b 2b bf
       -0.35097605 0.49193805 0.78640354 -0.67010176
000130 ba fd c1 3f 57 2a 1d be a6 4e f3 be e0 0e 63 3f
       1.5155556 -0.15348183 -0.47520941 0.8869457
000140 a5 21 ac bd c2 a8 06 bf c9 43 ed be 72 41 36 bf
       -0.08404855 -0.52601254 -0.46340778 -0.7119361
000150 eb f8 97 be 8f a2 4b bf e1 91 4b bf 61 86 82 be
       -0.29682097 -0.7954492 -0.7951947 -0.25493148
000160 b8 57 88 be dd 4d 79 be 3d 6e 94 bf 53 54 a9 be
       -0.26629424 -0.24346109 -1.1596142 -0.33072147
000170 03 ae b8 be 28 ea 28 3e 66 99 f1 3c cd 52 4a be
       -0.3607026 0.16495574 0.029492091 -0.19758148
000180 3b d5 7b bf 61 b3 79 bf b5 31 50 3f 12 50 aa be
       -0.9837224 -0.97539335 0.81325847 -0.33264214
000190 29 bd 45 3f 36 f6 b9 be 60 70 b9 be 13 e5 c9 3d
       0.7724176 -0.36320657 -0.36218548 0.098581456
0001a0 48 4d 55 be ed ff fa 3e b8 2b 01 bf 1a 98 8a 3d
       -0.20830262 0.4902338 -0.50457335 0.06767292
0001b0 ec 8e 6e 3e 2d 09 7d 3f fa e6 9c 3e 5f 39 d1 3d
       0.23296708 0.98842126 0.3064497 0.10216021
0001c0 b5 ab 7a bd 4b 56 26 bf 4b 0f 4b bf d1 5c e7 be
       -0.06119891 -0.6497542 -0.7932021 -0.45188
0001d0 0f ee f6 bd 3d dd 24 be f0 3e b6 3d 4f 91 88 be
       -0.12057125 -0.1610002 0.08898723 -0.26673362
0001e0 1a 37 f6 be 7e 53 d9 3d 36 ea 85 3d b7 43 4b 3e
       -0.48088914 0.10611628 0.06538813 0.1985005
0001f0 de 0f 62 3f 72 69 93 be e5 94 a5 be a2 6c 03 bf
       0.8830546 -0.28791386 -0.3234016 -0.51337636
000200 53 8f 78 be 7f 8c f8 be b8 85 50 bd 0f 6e 66 bf
       -0.24273424 -0.4854469 -0.050908774 -0.90011686
000210 34 0d 47 be 0a c1 4b 3e ab 6b 7d be 10 fa ae be
       -0.1943863 0.19897857 -0.24748103 -0.34175158
000220 e4 7a b8 bb 6e 2c 84 3d 4f a0 bc 3d 56 7b 24 be
       -0.005629884 0.06453787 0.09210264 -0.16062674
000230 cd 84 e9 3e 09 b9 aa be 0f f5 b0 3e a4 29 35 be
       0.4560913 -0.33344296 0.34561965 -0.17691666
000240 8f 1e 08 bf 76 20 83 3e 58 98 b9 3d 88 75 00 3e
       -0.5317163 0.25610703 0.090622604 0.12544835
000250 42 31 37 3f 58 14 fe be b7 20 37 bf 98 38 f7 3d
       0.71559536 -0.49624896 -0.71534294 0.12071341
000260 6e b0 ac be ce df 2c bf 47 13 86 3e c8 42 93 3e
       -0.33728355 -0.67529 0.26186582 0.28761888
000270 64 dd 3a 3e 01 1c c3 3c 82 8e be be 96 f3 92 3e
       0.18248516 0.023817064 -0.372181 0.28701466
000280 80 e0 5a bf 7d 6b d8 bd e6 f8 f9 3e e5 36 98 be
       -0.8549881 -0.10567377 0.48822707 -0.2972938
000290 ad 61 26 3d 70 da eb bd a9 aa a6 bd 7b 9a 91 3e
       0.040620495 -0.11516273 -0.081380196 0.28438172
0002a0 7c 7f f2 3c d9 06 3f bf 62 d7 ba be 15 84 73 be
       0.029601805 -0.74619824 -0.3649245 -0.23780854
0002b0 ed a1 ab be d3 8c 60 bf 52 46 86 be 68 62 2c be
       -0.33521977 -0.8771488 -0.26225525 -0.16834414
0002c0 69 a8 26 3f bd 7e 82 3e 21 f9 db be f2 ba 0b bf
       0.65100724 0.2548732 -0.42963508 -0.5458213
0002d0 8d 1e 29 bf 0b b4 13 bf f5 a6 33 bf e0 00 91 be
       -0.6606224 -0.576966 -0.7017663 -0.2832098
0002e0 ef f6 99 3e 0c c2 f0 3e 7a e7 80 be 07 38 7b 3e
       0.30071208 0.47023046 -0.25176603 0.24533091
0002f0 d5 24 08 3e dc bf 06 bf 03 62 b8 3e e0 01 1f bf
       0.132953 -0.52636504 0.36012277 -0.62112236
000300 98 78 99 bd 11 d9 ff 3b cc a4 da 3e af 14 80 be
       -0.074937046 0.0078078588 0.42703855 -0.2501578
000310 15 48 ab be f4 26 0e bf b6 36 4d 3f 65 8f 78 be
       -0.33453432 -0.5552819 0.8016161 -0.2427345
000320 66 36 07 bf f1 16 b7 be 29 51 1b 3e 88 68 54 3d
       -0.5281738 -0.3575969 0.15167679 0.0518575
000330 af 49 0a 3f dd c0 a8 3e 11 da b6 be 94 9f 8b 3e
       0.5401868 0.32959643 -0.35713246 0.27270186
000340 c7 cf 61 bf 0b 60 a1 bd 2a 1e 38 3d b8 6b 17 be
       -0.8820767 -0.07879647 0.04495064 -0.14787185
000350 06 4f df be 2b cd 27 bd d6 90 95 3f 2b 5b 74 bf
       -0.43614978 -0.040967148 1.1684825 -0.9545161
000360 e2 bb 08 bf 75 93 60 bf 34 86 41 3e 0b f3 db 3e
       -0.53411686 -0.87725 0.1889885 0.42958865
000370 59 5d ad bd 1e 42 f5 be 23 b4 4a be 53 a5 87 3e
       -0.0846507 -0.47902006 -0.19795279 0.2649332
000380 7a 5b 8b be a3 ee ac be b9 e0 45 3d 2e 2d f4 3c
       -0.2721823 -0.33775815 0.048310015 0.0298067
000390 99 a0 8a be 8b dd f2 3e 97 8a e1 be 87 06 01 3f
       -0.2707565 0.4743465 -0.44051048 0.50400585
0003a0 fb 68 e1 bd e7 fd c5 bd 06 0c 12 3f f3 78 d4 3e
       -0.110063516 -0.09667569 0.57049596 0.41498527
0003b0 32 fa d2 be 63 0a 0a be d3 98 38 bf 89 e4 eb 3e
       -0.4120651 -0.13480525 -0.7210819 0.46072796
0003c0 77 b9 41 be f0 e8 5c 3e bb ca 0b be 49 01 ac be
       -0.18918405 0.21573234 -0.13651554 -0.3359473
0003d0 3a 25 74 be 95 b0 55 bf cc 78 b6 bd 29 c8 61 bf
       -0.23842326 -0.8347257 -0.08909759 -0.88196045
0003e0 8e 9f a0 bd 46 72 78 be 4c 2c 08 bf ea 3f 4b be
       -0.07842933 -0.24262342 -0.5319259 -0.198486
0003f0 71 3d 97 3c 2d 34 cf be 11 e2 1f 3f 74 ed b7 3d
       0.018461915 -0.40469494 0.62454325 0.089808375
