trained_model/02_Ant/TD3_Ours_critic.pth (torch, 606834 bytes, 10 tensors)

q1_fc1.weight f4 [256, 35]
-0.76852274 -3.0310032 0.58453363 2.5450618 -0.7006588 -0.10982417 0.33737186 -0.53639257
-0.050260887 0.51512676 -0.6942338 0.9608903 0.46787438 -0.3450381 0.005018997 -0.40539882
-0.4553887 0.031727195 0.16597684 0.047232952 0.025286712 -0.04559554 0.014369142 0.07528456
-0.09423925 0.03578887 0.017536685 -0.098229885 -0.06046041 0.19770291 0.15170436 -0.31717828
-0.041846737 0.14292428 -0.36599097 0.26006973 -0.08035824 2.511043 -1.5359958 -0.8215498
0.33409736 0.5771102 -1.4576325 0.2550001 -0.056866486 -0.011065479 0.24341124 -0.4428462
-0.13746701 -0.05460026 0.5535884 -0.101071425 -0.42452472 -0.1568996 -0.046786238 0.022768566
-0.17827299 -0.08778589 0.07459789 0.045946516 0.09002773 -0.05677916 0.1790274 0.035480876
0.028867291 0.19275527 -0.43858692 -0.15925166 0.21300483 0.23418766 -0.6046906 0.21013089
-0.10628531 -1.2062706 0.67971706 0.63005114 -0.51746446 2.0638645 0.1886065 0.111063324
0.62615734 -0.33283824 -0.8006042 0.48079002 -0.20495382 -0.2193743 -0.13032402 -0.73715836
-0.30033225 0.18947606 -0.30165932 -0.13537033 -0.3348212 0.013345116 -0.05256666 -0.043588776
0.02378713 0.1602178 0.388293 0.6021292 -1.2378153 -0.10004058 -1.3610457 0.43943486
0.88036805 -0.27762777 -0.7475422 -3.713076 1.116555 -0.5675668 0.67252463 -0.44187152
-0.92788666 0.10895527 0.18230505 0.14040227 0.17062439 -0.97296226 0.43342635 -0.5760138
0.029676633 -0.5228974 0.2191245 -0.34998503 0.07414373 -0.027803212 -0.11596192 0.04564796
0.052237336 0.028878832 -0.055550676 -0.17362979 -0.025841065 -0.16494122 0.39129433 -0.07394109
-0.16362609 0.16419654 0.005334776 -0.031706598 1.3138138 0.569984 0.07705025 0.0995249
0.75411284 0.49214906 -0.11562884 -1.0491766 -0.69006073 -0.61092454 0.38139936 -0.7446129
-1.0729172 -0.052380264 -0.23769544 0.15849008 0.04628261 0.08044601 0.07566074 -0.06146305
0.012078502 0.051032003 0.031851694 0.14541076 -0.0679216 -0.05309191 -0.12710783 -0.5224841
-0.49592313 -0.25729203 0.30164576 0.06331991 0.052433584 0.050648097 0.038028177 1.1640868
0.3787763 2.4378173 1.6680771 0.14376573 0.40287006 -0.8241806 -0.787773 0.6793142
0.1622371 0.006959304 0.6092339 0.6614943 0.28879094 0.29639682 -0.34118837 -0.017553579
0.08721462 0.2641532 0.09711047 0.097116895 -0.015583335 -0.057224497 -0.043314435 0.021436075
0.064479336 0.10088342 -0.014842482 0.21307209 0.33883974 0.6555239 -0.26874197 -0.3134772
-0.08173281 -0.049956262 0.40561044 0.028859882 0.2042411 -1.0194894 -1.4047492 1.446478
-0.3027764 0.58760655 0.43111816 0.21814893 0.47186917 -0.4543986 0.15401974 -0.18985966
-0.45448762 0.654983 -0.4513195 -0.3217923 -0.20031221 -0.06010102 -0.026360175 -0.15572166
-0.034490343 -0.11839586 0.09592916 -0.113618836 -0.23092198 0.26036498 -0.68455094 0.021817481
-0.7795519 -0.51711977 -0.20491414 -0.6248288 0.59396154 0.6370057 0.5085959 -0.61746657
0.8214654 -0.6119481 0.3803125 0.089904405 -0.5177863 0.14058906 -0.4341672 0.68323016
00000000: e8bd 44bf f5fb 41c0 ffa3 153f 4be2 2240
00000010: 605e 33bf 7feb e0bd 01bc ac3e 0651 09bf
00000020: 5cde 4dbd 59df 033f 4eb9 31bf e8fc 753f
00000030: 3b8d ef3e d5a8 b0be 6676 a43b 6f90 cfbe
00000040: b528 e9be 60f4 013d d5f5 293e 5777 413d
00000050: 1426 cf3c 64c2 3abd 8d6c 6b3c cb2e 9a3d
00000060: 8200 c1bd 5a97 123d 18a9 8f3c c02c c9bd
00000070: 56a5 77bd a272 4a3e 6358 1b3e 3165 a2be
00000080: 7c67 2bbd be5a 123e 2b63 bbbe dc27 853e
00000090: dc92 a4bd eeb4 2040 839b c4bf 1651 52bf
000000a0: cf0e ab3e 7ebd 133f b493 babf 608f 823e
000000b0: d5ec 68bd fc4b 35bc cc40 793e bdbc e2be
000000c0: 27c4 0cbe 86a4 5fbd f8b7 0d3f 89fe cebd
000000d0: 4e5b d9be 4aaa 20be eda2 3fbd 2585 ba3c
000000e0: 328d 36be 17c9 b3bd c7c6 983d 6a32 3c3d
000000f0: 7560 b83d 4491 68bd f552 373e 6554 113d
00000100: 197b ec3c a361 453e 778e e0be de12 23be
00000110: f01d 5a3e e4ce 6f3e 01cd 1abf 8d2c 573e
00000120: 1dac d9bd 1367 9abf f001 2e3f 084b 213f
00000130: 8d78 04bf 5b16 0440 1022 413e 2b75 e33d
00000140: d94b 203f c669 aabe 66f4 4cbf 1c2a f63e
00000150: 6adf 51be a8a3 60be a973 05be 69b6 3cbf
00000160: 26c5 99be 0306 423e 1773 9abe 859e 0abe
00000170: af6d abbe 79a5 5a3c 2350 57bd 258a 32bd
00000180: 3add c23c 2310 243e 57ce c63e 2425 1a3f
00000190: bb70 9ebf 13e2 ccbd bf36 aebf 9bfd e03e
000001a0: cd5f 613f 3a25 8ebe ed5e 3fbf 0aa3 6dc0
000001b0: 46eb 8e3f 0f4c 11bf 932a 2c3f fc3c e2be
000001c0: fb89 6dbf f123 df3d 2dae 3a3e 9dc5 0f3e
000001d0: 29b8 2e3e 0e14 79bf 0fea dd3e a475 13bf
000001e0: 691c f33c 9bdc 05bf 2c62 603e 3d31 b3be
000001f0: abd8 973d 90c3 e3bc 717d edbd 5bf9 3a3d
00000200: d1f6 553d 4d93 ec3c 1b89 63bd 02cc 31be
00000210: a4b0 d3bc 5ae6 28be bb57 c83e 6d6e 97bd
00000220: 998d 27be 2323 283e 58cf ae3b c7de 01bd
00000230: 0d2b a83f 79ea 113f 85cc 9d3d b6d3 cb3d
00000240: 8a0d 413f f6fa fb3e d0ce ecbd 6b4b 86bf
00000250: d2a7 30bf 8d65 1cbf c746 c33e f39e 3ebf
00000260: 5a55 89bf b08c 56bd 6f66 73be 394b 223e
00000270: d692 3d3d e1c0 a43d 05f4 9a3d aec0 7bbd
00000280: e9e4 453c ef06 513d ec76 023d 8fe6 143e
00000290: 7b1a 8bbd e776 59bd 8e28 02be 85c1 05bf
000002a0: a3e9 fdbe c8bb 83be 5071 9a3e dead 813d
000002b0: 99c4 563d 6174 4f3d 6fc3 1b3d cc00 953f
000002c0: f8ee c13e 3305 1c40 8d83 d53f 5337 133e
000002d0: fc44 ce3e 80fd 52bf 7eab 49bf 89e7 2d3f
000002e0: 7b21 263e e00a e43b c1f6 1b3f b157 293f
000002f0: 68dc 933e 53c1 973e 3eb0 aebe 86cc 8fbc
00000300: 949d b23d 173f 873e dbe1 c63d 39e5 c63d
00000310: 3f51 7fbc 3c64 6abd 7a6a 31bd b59a af3c
00000320: be0d 843d f79b ce3d e22d 73bc 922f 5a3e
00000330: 677c ad3e 6ad0 273f 8c98 89be 1580 a0be
00000340: 8863 a7bd f09e 4cbd 2cac cf3e 8f6b ec3c
00000350: 9424 513e a17e 82bf d2ce b3bf 3126 b93f
00000360: 8205 9bbe 626d 163f 85bb dc3e 6f62 5f3e
00000370: d698 f13e efa6 e8be 5ab7 1d3e 926a 42be
00000380: 9ab2 e8be f7ac 273f 5913 e7be f6c1 a4be
00000390: a51e 4dbe 7d2c 76bd 4bf1 d7bc 8075 1fbe
000003a0: bf45 0dbd 8779 f2bd 8276 c43d feb0 e8bd
000003b0: d076 6cbe 8f4e 853e bb3e 2fbf 93ba b23c
000003c0: b790 47bf f661 04bf 03d5 51be c8f4 1fbf
000003d0: dd0d 183f ce12 233f 5733 023f 4a12 1ebf
000003e0: 8e4b 523f a1a8 1cbf 52b8 c23e cd1f b83d
000003f0: a58d 04bf 94f6 0f3e 2a4b debe 2ce8 2e3f

q1_fc1.bias f4 [256]
0.54243994 -0.4320905 -0.2347824 -0.04661487 -0.46616274 -0.7757775 -0.7029827 -0.85186964
-0.44829002 0.44922757 -0.075486585 -0.17086178 -0.97440463 0.23336563 0.69675726 -0.9594033
-0.53526 -0.04959665 -0.098272696 0.41927588 -0.36008835 -0.4135351 -1.0039068 -0.098123945
-0.8468169 -0.12587462 -0.5059847 0.86358786 0.08456845 -0.20464556 -0.48653707 0.53069794
-1.3154644 -0.4915144 -0.29569668 -0.2006367 -0.3327811 0.3865608 -0.2638279 -0.43583778
-0.75684774 -0.79713595 0.16329016 -0.077232346 -0.6893711 -0.41253012 -0.89789975 -1.172116
-0.69244117 0.94730204 -1.3154532 0.6750089 -0.69344366 -0.1508112 0.5813528 0.17144209
0.18361825 -1.1269766 -0.9569626 -0.63300246 -0.57842773 -0.91326886 0.402515 -0.55761075
-0.8230627 -1.0025966 -0.5042881 -0.09346445 0.7429921 -0.1696404 -0.5366947 0.36615914
-0.06358114 0.43032086 0.3915307 -0.83633125 -0.5485983 0.23707673 -0.2527093 -1.2857937
-0.50341374 0.55311304 -0.20081437 0.0058055413 0.5935677 -0.35537744 -0.6953159 0.75243497
-0.38725522 -0.88981164 -0.8279554 0.13267142 0.22481681 -0.48079884 -0.60265344 0.11301049
0.9080573 0.11153304 -1.234045 -0.07580761 -0.36529192 -0.030739006 0.7528628 -0.33544773
-0.74271184 -1.0792073 -1.2742393 -0.5302121 -0.23678146 0.5369609 0.6562338 -1.2032487
-0.2968188 -1.1478634 -0.18070625 0.41079733 0.8118761 -0.72164524 -0.48882553 0.36624628
-1.2152807 -0.087732665 -0.97048485 -0.73896974 -0.0048970794 -0.22125198 -0.20931685 -0.6622933
-0.79989153 -0.19108027 -0.77470684 -0.7602556 -1.0675222 1.2911671 -0.43310395 -0.870878
-1.1476173 0.34189397 1.3190368 -0.1856193 -0.8809922 -0.039645314 -0.8738631 -0.19610487
0.2519238 1.7219372 0.42503634 -0.07531403 -0.047439016 0.070009016 -0.50888455 0.005412927
-0.6583446 -1.0927984 -1.5400919 -0.31922144 0.5698113 -0.06421799 0.72454 -0.5875609
-0.29141876 -0.08939382 -0.4898703 -0.9294999 -0.62281466 -0.67850864 -0.12520619 -0.9215733
1.0445298 -0.57119435 0.21630336 -0.636663 0.49479452 -0.2487903 -0.6010732 -0.120698206
0.30821458 -0.6602742 -0.22767247 -0.7364696 0.35235393 -0.2673142 -0.15765628 -0.57574373
0.012116474 -1.0831178 -0.6107436 1.0244943 -1.2854152 -1.3553505 -0.13638222 0.14476787
0.32415146 -0.54499876 -0.03173344 -0.6583123 0.36023235 -0.17888139 0.40193817 -0.6327065
-0.41647214 -0.17519419 0.0773224 0.68095315 -0.63441116 -0.78901374 0.59588516 -0.1184898
0.8527423 -0.35233808 0.4776455 0.17112438 -0.5991277 -0.6283608 -0.61140764 0.3177465
-0.29424563 -0.24308258 0.10412378 0.2345033 -0.74793726 -0.30328056 -0.38790974 0.6046445
-0.13237931 -0.51907825 -0.3095264 -0.6666222 -0.57237387 0.51500064 -0.8651992 -0.35733652
-0.39436117 -0.4482644 -0.9946148 -0.9246796 -1.0850997 -0.58517295 0.20596562 0.10640382
0.6309084 -0.45432684 -0.015536166 -0.50087875 -0.037689995 -0.48665822 -0.2349093 0.009057947
-0.43588477 -0.15178317 -0.5751597 -0.49181733 0.6866517 -0.34992436 -1.2758242 -0.17104259
00000000: 58dd 0a3f f73a ddbe cc6a 70be 3cef 3ebd
00000010: e2ac eebe 5b99 46bf adf6 33bf 2114 5abf
00000020: 4586 e5be 2801 e63e b698 9abd 64f6 2ebe
00000030: 9572 79bf 66f7 6e3e af5e 323f 749b 75bf
00000040: cd06 09bf db25 4bbd 3243 c9bd 54ab d63e
00000050: 805d b8be dfba d3be 0580 80bf 35f5 c8bd
00000060: fec8 58bf 47e5 00be 3788 01bf 1814 5d3f
00000070: 3932 ad3d 9b8e 51be 631b f9be d2db 073f
00000080: 2361 a8bf c7a7 fbbe 8e65 97be b573 4dbe
00000090: 4962 aabe 4ceb c53e 7314 87be 2126 dfbe
000000a0: c6c0 41bf 1a11 4cbf 8935 273e fe2b 9ebd
000000b0: a07a 30bf 2637 d3be c2dc 65bf e607 96bf
000000c0: d343 31bf 6382 723f c560 a8bf 62cd 2c3f
000000d0: 8685 31bf 406e 1abe 89d3 143f 848e 2f3e
000000e0: 6c06 3c3e c540 90bf 80fb 74bf 730c 22bf
000000f0: d713 14bf fdcb 69bf 7216 ce3e 94bf 0ebf
00000100: 3db4 52bf 1655 80bf 0619 01bf 4a6a bfbd
00000110: bb34 3e3f 37b6 2dbe d364 09bf 3679 bb3e
00000120: d436 82bd 0453 dc3e b676 c83e ce19 56bf
00000130: f070 0cbf 3ec4 723e 1d63 81be e394 a4bf
00000140: b9df 00bf d198 0d3f 48a2 4dbe 693c be3b
00000150: 0ef4 173f 08f4 b5be 3900 32bf 949f 403f
00000160: 5146 c6be b2ca 63bf e3f4 53bf 04db 073e
00000170: 6136 663e 442b f6be 7f47 1abf 0b72 e73d
00000180: 7176 683f 6f6b e43d 30f5 9dbf 0541 9bbd
00000190: 8b07 bbbe 5ed0 fbbc 9ebb 403f cebf abbe
000001a0: 5d22 3ebf 7723 8abf 461a a3bf fbbb 07bf
000001b0: d776 72be 4576 093f f0fe 273f 0e04 9abf
000001c0: a2f8 97be 30ed 92bf 0f0b 39be 0754 d23e
000001d0: 1dd7 4f3f bebd 38bf 5747 fabe a284 bb3e
000001e0: 518e 9bbf 2fad b3bd b271 78bf 1f2d 3dbf
000001f0: ae77 a0bb e18f 62be 2857 56be 0e8c 29bf
00000200: b1c5 4cbf 8caa 43be 3053 46bf 1ca0 42bf
00000210: 91a4 88bf f744 a53f cdbf ddbe dcf1 5ebf
00000220: 20e5 92bf ba0c af3e 33d6 a83f fc12 3ebe
00000230: b488 61bf 2063 22bd 7eb5 5fbf b7cf 48be
00000240: 28fc 803e 7068 dc3f 5d9e d93e 3e3e 9abd
00000250: 6a4f 42bd e360 8f3d 4246 02bf ec5e b13b
00000260: 4689 28bf d1e0 8bbf bb21 c5bf fe70 a3be
00000270: 27df 113f b984 83bd 747b 393f 646a 16bf
00000280: d734 95be 1b14 b7bd 48d0 fabe b5f3 6dbf
00000290: c870 1fbf beb2 2dbf 0d36 00be 3aec 6bbf
000002a0: 27b3 853f cb39 12bf a17e 5d3e 59fc 22bf
000002b0: b555 fd3e e2c2 7ebe efdf 19bf 9f30 f7bd
000002c0: 4dce 9d3e bb07 29bf f922 69be 4689 3cbf
000002d0: bc67 b43e 68dd 88be a670 21be f163 13bf
000002e0: 2d84 463c 9ba3 8abf b159 1cbf a122 833f
000002f0: 7c88 a4bf 207c adbf c8a7 0bbe 073e 143e
00000300: 2ef7 a53e 0a85 0bbf ecfa 01bd 2887 28bf
00000310: 6070 b83e af2c 37be d7ca cd3e 0ef9 21bf
00000320: d63b d5be 1b66 33be 355b 9e3d f252 2e3f
00000330: c568 22bf cefc 49bf ee8b 183f c8aa f2bd
00000340: 524d 5a3f a865 b4be f38d f43e 3b3b 2f3e
00000350: 6f60 19bf 41dc 20bf 3685 1cbf abaf a23e
00000360: 5da7 96be a4ea 78be d93e d53d a221 703e
00000370: d178 3fbf 9747 9bbe 1b9c c6be fbc9 1a3f
00000380: 718e 07be 50e2 04bf 3f7a 9ebe c1a7 2abf
00000390: 1887 12bf 15d7 033f b27d 5dbf d0f4 b6be
000003a0: b5e9 c9be e982 e5be 139f 7ebf cdb7 6cbf
000003b0: 8ce4 8abf e5cd 15bf a7e8 523e 3fea d93d
000003c0: 3783 213f 879d e8be 678b 7ebc 9739 00bf
000003d0: d360 1abd 442b f9be 108c 70be c967 143c
000003e0: 4a2c dfbe 0c6d 1bbe ab3d 13bf 7bcf fbbe
000003f0: 68c8 2f3f 4929 b3be 354e a3bf ca25 2fbe

q1_fc2.weight f4 [256, 256]
-0.91167295 0.009526498 0.5094297 0.14508708 0.3370446 0.12630782 -1.053284 0.2506735
0.5136868 -0.03779697 0.16601917 -0.21389657 0.24112472 -0.5803672 -0.12257128 -0.4789304
-0.03150089 0.25197774 0.30828467 0.24335046 0.077418335 -0.19799218 0.008666886 -0.21842903
0.7921669 -0.005929647 0.30767262 -0.45670757 0.13952744 0.3337602 0.4087186 0.32637697
-0.12093702 0.3756074 0.5868324 -0.1823378 0.35924053 -0.2757359 0.11593308 0.2723216
0.3285673 0.17562689 -0.4319575 -0.1254908 0.0954963 -0.052369095 -0.038136452 -0.33440462
-0.12149771 -0.5324823 0.13904984 -0.47858128 0.13339601 0.6967396 0.056667246 -0.34667653
-0.5484308 -0.07164068 -0.045784634 -0.17103915 -0.20564753 -0.41801712 0.07051739 0.35602456
-0.34139207 -0.061219506 0.20459118 -0.49069777 -0.8358718 0.32609257 -0.29449528 -0.99951774
-0.5938824 -0.004071205 0.5594389 -0.018768378 0.02815397 -0.6584497 0.74095404 0.028581765
0.59895396 0.09351136 0.39395186 0.14551994 0.0020934413 -0.47557777 0.11752313 -0.22499399
0.41210827 0.18174265 0.31821346 -0.29553384 0.070376374 -0.50191 0.7028145 0.4830366
0.239047 -2.2160637 0.28228706 0.076378755 -0.44874987 -1.4709557 -0.5297777 -0.28652298
-0.45915943 -0.87099844 0.42788252 -0.51293194 -0.2868896 -0.43996692 -0.51366293 -0.5160158
-0.5482853 0.88694376 -0.3838721 -0.007483911 0.012680272 -0.027089713 0.1999746 -0.2717536
0.94078475 -0.333382 0.027592072 0.41372228 -0.100126706 -0.018499257 -0.3787614 0.14846282
0.22187306 -0.52261436 -0.2388581 0.2595322 0.3806853 -0.06738643 -0.11658017 0.39419383
0.47360277 -1.1459751 -0.29588264 -0.19023469 0.62087494 0.1628657 -0.14949745 -0.527034
-0.05238406 -1.0643234 0.43042502 -0.29741478 -0.18865967 0.14170511 -0.13907766 -0.2550905
0.30508643 0.15529475 0.43542236 -0.36757097 0.12287892 -1.0269797 0.12675962 0.10147599
0.38297844 -0.10518826 0.41151828 -0.4100985 0.35792094 -0.33043557 -0.39348608 0.5394566
0.042096287 -0.124256395 0.2615608 -0.14689843 -0.04251677 -1.4065853 0.0053256764 -0.18074133
0.6408738 0.16935806 0.34097713 0.12275685 -0.19292895 -0.1276369 0.62362856 -0.61812925
-0.0010626324 0.040185478 -0.3940876 -0.57277095 0.0078744525 -0.13654588 -0.2741792 -0.08564031
-0.30961743 0.4103406 -0.2467184 0.017502645 -0.12317699 0.32163826 0.23358904 -0.010658195
-0.56621146 -0.017133074 -0.3505939 0.114086464 -0.26935372 0.39494783 -0.0989774 0.40270847
-0.66949254 -0.16007148 -0.057698365 0.3390555 -0.35711578 -0.39963245 0.155712 -0.4317039
-0.27690688 -0.6043778 -0.01213497 0.120711915 -0.1506368 -0.39361012 -0.27117214 -0.5628908
-0.30575368 0.1246136 0.18306619 0.2251436 0.09664819 -0.2070052 0.54188174 -0.33623192
-0.11687154 0.46937963 -0.33029294 -0.039619986 0.14804535 0.44733799 0.035528883 0.24080187
-0.49784514 0.21178697 -0.26714665 0.47815362 0.15469557 0.60683316 0.012027004 0.50245786
-0.2851169 0.5947888 0.34418932 0.22019795 0.022995738 0.45691776 0.32142937 0.099157214
00000000: 6663 69bf 0715 1c3c fc69 023f b591 143e
00000010: 1c91 ac3e d656 013e 03d2 86bf 4758 803e
00000020: fa80 033f ffd0 1abd ee00 2a3e b407 5bbe
00000030: 66e9 763e f292 14bf a706 fbbd 5e36 f5be
00000040: 1407 01bd 3a03 813e 7dd7 9d3e dd30 793e
00000050: 818d 9e3d 76be 4abe 8eff 0d3c dcab 5fbe
00000060: 73cb 4a3f 7c4d c2bb 4487 9d3e 93d5 e9be
00000070: 48e0 0e3e 9ee2 aa3e 9043 d13e e21a a73e
00000080: d4ad f7bd 9d4f c03e a63a 163f c3b6 3abe
00000090: 60ee b73e 422d 8dbe 536e ed3d bd6d 8b3e
000000a0: f939 a83e 89d7 333e 8929 ddbe a980 00be
000000b0: 9093 c33d fa80 56bd f834 1cbd 1537 abbe
000000c0: cbd3 f8bd c350 08bf 1563 0e3e 9b08 f5be
000000d0: f798 083e 875d 323f ea1b 683d 967f b1be
000000e0: f665 0cbf 59b8 92bd ab88 3bbd e324 2fbe
000000f0: 4495 52be 5706 d6be 6c6b 903d da48 b63e
00000100: f1ca aebe 4ec1 7abd 5a80 513e bd3c fbbe
00000110: b2fb 55bf 9bf5 a63e 16c8 96be 65e0 7fbf
00000120: ad08 18bf be67 85bb 6337 0f3f 24c0 99bc
00000130: 28a3 e63c 2990 28bf 2aaf 3d3f 4e24 ea3c
00000140: 0c55 193f e282 bf3d 0fb4 c93e 2e03 153e
00000150: 1e32 093b ee7e f3be f7af f03d d364 66be
00000160: dbff d23e bf1a 3a3e e0ec a23e 3650 97be
00000170: 7d21 903d 2c7d 00bf a7eb 333f 9350 f73e
00000180: bdc8 743e fdd3 0dc0 ee87 903e 776c 9c3d
00000190: 8bc2 e5be 4748 bcbf 839f 07bf 24b3 92be
000001a0: f216 ebbe c1f9 5ebf 6b13 db3e 824f 03bf
000001b0: 32e3 92be 5843 e1be 6a7f 03bf 9d19 04bf
000001c0: 6d5c 0cbf bf0e 633f e28a c4be 983b f5bb
000001d0: eac0 4f3c 3feb ddbc 24c6 4c3e 4a23 8bbe
000001e0: 45d7 703f 0cb1 aabe c508 e23c 68d3 d33e
000001f0: 3b0f cdbd c18b 97bc 04ed c1be a306 183e
00000200: b132 633e 0eca 05bf 3897 74be 68e1 843e
00000210: 2fe9 c23e e601 8abd 96c1 eebd c6d3 c93e
00000220: 107c f23e 50af 92bf ee7d 97be e2cc 42be
00000230: a9f1 1e3f 44c6 263e dc15 19be b3eb 06bf
00000240: ab90 56bd c03b 88bf ab60 dc3e c046 98be
00000250: 0030 41be 251b 113e 606a 0ebe 399b 82be
00000260: 4a34 9c3e 9605 1f3e aeef de3e 4332 bcbe
00000270: f1a7 fb3d 1274 83bf 46cd 013e a5d2 cf3d
00000280: c015 c43e f16c d7bd 86b2 d23e 6ef8 d1be
00000290: 6a41 b73e da2e a9be 0277 c9be d419 0a3f
000002a0: 286d 2c3d 237a febd 4ceb 853e 8b6c 16be
000002b0: 1126 2ebd fd0a b4bf 0383 ae3b 4114 39be
000002c0: 4e10 243f 336c 2d3e 8e94 ae3e f267 fb3d
000002d0: 2b8f 45be 3fb3 02be 1fa6 1f3f b83d 1ebf
000002e0: 0748 8bba 8799 243d dac5 c9be 1ea1 12bf
000002f0: d903 013c afd2 0bbe 3761 8cbe 3064 afbd
00000300: 2d86 9ebe 2a18 d23e c0a3 7cbe b561 8f3c
00000310: 3844 fcbd c5ad a43e f731 6f3e b69f 2ebc
00000320: 3cf3 10bf a95a 8cbc 0b81 b3be 2aa6 e93d
00000330: bbe8 89be 9a36 ca3e aab4 cabd ce2f ce3e
00000340: dd63 2bbf c7e9 23be 1f55 6cbd af98 ad3e
00000350: e1d7 b6be a09c ccbe f772 1f3e 4b08 ddbe
00000360: bdc6 8dbe 81b8 1abf c1d1 46bc cf37 f73d
00000370: 8940 1abe 4487 c9be 13d7 8abe 9d19 10bf
00000380: bf8b 9cbe 6a35 ff3d b475 3b3e 0b8c 663e
00000390: 7cef c53d 2cf9 53be c3b8 0a3f 9726 acbe
000003a0: 595a efbd 8752 f03e 281c a9be 9148 22bd
000003b0: 3399 173e 7c09 e53e bc86 113d c494 763e
000003c0: 8fe5 febe afde 583e 72c7 88be 8dd0 f43e
000003d0: 8468 1e3e 6b59 1b3f e90c 453c 14a1 003f
000003e0: d8fa 91be 1444 183f 9539 b03e 927b 613e
000003f0: 8f61 bc3c 20f1 e93e 6492 a43e f012 cb3d

q1_fc2.bias f4 [256]
0.3197586 0.6699135 -0.61028117 -0.4721868 -0.4837721 0.765115 1.0012182 -0.87096745
-0.6739925 -0.595868 -0.6515422 0.36404198 -0.6939628 -0.99139684 -0.9883747 0.8564033
-0.91777486 1.2062225 0.7306744 -0.87819 0.75916946 -0.6658734 0.8419001 0.38049537
0.88768226 -0.84301543 -0.7966222 0.60069364 -0.7774478 0.5828696 -0.7187946 0.8984158
-0.8126818 -0.6035915 0.5437813 -0.34016272 0.9433469 0.21136773 -0.49114278 0.27470753
0.81212205 -0.7387421 -0.9885013 1.2734152 -0.4482673 0.92859834 0.45929587 0.27596465
0.49513867 -0.42835757 0.8745725 0.6716357 -0.88150287 0.9522753 0.5821658 -0.6711369
-0.37981522 -0.49960822 -0.7497538 -0.6510409 0.50659144 0.96563345 -1.0211645 0.6565341
-0.7625073 0.6550255 0.64033616 -0.80174035 -0.9620341 -0.8625086 1.2418028 -1.1308926
0.87251955 0.68842024 0.3528997 -0.13433449 0.79885024 0.38655168 -0.69613284 -0.8462152
-0.74738145 1.0290699 -0.912135 -0.8049715 0.5683457 -0.62793785 -0.5820003 -0.8552543
-0.41513595 0.50152785 0.70366853 -0.82303995 0.54621387 0.64449036 -0.766219 1.0204659
0.71878576 -0.6868476 -0.54421943 -0.97650707 -0.8038344 -0.63802546 -0.74947226 1.2680595
0.5181297 -0.648539 0.500571 1.080852 0.5414347 0.9289376 0.2462125 0.25278094
-0.8872454 1.1691003 -0.7660792 -0.6127359 0.56528455 0.69808567 1.1028063 -0.3190538
1.197635 0.77613336 0.67953444 -0.35978055 0.9589501 -0.99492955 1.103041 -0.91640353
-0.86523443 -0.6663797 0.94357365 0.7019096 0.46674454 0.949208 0.5962934 -0.87460965
-0.66541344 0.7741617 -0.0019509644 0.87684876 0.93241554 0.8166005 1.0817506 -0.58709645
-0.7662537 -0.7342632 -0.9041862 1.1120077 -0.5981638 0.5221573 1.1243852 0.5651785
-0.90250045 -0.75219357 -0.71846634 -0.7373808 -0.4987041 -0.6601861 -0.33361763 -0.28899556
-0.5124341 -0.7415339 -0.7427898 0.8569671 -0.9995792 1.1613232 0.58686084 -0.91853184
-0.54271513 0.32115793 1.0934112 0.5695223 0.6517719 -0.56186527 -0.78998405 -0.8921574
0.5339646 -0.6865762 0.68094575 -1.0440265 0.6840399 -0.7118352 -0.5841579 0.8232636
0.46073258 -0.8661888 -0.3559019 0.7674949 0.6146333 -0.6095941 1.0626845 1.2543294
-0.82997286 -0.776251 -0.4500611 0.6095747 -0.6905147 0.6327021 0.4529092 -0.8587413
0.5128461 -0.24181737 1.1096716 -0.6816907 -0.45221803 -0.29087064 1.0824763 -0.73497015
-0.72740835 0.9082727 -0.5736341 0.3869806 0.6960016 0.62283117 0.9870933 -0.81466246
-0.64962184 0.900203 -0.8214797 1.0684618 -0.08215608 1.0009433 0.9278692 -0.59108126
-0.5919475 -0.5665497 0.74992734 1.2918282 -0.57774794 -0.79370195 -0.59800184 -0.9037237
-0.8411572 -0.8784929 -0.75554216 -0.68165934 -0.7179749 0.9337802 0.5513089 1.1298314
1.084799 -0.9210954 0.38677487 0.9216096 0.682687 -0.46326542 -0.3455009 -0.7310546
0.14486083 -0.50337774 0.9045862 0.9966239 -0.8656634 0.73824024 0.53179914 -0.4077532
00000000: 66b7 a33e 737f 2b3f 633b 1cbf 78c2 f1be
00000010: fab0 f7be 94de 433f eb27 803f b9f7 5ebf
00000020: c68a 2cbf ce8a 18bf 78cb 26bf b663 ba3e
00000030: 8ca7 31bf 2fcc 7dbf 2006 7dbf 3f3d 5b3f
00000040: 4bf3 6abf 8065 9a3f 7a0d 3b3f 0fd1 60bf
00000050: ee58 423f ae76 2abf c486 573f 4ad0 c23e
00000060: 253f 633f dccf 57bf 6fef 4bbf 0fc7 193f
00000070: d206 47bf f136 153f ec02 38bf 94fe 653f
00000080: ea0b 50bf f984 1abf 4035 0b3f cf29 aebe
00000090: 2f7f 713f c870 583e 1177 fbbe 77a6 8c3e
000000a0: 3be7 4f3f 341e 3dbf 6c0e 7dbf 45ff a23f
000000b0: 4b83 e5be 9fb8 6d3f d428 eb3e 3d4b 8d3e
000000c0: d182 fd3e af51 dbbe fce3 5f3f 51f0 2b3f
000000d0: 2caa 61bf 50c8 733f d108 153f a1cf 2bbf
000000e0: 2477 c2be a6cc ffbe ddef 3fbf 9eaa 26bf
000000f0: faaf 013f c133 773f 85b5 82bf 9e12 283f
00000100: ae33 43bf c0af 273f 12ed 233f db3e 4dbf
00000110: de47 76bf 5dcd 5cbf 65f3 9e3f 17c1 90bf
00000120: 715d 5f3f 4f3c 303f 45af b43e fb8e 09be
00000130: 7381 4c3f 1aea c53e c335 32bf 8fa1 58bf
00000140: 6454 3fbf 90b8 833f ae81 69bf 9d12 4ebf
00000150: 1b7f 113f 89c0 20bf f9fd 14bf f2f1 5abf
00000160: b38c d4be 2164 003f 9f23 343f bfb2 52bf
00000170: acd4 0b3f 52fd 243f ee26 44bf a09e 823f
00000180: 5802 383f 3fd5 2fbf f751 0bbf 5efc 79bf
00000190: 17c8 4dbf a355 23bf 6add 3fbf c64f a23f
000001a0: 26a4 043f a706 26bf 6c25 003f 5c59 8a3f
000001b0: 779b 0a3f dbce 6d3f 211f 7c3e 816c 813e
000001c0: 8422 63bf 14a5 953f c41d 44bf 43dc 1cbf
000001d0: 7db6 103f beb5 323f c228 8d3f 055b a3be
000001e0: 1b4c 993f adb0 463f f8f5 2d3f 2835 b8be
000001f0: c17d 753f b4b3 7ebf 7330 8d3f 6c99 6abf
00000200: 0180 5dbf dc97 2abf 0b8e 713f 59b0 333f
00000210: 24f9 ee3e 4cff 723f afa6 183f 6be6 5fbf
00000220: 8958 2abf 762f 463f 81b7 ffba 2979 603f
00000230: c9b2 6e3f bb0c 513f ce76 8a3f f44b 16bf
00000240: 3429 44bf acf8 3bbf bf78 67bf 4556 8e3f
00000250: 4321 19bf 1aac 053f dbeb 8f3f 8aaf 103f
00000260: 450a 67bf c28f 40bf 69ed 37bf fdc4 3cbf
00000270: 2556 ffbe f501 29bf eecf aabe 3af7 93be
00000280: e22e 03bf 2ad5 3dbf 7927 3ebf 3262 5b3f
00000290: 6ce4 7fbf 3da6 943f 833c 163f e724 6bbf
000002a0: 61ef 0abf d06e a43e e6f4 8b3f 37cc 113f
000002b0: 86da 263f 67d6 0fbf 653c 4abf 6d64 64bf
000002c0: e7b1 083f 75c3 2fbf 7652 2e3f a9a2 85bf
000002d0: 3d1d 2f3f d53a 36bf 5f8b 15bf 67c1 523f
000002e0: 24e5 eb3e 8dbe 5dbf c638 b6be 8c7a 443f
000002f0: 9c58 1d3f 5c0e 1cbf 0c06 883f de8d a03f
00000300: 1a79 54bf 63b8 46bf 696e e6be 160d 1c3f
00000310: 92c5 30bf c4f8 213f b7e3 e73e 78d6 5bbf
00000320: e249 033f f99e 77be b809 8e3f 4883 2ebf
00000330: 1f89 e7be ffec 94be 958e 8a3f 0127 3cbf
00000340: 6f37 3abf 8f84 683f afd9 12bf 5222 c63e
00000350: 292d 323f dd71 1f3f 26b2 7c3f b88d 50bf
00000360: 9e4d 26bf b473 663f 7e4c 52bf 5bc3 883f
00000370: 7241 a8bd e91e 803f d688 6d3f 1a51 17bf
00000380: df89 17bf 6709 11bf 3dfb 3f3f a05a a53f
00000390: 4ae7 13bf 0d30 4bbf a616 19bf 705a 67bf
000003a0: 1456 57bf e9e4 60bf 366b 41bf 3a81 2ebf
000003b0: 34cd 37bf 380c 6f3f 9422 0d3f 519e 903f
000003c0: b2da 8a3f e8cc 6bbf 5b07 c63e 9bee 6b3f
000003d0: 93c4 2e3f 2031 edbe 7ee5 b0be 6526 3bbf
000003e0: 6656 143e 5ddd 00bf f692 673f be22 7f3f
000003f0: 1e9c 5dbf 50fd 3c3f fd23 083f 07c5 d0be

q1_output.weight f4 [1, 256]
2.8918498 0.5463346 -1.1702825 3.8144782 -0.7038264 0.5465967 0.48922926 -0.68919915
-3.4695923 -1.1492627 -1.0494611 0.957691 -0.70781916 -0.8174152 -1.5658727 0.5147588
-0.55837035 0.34220576 0.39851245 -0.5470057 0.4646923 -6.169106 0.5758202 3.0952733
0.37484217 -0.67333156 -1.1727862 0.55045265 -0.8088996 0.49621767 -0.90709466 0.3882025
-0.8051893 -1.0808408 1.3450673 -4.784541 0.5624684 2.9368808 -2.95447 1.6206118
0.3012042 -1.2236809 -2.7588167 0.6603762 -3.704663 0.36387837 1.9087708 1.3482577
2.4299488 -2.0213041 0.52172077 1.1731861 -0.8880174 0.35050592 0.82064223 -0.9991832
-7.167794 -0.51338047 -2.8376057 -0.67867535 1.009405 0.3778195 -0.7388478 0.48926154
-4.528997 1.3554773 0.82401395 -0.9135923 -1.156699 -0.8282223 0.47524184 -1.314402
0.8696856 1.1896054 2.239466 -7.334632 0.29102245 3.5336113 -1.2341324 -1.0706043
-0.5702393 0.2944216 -1.6665962 -0.7970723 0.7872412 -0.9336363 -5.6468043 -1.2138177
-4.5620313 0.78634125 0.61042583 -1.4708887 0.58824396 0.61898917 -0.78434366 1.0591222
0.47320494 -1.3771878 -0.6496642 -0.76962525 -1.7364163 -0.92134106 -1.0975797 0.48713732
0.53229195 -3.156061 0.5999168 1.2760857 0.7272856 0.44242743 3.8233278 1.2067449
-0.49702302 0.34532848 -0.6142906 -1.7774447 0.46547282 0.7909696 0.18660632 -1.4976588
0.20502977 0.53664523 0.86683655 -5.59901 0.28471437 -2.6138465 0.39407283 -0.844492
-0.86661613 -0.86793643 0.3819551 0.5622126 0.8755529 0.3659569 1.4206713 -1.0888392
-4.544009 0.6379766 4.088423 0.42786568 0.288264 0.5524628 0.18251269 -1.2498881
-0.572914 -0.83836657 -1.0299684 0.16628298 -2.7199488 0.5530779 0.29362056 0.829223
-1.4095446 -0.8133236 -0.8915423 -1.7399468 -1.0999464 -1.1967657 -1.4631197 -8.131735
-3.8133378 -3.2085314 -1.9147512 0.43382153 -1.1616553 0.39284673 1.2692406 -1.0981727
-0.6707847 0.72606283 0.15271576 0.6948306 0.6178307 -5.7711782 -0.9464632 -0.6563193
0.5485016 -0.7245271 0.96038 -0.9388886 0.6169343 -0.5000249 -1.5067883 0.39017057
1.9505229 -0.41462672 -5.1816654 0.40059394 0.6669396 -0.48184776 0.2458086 0.9915881
-0.9581208 -3.4352381 -5.2283835 0.6061351 -1.1145316 0.6285688 2.0828664 -1.691653
0.9000158 2.6602678 0.2300437 -3.1500907 -4.107611 -7.0262704 0.18432532 -1.0336173
-5.780249 0.4061697 -3.046742 1.4418858 0.8081335 0.58361113 0.40145192 -1.2564602
-1.8232147 0.56779766 -1.39199 0.5354612 3.507709 0.1465482 0.37965286 -0.62268883
-5.3912106 -1.3226562 0.5137419 0.8209156 -1.099551 -4.8069744 -2.2042005 -3.9768877
-0.6710848 -1.2730904 -0.6175504 -2.686972 -0.9437362 0.37636968 0.9623744 0.38121846
0.20601675 -1.7059243 0.6083274 0.3006034 0.43442184 -0.8304458 -1.0117316 -0.85346496
3.4653342 -6.2520766 0.5361461 0.15226197 -0.8177862 0.67471635 0.95293725 -6.659312
00000000: 1114 3940 96dc 0b3f d1cb 95bf 6920 7440
00000010: f82d 34bf c3ed 0b3f 427c fa3e 5b6f 30bf
00000020: cd0d 5ec0 0a1b 93bf be54 86bf 3d2b 753f
00000030: a333 35bf 1f42 51bf 846e c8bf 3cc7 033f
00000040: 5cf1 0ebf 9835 af3e d309 cc3e 9108 0cbf
00000050: 26ec ed3e 5169 c5c0 f468 133f f518 4640
00000060: 50eb bf3e 755f 2cbf dc1d 96bf 77ea 0c3f
00000070: 0b14 4fbf 3e10 fe3e 5b37 68bf 7ac2 c63e
00000080: e320 4ebf fe58 8abf 2a2b ac3f f61a 99c0
00000090: eefd 0f3f dbf5 3b40 0916 3dc0 3570 cf3f
000000a0: 7037 9a3e 93a1 9cbf 7490 30c0 6a0e 293f
000000b0: 3319 6dc0 444e ba3e 9a52 f43f b593 ac3f
000000c0: 4884 1b40 0c5d 01c0 7e8f 053f f62a 963f
000000d0: 1c55 63bf 8375 b33e 9c15 523f 78ca 7fbf
000000e0: 925e e5c0 e76c 03bf 559b 35c0 abbd 2dbf
000000f0: 2f34 813f 8f71 c13e 2125 3dbf 7d80 fa3e
00000100: 8bed 90c0 4880 ad3f 94f2 523f 2fe1 69bf
00000110: b60e 94bf 6006 54bf e652 f33e 533e a8bf
00000120: b7a3 5e3f fd44 983f 6953 0f40 4eb5 eac0
00000130: e500 953e b026 6240 0df8 9dbf 9009 89bf
00000140: 34fb 11bf 6ebe 963e 0653 d5bf ee0c 4cbf
00000150: a488 493f ca02 6fbf 9fb2 b4c0 615e 9bbf
00000160: 29fc 91c0 a94d 493f de44 1c3f 1546 bcbf
00000170: 2897 163f 1376 1e3f bfca 48bf 5191 873f
00000180: eb47 f23e b147 b0bf 6550 26bf 2906 45bf
00000190: e442 debf 02dd 6bbf 7e7d 8cbf 106a f93e
000001a0: 4944 083f e7fc 49c0 2694 193f c756 a33f
000001b0: 642f 3a3f d985 e23e 67b1 7440 9e76 9a3f
000001c0: cd79 febe e5ce b03e 2642 1dbf 4f83 e3bf
000001d0: 7452 ee3e fc7c 4a3f ba15 3f3e 49b3 bfbf
000001e0: 53f3 513e 9561 093f 00e9 5d3f 172b b3c0
000001f0: 15c6 913e 4349 27c0 eac3 c93e a130 58bf
00000200: 8eda 5dbf 1531 5ebf 9e8f c33e 2aed 0f3f
00000210: 3c24 603f b45e bb3e 8fd8 b53f 155f 8bbf
00000220: 8668 91c0 6f52 233f 5cd4 8240 3611 db3e
00000230: 5797 933e 346e 0d3f 9be4 3a3e 55fc 9fbf
00000240: 7eaa 12bf 319f 56bf 01d6 83bf 1646 2a3e
00000250: a413 2ec0 8396 0d3f 6f55 963e f547 543f
00000260: f56b b4bf fa35 50bf 1e3c 64bf 94b6 debf
00000270: 0bcb 8cbf 9e2f 99bf 8247 bbbf 961b 02c1
00000280: ba0d 74c0 9458 4dc0 9116 f5bf db1d de3e
00000290: 1fb1 94bf 3523 c93e 7a76 a23f ec90 8cbf
000002a0: 8cb8 2bbf 41df 393f 8561 1c3e 6be0 313f
000002b0: 272a 1e3f 7ead b8c0 6a4b 72bf 8b04 28bf
000002c0: 9a6a 0c3f 9c7a 39bf 77db 753f 015b 70bf
000002d0: 68ef 1d3f a201 00bf 70de c0bf 70c4 c73e
000002e0: bcaa f93f f449 d4be 34d0 a5c0 a61a cd3e
000002f0: 8ebc 2a3f c0b4 f6be 40b5 7b3e b8d8 7d3f
00000300: 6847 75bf f1da 5bc0 eb4e a7c0 ab2b 1b3f
00000310: f9a8 8ebf e3e9 203f af4d 0540 1688 d8bf
00000320: 6f67 663f d441 2a40 9390 6b3e 169b 49c0
00000330: 8d71 83c0 35d7 e0c0 c7bf 3c3e 924d 84bf
00000340: cdf7 b8c0 7af5 cf3e d2fd 42c0 b78f b83f
00000350: d6e1 4e3f 8a67 153f 1b8b cd3e b0d3 a0bf
00000360: 195f e9bf 305b 113f ba2c b2bf fc13 093f
00000370: 4e7e 6040 bb10 163e dc61 c23e 8968 1fbf
00000380: cc84 acc0 cc4c a9bf 9784 033f 8627 523f
00000390: 16be 8cbf bcd2 99c0 9f11 0dc0 5485 7ec0
000003a0: 37cc 2bbf a0f4 a2bf c817 1ebf 59f7 2bc0
000003b0: b298 71bf 87b3 c03e 2b5e 763f 112f c33e
000003c0: 0ef6 523e ba5b dabf 58bb 1b3f b0e8 993e
000003d0: 8a6c de3e 1998 54bf 6c80 81bf ae7c 5abf
000003e0: 09c8 5d40 0311 c8c0 df40 093f 90ea 1b3e
000003f0: 705a 51bf 36ba 2c3f b2f3 733f 1519 d5c0

q2_fc1.weight f4 [256, 35]
1.3227464 0.21866532 0.29389536 0.21936704 -0.46036574 0.5207559 -0.016496751 0.16092543
0.7082612 0.5543311 0.0030687202 -0.17207794 -0.27546978 -0.38241398 0.6073231 0.52818346
-0.43076748 -0.24754472 -0.18596053 -0.046600796 0.07223792 0.092500046 -0.044698168 -0.087617375
-0.038254127 -0.23654848 -0.1479984 -0.6503121 -0.59385943 0.7729615 -0.15242393 0.9090945
0.052363414 -0.16580994 -0.52770454 -0.7771983 0.09353554 -1.732631 0.29479647 -0.28044868
-1.0144575 -0.0042158007 -1.3215444 0.26296124 -0.26438662 -0.12393181 1.0043255 -0.039946567
-0.2225274 -0.54130435 -0.47442406 -0.106534086 0.3807382 0.22238305 0.104524 -0.058360662
0.1089591 0.10125474 0.069128685 0.21407822 0.1029878 0.26463646 0.09887647 0.7682964
-0.23072878 -0.5357283 0.2710818 0.37790582 -0.0578235 1.0363638 1.1127992 -0.2060414
-1.4223764 1.204747 -0.36234984 0.71219885 -0.14804731 -0.2248652 1.0730888 0.2935165
0.014367634 -0.79385686 0.47897446 0.00836519 -0.330869 0.00892191 -0.14023528 0.269834
-0.073589295 -0.000117712276 0.009260303 0.06640261 -0.26109892 0.060923737 -0.18999398 0.06522704
0.14285557 0.45655045 0.69160366 -0.29288042 -0.25184336 0.8142097 -0.80275625 -0.45981562
-0.015964162 2.3743784 0.31782618 -0.64987004 -1.8823241 -0.8849891 -0.20378314 -1.055858
0.005377664 -0.05421683 0.08343867 -0.017563932 0.23696123 -0.6254812 -0.11495463 0.0012884301
0.2178075 0.18758647 -0.09727373 -0.30866063 -0.06985599 -0.07157777 -0.043066125 -0.02863422
-0.10043851 -0.07481459 -0.11678251 -0.013531179 -0.54933304 -0.0616382 0.0064680134 0.15976498
0.21099898 -0.3157807 -0.2761999 -0.10165795 -0.6560855 -0.027522799 1.8776731 -2.871991
-0.27388993 0.95322394 -0.20388766 -0.13266712 -0.058325402 -0.63488466 -0.052366037 0.50067943
-0.14208093 -0.24237701 0.58307374 0.14965706 -0.19197491 0.31455892 -0.27328932 -0.12934381
0.047799613 -0.055121914 -0.031617448 -0.0985751 -0.062074255 -0.0003933661 -0.0030887239 0.1913097
0.12433038 0.0005181886 -0.14319636 0.21538119 -0.08170888 0.10914637 -0.34675595 2.305877
0.12647527 1.3128823 -0.29185346 1.2095237 0.6204253 -0.48084858 -0.006638925 0.5231216
0.05424233 0.2502787 -0.32364935 0.018357296 0.22896677 0.053721406 0.10647687 -0.12426496
0.33089826 -0.09258258 0.09868014 0.048736926 -0.056487285 -0.026063936 -0.0251353 0.058731202
-0.050866023 0.023780128 -0.27887997 0.023410145 0.58906865 -0.04166178 -0.2619397 -0.1774246
0.25845578 0.07862316 -0.9799467 0.22404355 -0.52871925 -0.31539583 -0.6412265 0.1957698
0.17154463 -0.35917318 0.15125969 -0.23985896 -0.011917645 -0.57338357 0.2333751 -0.07977302
0.3964364 -0.19886592 -0.027984386 -0.3252269 -0.47325858 0.007248553 -0.10330005 -0.13893086
0.093556985 -0.21627626 0.048496902 -0.07805503 0.012167632 0.13735826 0.068013795 0.16642785
0.604548 -0.73522115 0.25044024 -0.31334785 0.17106502 -0.18376979 1.3431859 -0.45309597
1.997935 -0.5246809 0.16952406 -0.017000083 0.24307638 -0.040649477 -0.15358847 -0.07910327
00000000: c14f a93f cde9 5f3e 7479 963e c1a1 603e
00000010: 0fb5 ebbe 4250 053f 3224 87bc a3c9 243e
00000020: 9b50 353f a5e8 0d3f 951c 493b 3335 30be
00000030: 600a 8dbe c4cb c3be 8779 1b3f 0837 073f
00000040: 8e8d dcbe 5d7c 7dbe 706c 3ebe 7ae0 3ebd
00000050: 79f1 933d aa70 bd3d 6d15 37bd bd70 b3bd
00000060: 5cb0 1cbd c439 72be e48c 17be db7a 26bf
00000070: 2c07 18bf cee0 453f 0515 1cbe 6bba 683f
00000080: 057b 563d 15ca 29be a517 07bf 78f6 46bf
00000090: 908f bf3d dac6 ddbf 90ef 963e f896 8fbe
000000a0: bed9 81bf b324 8abb 5e28 a9bf dba2 863e
000000b0: af5d 87be f6cf fdbd bd8d 803f 039f 23bd
000000c0: 39de 63be ec92 0abf b6e7 f2be 8b2e dabd
000000d0: 1ef0 c23e 62b8 633e ae10 d63d 970b 6fbd
000000e0: f325 df3d a55e cf3d 5793 8d3d 5237 5b3e
000000f0: 45eb d23d 6e7e 873e bf7f ca3d 13af 443f
00000100: 2a44 6cbe 7d25 09bf 3ccb 8a3e df7c c13e
00000110: 56d8 6cbd 92a7 843f 3470 8e3f 84fc 52be
00000120: 6e10 b6bf 2635 9a3f eb85 b9be aa52 363f
00000130: b799 17be 1043 66be f95a 893f cb47 963e
00000140: 3a66 6b3c 343a 4bbf 243c f53e 260e 093c
00000150: a967 a9be 342d 123c d699 0fbe af27 8a3e
00000160: fcb5 96bd 4cdc f6b8 87b8 173c 17fe 873d
00000170: c2ae 85be 2b8b 793d c88d 42be c195 853d
00000180: bb48 123e fbc0 e93e f00c 313f 6cf4 95be
00000190: 9df1 80be 0c70 503f 6f81 4dbf f46c ebbe
000001a0: 46c7 82bc d1f5 1740 1dba a23e e25d 26bf
000001b0: ffef f0bf a58e 62bf 87ac 50be 5b26 87bf
000001c0: 1e37 b03b 7712 5ebd e5e1 aa3d 3ce2 8fbc
000001d0: f7a5 723e 891f 20bf 556d ebbd 8ae0 a83a
000001e0: ee08 5f3e ab16 403e 7337 c7bd c408 9ebe
000001f0: a810 8fbd 5e97 92bd 1b66 30bd 5092 eabc
00000200: b5b2 cdbd 6438 99bd ab2b efbd e1b1 5dbc
00000210: 17a1 0cbf 5678 7cbd a1f1 d33b 6e99 233e
00000220: 1e10 583e 02ae a1be 136a 8dbe 0b32 d0bd
00000230: 38f5 27bf 7e77 e1bc 9857 f03f b3ce 37c0
00000240: 4d3b 8cbe 7c06 743f edc7 50be e4d9 07be
00000250: 9ee6 6ebd cd87 22bf c57d 56bd 872c 003f
00000260: aa7d 11be ae31 78be 5244 153f b33f 193e
00000270: 1295 44be de0d a13e 94ec 8bbe b472 04be
00000280: 87c9 433d 84c7 61bd 4c81 01bd bee1 c9bd
00000290: 9341 7ebd b43c ceb9 306c 4abb b1e6 433e
000002a0: eda0 fe3d 0cd7 073a 11a2 12be e38c 5c3e
000002b0: fc56 a7bd 2288 df3d ff89 b1be 7d93 1340
000002c0: bc82 013e 870c a83f d16d 95be acd1 9a3f
000002d0: 31d4 1e3f c931 f6be 578b d9bb 4ceb 053f
000002e0: 352d 5e3d 8824 803e 5eb5 a5be 0a62 963c
000002f0: 4476 6a3e fa0a 5c3d 8c10 da3d a17e febd
00000300: 7f6b a93e f09b bdbd d018 ca3d 5fa0 473d
00000310: 365f 67bd 0984 d5bc 8be8 cdbc 2190 703d
00000320: e458 50bd 8bce c23c 5bc9 8ebe a2c6 bf3c
00000330: 34cd 163f 8ba5 2abd f61c 86be cbae 35be
00000340: 5154 843e 2e05 a13d c9dd 7abf ac6b 653e
00000350: 255a 07bf 907b a1be 6b27 24bf e177 483e
00000360: 65a9 2f3e 8ce5 b7be d2e3 1a3e 969d 75be
00000370: 3a42 43bc 44c9 12bf e2f9 6e3e 0a60 a3bd
00000380: b6f9 ca3e 82a3 4bbe 833f e5bc 2484 a6be
00000390: f34e f2be 4585 ed3b fa8e d3bd e443 0ebe
000003a0: ce9a bf3d 8677 5dbe b0a4 463d 51db 9fbd
000003b0: bf5a 473c a5a7 0c3e d14a 8b3d 106c 2a3e
000003c0: a8c3 1a3f 7437 3cbf b439 803e 216f a0be
000003d0: ab2b 2f3e 262e 3cbe 84ed ab3f 32fc e7be
000003e0: 56bc ff3f 7d51 06bf b797 2d3e c243 8bbc
000003f0: 04e9 783e 1180 26bd 4c46 1dbe e500 a2bd

q2_fc1.bias f4 [256]
-0.82509017 -0.7836069 -1.1870139 -0.4103617 0.32485232 -0.7524149 0.12628695 0.63803124
0.78376055 -0.025151337 -0.34751627 -1.0624971 0.24575138 -0.58413494 -0.36276597 -0.68408185
-1.1914467 -0.79141915 -0.8256749 -0.56929034 -0.10389908 -0.66685104 0.4386922 -0.4911069
-0.93416667 0.14673974 0.4029363 0.2918887 0.52636665 0.44252434 -0.71927553 -0.06548655
-0.701922 -0.42691013 -0.35359225 -1.0221909 -0.6347815 -0.46178606 0.42629725 1.0163044
-0.795127 -0.84068274 0.8268642 -0.26488948 -0.973599 -0.096209 -0.23266275 0.2601416
-0.62780493 -0.7828937 -0.0035550373 -0.042990472 0.5499664 -0.756126 -0.51040787 0.11683914
0.36819878 -1.2928894 0.15315972 0.5235345 -0.22444758 -1.0384474 0.54218745 -0.76331514
0.060815934 -0.8601996 -0.82401836 -0.9939488 -0.37498856 -0.4238139 -0.18319598 -0.63057286
-0.17911893 0.88325685 -0.0029097104 0.2654784 0.51360905 0.11687996 -1.4278321 -0.033541698
0.37460104 -0.7955836 -0.68857265 -0.6658499 0.19171202 -0.21423933 -0.68924487 -1.1177919
0.17320532 -0.8140551 -1.1677287 -0.8260631 -0.7735681 0.44002503 0.65219295 -0.53010786
-0.3183424 -0.18146494 -0.011669729 -0.5334158 0.61120766 -0.54938537 -1.0528413 -0.7254527
-0.5053266 0.4690622 -0.02067394 0.27936268 -0.054757923 -0.092969716 0.22893098 -0.30925843
-0.045341093 -1.1874113 -0.74754703 -0.7509413 -0.029464675 -0.26426747 -0.98148537 0.13630094
-1.1932827 0.52358246 0.1321582 0.17048797 -0.21951652 0.6111539 -0.6999566 -0.38943264
0.15498604 -0.27653927 -0.2559266 -0.74754643 0.15339008 -0.3413347 -0.16883428 -0.5900242
-1.000977 -0.31219697 0.55380344 -0.6820068 0.29003537 -0.7646038 -0.30870414 -0.0025924414
-0.39539403 0.24870394 -1.095293 -0.17685881 0.5729029 -1.001617 -0.69424766 -0.731465
-0.55804247 -1.0199862 -0.3763864 0.054220293 1.1276541 -0.016453655 -0.543996 -0.13324971
-0.9192423 -0.33399746 0.57968694 -0.23439302 -0.5657611 0.13080168 -0.09528196 -0.37904146
-0.3214876 0.017141547 -0.28192204 -0.78643554 -0.2473482 -0.75977165 -1.1792637 -0.7592901
0.7420008 0.10264367 -0.3031119 -0.87766457 -0.68082494 0.41851798 -0.8687907 0.023219494
-0.41156298 0.7058423 0.2540111 -0.055519722 -0.4680111 -0.8681163 0.7285017 -0.44886896
0.06443637 0.22329113 1.2156115 -0.30152202 -0.036960963 -1.1230788 0.3868656 -0.47199023
-0.6474372 0.033484105 0.672096 0.3762684 0.34879133 -0.32709205 -0.32681257 0.3347172
-0.7125613 -0.5799898 -0.86254764 -0.94396216 0.083693475 -1.0789009 0.05906449 -1.005259
-0.6978067 -0.2572456 0.1788421 0.47251895 0.24098198 -0.32658315 -0.49271974 0.20079416
0.17834947 -0.12128791 -0.19710428 0.47948766 -0.4227344 0.6422317 -0.502059 0.5517968
-0.5076645 -0.40268376 -0.046789043 0.10376176 -0.100470915 -0.42382148 -0.36882737 0.05930864
0.0017713386 0.22404678 -0.08771688 -0.53025675 0.12012232 -0.7082495 0.22767101 -0.9322556
-0.099276125 -0.4986942 -0.7032416 -0.45667773 -0.8408192 -0.6894178 -0.067474335 0.19030112
00000000: 1c39 53bf 769a 48bf 12f0 97bf ee1a d2be
00000010: 0b53 a63e 439e 40bf 5e51 013e 0456 233f
00000020: 88a4 483f 2d0a cebc a7ed b1be e8ff 87bf
00000030: 40a6 7b3e de89 15bf 76bc b9be fd1f 2fbf
00000040: 5381 98bf 729a 4abf 6e5f 53bf 03bd 11bf
00000050: 0ac9 d4bd c0b6 2abf 449c e03e 5d72 fbbe
00000060: 8c25 6fbf f142 163e ab4d ce3e 7072 953e
00000070: f7bf 063f 8d92 e23e 7122 38bf d01d 86bd
00000080: 29b1 33bf f793 dabe 0b0a b5be 27d7 82bf
00000090: 0a81 22bf 396f ecbe a243 da3e 4316 823f
000000a0: 718d 4bbf fc36 57bf 5fad 533f 989f 87be
000000b0: c93d 79bf 3909 c5bd 253f 6ebe 4831 853e
000000c0: d3b7 20bf b96b 48bf a1fb 68bb c716 30bd
000000d0: 99ca 0c3f 7991 41bf 17aa 02bf 5c49 ef3d
000000e0: 8d84 bc3e 667d a5bf e7d5 1c3e 5b06 063f
000000f0: 96d5 65be d8eb 84bf cccc 0a3f 9f68 43bf
00000100: 211a 793d 0a36 5cbf def2 52bf 6e73 7ebf
00000110: 80fe bfbe 23fe d8be ba97 3bbe 396d 21bf
00000120: f46a 37be 1f1d 623f d7b0 3ebb c9ec 873e
00000130: e27b 033f c35e ef3d 34c3 b6bf 0563 09bd
00000140: b5cb bf3e 5eab 4bbf 4c46 30bf 2475 2abf
00000150: 2850 443e 8e61 5bbe 5a72 30bf ce13 8fbf
00000160: bc5c 313e ea65 50bf 2278 95bf df78 53bf
00000170: 8f08 46bf f64a e13e 1ef6 263f 26b5 07bf
00000180: c6fd a2be f2d1 39be 6432 3fbc f08d 08bf
00000190: 1b78 1c3f 85a4 0cbf 81c3 86bf 45b7 39bf
000001a0: 165d 01bf ec28 f03e 655c a9bc a008 8f3e
000001b0: d849 60bd e866 bebd e26c 6a3e 1f57 9ebe
000001c0: 95b7 39bd 18fd 97bf 3e5f 3fbf b03d 40bf
000001d0: e75f f1bc 114e 87be a042 7bbf 7992 0b3e
000001e0: 7dbd 98bf 8009 063f 7b54 073e 6694 2e3e
000001f0: f0c8 60be 9574 1c3f 5b30 33bf b763 c7be
00000200: a9b4 1e3e 8e96 8dbe d008 83be 345f 3fbf
00000210: 4a12 1d3e 6cc3 aebe e5e2 2cbe d30b 17bf
00000220: 0420 80bf 48d8 9fbe 10c6 0d3f ff97 2ebf
00000230: 847f 943e 13bd 43bf 780e 9ebe f3e5 29bb
00000240: 1671 cabe 3fac 7e3e 9032 8cbf 7a1a 35be
00000250: c4a9 123f fc34 80bf 37ba 31bf 4a41 3bbf
00000260: dfdb 0ebf e88e 82bf b8b5 c0be 1916 5e3d
00000270: f856 903f d1c9 86bc 5243 0bbf 9d72 08be
00000280: 7753 6bbf b701 abbe 5d66 143f b904 70be
00000290: b8d5 10bf e0f0 053e 3023 c3bd b911 c2be
000002a0: 069a a4be 6e6c 8c3c 1658 90be d753 49bf
000002b0: d948 7dbe 6580 42bf 1df2 96bf d660 42bf
000002c0: c4f3 3d3f d836 d23d 7c31 9bbe a0ae 60bf
000002d0: 8b4a 2ebf fd47 d63e 1169 5ebf cf36 be3c
000002e0: 62b8 d2be 15b2 343f be0d 823e a668 63bd
000002f0: 279f efbe df3c 5ebf 167f 3a3f 27d2 e5be
00000300: 37f7 833d 6ea6 643e 2899 9b3f 1861 9abe
00000310: 6164 17bd 0cc1 8fbf 3f13 c63e b4a8 f1be
00000320: 72be 25bf a126 093d 7c0e 2c3f 40a6 c03e
00000330: c794 b23e 9c78 a7be fa53 a7be 0e60 ab3e
00000340: 6b6a 36bf 367a 14bf eccf 5cbf 81a7 71bf
00000350: 7c67 ab3d 6d19 8abf 9bed 713d 54ac 80bf
00000360: 76a3 32bf b2b5 83be 6222 373e 01ee f13e
00000370: fbc3 763e e835 a7be c345 fcbe fc9c 4d3e
00000380: 3ea1 363e cc65 f8bd b4d5 49be 687f f53e
00000390: a570 d8be 4c69 243f f086 00bf 8e42 0d3f
000003a0: 4df6 01bf 912c cebe dea5 3fbd 0c81 d43d
000003b0: b2c3 cdbd 21ff d8be f1d6 bcbe 9eed 723d
000003c0: 432c e83a 856c 653e e8a4 b3bd e8be 07bf
000003d0: b102 f63d d74f 35bf 9722 693e 4ea8 6ebf
000003e0: 4851 cbbd d954 ffbe a407 34bf aad1 e9be
000003f0: ed3f 57bf af7d 30bf fc2f 8abd 4cde 423e

q2_fc2.weight f4 [256, 256]
0.10616419 -0.2739928 0.14188465 -0.5842953 -0.74620616 0.37716705 -0.3170283 -0.02767128
0.12977947 0.43705222 -0.07154853 0.08306687 0.027332276 -0.53231734 -0.3826924 0.62843585
0.19204848 0.08639662 0.05511344 0.07072955 0.25108808 0.046851743 -0.2017535 0.5151218
0.52393574 0.32452682 -0.039928757 -0.46604493 -0.27845603 -0.16386229 -0.8265457 0.4454051
0.06347072 -0.108477555 0.14081371 -0.04523491 -0.293706 -2.5312529 0.012202434 -0.625332
0.28352624 0.42980355 -0.20061305 0.12553784 0.08654778 0.64889246 -0.07178155 -0.70630187
-0.10565539 -0.7574098 0.37797996 0.1970452 0.30829802 -0.0275568 -0.31225646 -0.03761013
0.21546471 -0.1625203 -0.034888297 -0.03089997 0.32486698 0.19629475 0.081794575 0.012570485
-0.5685282 0.30264807 0.018812932 0.3489944 0.09176683 -0.21358894 -0.11336369 -0.12081636
0.12473801 -0.21798553 0.21306513 0.061844334 -0.28790852 0.037140884 0.55590814 -0.10188925
0.07613691 0.24121782 0.46717283 0.35115978 -0.03182393 -0.1884983 0.41985703 0.037888315
-0.72776324 0.09747976 0.11624085 -0.0038155036 0.12619318 0.08704391 0.21194528 -1.3101158
-0.22225927 -0.029771153 -0.14700101 0.03313845 -0.17476013 0.22255667 0.15573086 -0.45924687
0.048961494 -0.046738416 -0.096878275 0.04009659 0.07133354 0.0055334615 -0.06981151 -0.09105766
0.24598719 -0.23416889 0.4630594 -0.5577334 0.41860992 -0.034715604 -0.14840212 0.023659578
0.4442336 -0.066944055 0.31362578 -0.24398267 0.0914793 -0.14390849 -1.0856382 0.37328678
0.1627778 -0.0130754085 0.16782367 -0.03499776 -0.011617079 -0.28231055 -0.1714704 0.046817306
-0.096953206 -0.62636375 0.45821157 0.28637272 -0.036412045 -0.69418025 0.0033704394 -0.14629517
-0.44235358 0.08998623 -0.02715613 -0.26995862 -0.16453472 -0.11003674 -0.25433865 0.77975327
0.091782756 0.87835896 0.31917968 -0.1959628 -0.21217652 -0.0014402152 -0.14798729 0.28002673
0.30084386 0.07104804 0.2775204 -0.3537448 -0.26262394 -0.38244843 -0.28591016 0.011751397
0.240736 -1.750509 -0.22343367 -0.014148834 -0.33226916 0.71295595 0.40395403 0.25320095
0.15997164 -0.07408397 -0.6382069 0.1314264 -0.77164406 0.33082983 0.07258774 -0.73685247
0.01859074 -0.06307212 0.034350313 -0.31964508 -0.18970181 0.14672065 -0.85406333 -0.3550489
-0.0948726 0.21517162 0.25750425 -0.31769234 -0.19887757 0.035387903 -0.8399533 0.19151248
-0.05555198 0.023284111 0.2885403 -0.048732433 -0.15840723 -0.14138068 0.41049388 -0.33098114
0.08477207 -0.26152882 0.87626916 -0.23590384 0.8388737 0.56129473 -0.19803181 0.14760455
-0.32988814 0.30598375 0.40751028 -0.7785498 0.1630168 -0.5985465 0.5976398 -0.35509962
0.1777584 -1.3008685 -0.25764722 0.8237379 0.3205121 -0.102347694 0.067851685 0.16017912
0.15768534 -0.2427153 0.1987455 -0.19120556 -0.8825382 0.2877419 0.17903541 -0.15027003
-0.38901138 -0.3236184 0.058206096 0.0909008 -0.08883068 -0.14117824 -0.023123682 -0.51799446
0.03286112 0.36585653 0.4759123 -0.45562455 0.76183486 -0.6344666 -1.3652701 0.040823884
00000000: 9c6c d93d c948 8cbe 364a 113e 6094 15bf
00000010: 5e07 3fbf 0a1c c13e 8951 a2be e1ae e2bc
00000020: e9e4 043e 4fc5 df3e 0988 92bd f71e aa3d
00000030: f0e7 df3c f345 08bf 42f0 c3be 2ce1 203f
00000040: 5ba8 443e b6f0 b03d a1be 613d a8da 903d
00000050: 9e8e 803e 9de7 3f3d 7898 4ebe 06df 033f
00000060: a720 063f 6128 a63e 568c 23bd 719d eebe
00000070: ca91 8ebe 84cb 27be 8098 53bf 230c e43e
00000080: f0fc 813d 7b29 debd 7831 103e 3e48 39bd
00000090: a260 96be 0c00 22c0 b8ec 473c c215 20bf
000000a0: 5a2a 913e 360f dc3e 826d 4dbe fe8c 003e
000000b0: f63f b13d d11d 263f 3502 93bd 33d0 34bf
000000c0: da61 d8bd 9ce5 41bf 9786 c13e 38c6 493e
000000d0: 3dd9 9d3e ccbe e1bc 14e0 9fbe 140d 1abd
000000e0: c8a2 5c3e b96b 26be 08e7 0ebd ef21 fdbc
000000f0: f754 a63e 7e01 493e ea83 a73d 6ff4 4d3c
00000100: 108b 11bf b0f4 9a3e 941d 9a3c 65af b23e
00000110: 3ff0 bb3d 0fb7 5abe 392b e8bd 916e f7bd
00000120: a476 ff3d 9937 5fbe bf2d 5a3e 7c50 7d3d
00000130: bf68 93be 0a21 183d ff4f 0e3f 50ab d0bd
00000140: abed 9b3d ce01 773e 4731 ef3e 37cb b33e
00000150: cf59 02bd b305 41be 80f7 d63e c730 1b3d
00000160: b14e 3abf 78a3 c73d af0f ee3d 870d 7abb
00000170: c938 013e 1444 b23d 2f08 593e e0b1 a7bf
00000180: ef97 63be a2e2 f3bc 6f87 16be 2fbc 073d
00000190: 52f4 32be e5e5 633e e977 1f3e 6822 ebbe
000001a0: d98b 483d c870 3fbd 1e68 c6bd 523c 243d
000001b0: 5217 923d 0a52 b53b 56f9 8ebd 707c babd
000001c0: 11e4 7b3e f8c9 6fbe 1f16 ed3e 9ec7 0ebf
000001d0: 0a54 d63e f331 0ebd baf6 17be bbd1 c13c
000001e0: 9672 e33e f719 89bd 8f93 a03e 98d6 79be
000001f0: 8059 bb3d bf5c 13be 31f6 8abf 721f bf3e
00000200: 39af 263e 3d3a 56bc f8d9 2b3e d059 0fbd
00000210: 9055 3ebc 028b 90be f095 2fbe 81c3 3f3d
00000220: 678f c6bd 6059 20bf b59a ea3e 729f 923e
00000230: cc24 15bd ccb5 31bf 97e2 5c3b 67ce 15be
00000240: 2b7c e2be b34a b83d 8876 debc 0438 8abe
00000250: ca7b 28be f15a e1bd ad38 82be e99d 473f
00000260: 99f8 bb3d 22dc 603f 856b a33e 79aa 48be
00000270: cd44 59be 9ac5 bcba fb89 17be aa5f 8f3e
00000280: 3508 9a3e a381 913d 2717 8e3e 0a1e b5be
00000290: a576 86be 48d0 c3be d162 92be ee88 403c
000002a0: 7f83 763e ae10 e0bf cccb 64be 83d0 67bc
000002b0: 2f1f aabe 4884 363f 10d3 ce3e 8ea3 813e
000002c0: 9bcf 233e 56b9 97bd 8761 23bf a494 063e
000002d0: 778a 45bf 8762 a93e e2a8 943d 5da2 3cbf
000002e0: 9c4b 983c f52b 81bd eab2 0c3d 85a8 a3be
000002f0: 3141 42be f03d 163e e5a3 5abf f8c8 b5be
00000300: 914c c2bd f355 5c3e 99d7 833e 92a8 a2be
00000310: 90a6 4bbe e8f2 103d 2e07 57bf d91b 443e
00000320: 798a 63bd 52be be3c 8ebb 933e a99b 47bd
00000330: 8135 22be 19c6 10be 412c d23e 5c76 a9be
00000340: fb9c ad3d 1be7 85be 2d53 603f c790 71be
00000350: 6dc0 563f 03b1 0f3f dac8 4abe a625 173e
00000360: 19e7 a8be e7a9 9c3e 30a5 d03e 0a4f 47bf
00000370: e0ed 263e 583a 19bf ecfe 183f 9ecf b5be
00000380: 4c06 363e dc82 a6bf 56ea 83be 7de0 523f
00000390: 291a a43e ab9b d1bd d3f5 8a3d ff05 243e
000003a0: 4478 213e 5c8a 78be f183 4b3e 64cb 43be
000003b0: 06ee 61bf e852 933e 0f55 373e 63e0 19be
000003c0: 802c c7be 50b1 a5be 8469 6e3d 332a ba3d
000003d0: dcec b5bd 0791 10be e06d bdbc 499b 04bf
000003e0: 6299 063d 8c51 bb3e c7aa f33e 9f47 e9be
000003f0: 9c07 433f 676c 22bf 2cc1 aebf f236 273d
