trained_model/02_Ant/TD3_Baseline_actor.pth (torch, 302942 bytes, 6 tensors)

fc1.weight f4 [256, 27]
000000 34 80 0f 3f 45 b3 c2 be 6e 1a bf 3e 42 d9 2c 3e
       0.56055 -0.38027397 0.37324852 0.16879752
000010 82 2b 00 3f 26 58 40 3e 92 ef 15 3d 73 e3 30 3e
       0.5006639 0.18783626 0.036605425 0.17274265
000020 6f 4d ae 3c d5 b8 cb bd cd 96 8f bd cb aa c6 3d
       0.021277158 -0.09947363 -0.07011185 0.09700545
000030 ba ae bd bd 22 c9 c1 bd 7e 47 ce 3d 26 d7 09 3f
       -0.09261842 -0.09462191 0.1007223 0.53843915
000040 5f a3 b6 3e 74 d7 d3 3d 10 09 b8 be 52 d0 0a be
       0.35671517 0.10343829 -0.35944414 -0.1355603
000050 71 95 ca b9 4e 2e c3 bd a4 14 85 3d f0 2d 53 3c
       -0.00038639785 -0.09530316 0.064980775 0.01288937
000060 ac 4e 8a bc 7b da 91 3b c2 b6 17 3e 32 77 af be
       -0.016883217 0.0044510937 0.1481581 -0.34270626
000070 44 f3 46 bf cb 7d 88 3d b2 c4 b3 bf 01 df 81 3f
       -0.77714944 0.06664618 -1.4044402 1.014618
000080 02 d8 4b 3e 8b 92 e3 be 29 39 09 bf 5f 21 b0 be
       0.19906619 -0.4444774 -0.53602844 -0.3440046
000090 ce 72 8e 3f 29 b6 49 be 60 77 42 3e 76 75 8b 3e
       1.1128786 -0.19698395 0.1899085 0.27238053
0000a0 df f3 26 be 31 3b f1 bc 92 ba 42 3f 04 60 38 3e
       -0.16303967 -0.02944717 0.76065934 0.18005377
0000b0 28 63 c3 be ac 1b 8b bb cb 3c ae 3a e5 be 1a 3d
       -0.38161588 -0.004245242 0.0013293264 0.037779707
0000c0 7a 63 ee 3c c7 b3 c2 bd d8 b2 ab 3d 15 f6 3c 3c
       0.029100168 -0.09506946 0.08383721 0.01153328
0000d0 00 cd 85 3c bc 1e 3c bd 39 e8 50 3e 8e 65 55 3f
       0.016333103 -0.045927748 0.20401086 0.83358085
0000e0 e7 f8 39 bf c9 09 17 c0 48 e6 d7 3b 14 8d d8 be
       -0.7264542 -2.3599722 0.006588731 -0.42295134
0000f0 6f 3e 96 be 78 52 9c 3e eb da 8a 3c 55 3e 08 3e
       -0.29344508 0.3053167 0.016950091 0.13305028
000100 a3 00 34 be 7e 24 a9 be 5d c5 ab be f3 ec c2 3d
       -0.17578368 -0.33035654 -0.33549014 0.09517851
000110 aa 19 97 3c b6 d5 90 3d d9 6c 4e bd 23 97 13 bd
       0.018444855 0.07072012 -0.050396774 -0.036032807
000120 1c 8f 9e 3d 6b a8 9f 3c c2 fe 2b 3c fd 21 b1 bc
       0.0774214 0.019489488 0.010497751 -0.021622652
000130 23 52 60 3d dd 70 34 bd a1 25 86 bc 69 1b 50 3c
       0.05476583 -0.044052947 -0.016375365 0.012701848
000140 9d de 07 be 5d 24 29 3f 7f 93 af 3d 72 d6 8c bf
       -0.13268514 0.6607111 0.085730545 -1.1002944
000150 69 a5 05 3f e2 4c 86 be b0 0d 0d 3f c3 50 4c be
       0.5220552 -0.26230532 0.5509901 -0.19952683
000160 ef bc 1b 3e 5a 8e 8e be 13 e0 61 3f e8 87 07 3e
       0.15208791 -0.2784298 0.88232535 0.13235438
000170 7d e0 00 3e 73 8e 70 3e b2 ad 3f 3b 2b b9 99 bc
       0.12585635 0.2349184 0.0029247818 -0.018765053
000180 74 22 fb 3e e0 ad 86 be ae c7 aa bc 07 07 f1 3d
       0.49049723 -0.2630453 -0.020847168 0.117689185
000190 d8 42 04 3d ff 13 91 3b 3d d5 92 3b 11 99 05 be
       0.03229031 0.0044274325 0.0044809864 -0.13046671
0001a0 66 d0 a9 3b 25 38 1e 3d f0 71 84 bc cc 8c 80 bd
       0.0051823137 0.038627762 -0.01616761 -0.06276855
0001b0 d2 02 3f be e6 d0 42 3e 3d 7a 37 bf 77 2a db 3f
       -0.1865342 0.19025001 -0.71670896 1.7122334
0001c0 36 7d a4 bf 7a 6f 52 bd 25 05 03 3d 42 15 55 3e
       -1.2850711 -0.051375844 0.031987328 0.2080889
0001d0 bb 6d ef 3b ec ba 03 bf ef 72 03 3f 11 3c 96 3e
       0.007306782 -0.51457095 0.5134725 0.29342702
0001e0 c1 59 61 3e a0 a3 d6 3d 7b 50 16 3c 3e 75 ac bc
       0.22006895 0.10480428 0.0091744615 -0.021052
0001f0 1b 90 2b bd e7 3d 26 3e 6b 9b f4 bd 0b c9 87 bc
       -0.041885477 0.16234551 -0.11943706 -0.016575357
000200 3c 07 02 bd 1a 55 b3 bc b0 29 86 3c 5e 1f 7c 3c
       -0.03174518 -0.021891166 0.0163773 0.015388338
000210 9a f2 a3 bb f4 55 4c bb 6e 83 ae 3d 32 69 ef be
       -0.0050032856 -0.0031179162 0.08521162 -0.46759945
000220 ac d4 12 bd 26 ed 48 3f e0 05 2f 40 65 93 8a 3d
       -0.03584735 0.7848686 2.7347336 0.067663945
000230 46 a2 d7 3e ea ed 85 3e 46 17 20 3e e5 26 3e 3e
       0.42115992 0.26158077 0.15633878 0.18569525
000240 52 d0 8c bd 74 e4 af bd ed 8d e8 bc 12 62 07 3e
       -0.068756714 -0.08588496 -0.028387988 0.13221005
000250 4f b8 48 bd 46 75 6d be 71 4f 83 3c ea d0 3d be
       -0.049003895 -0.23189268 0.016029092 -0.18536726
000260 0e 4b d8 3d 3d 4d 32 bb 14 79 23 3c 53 be ed 3c
       0.105611905 -0.0027206682 0.009977598 0.029021418
000270 9d 70 32 3d b4 9a 6d bd 49 54 e3 3c 06 67 4c 3d
       0.043564428 -0.058008865 0.027750151 0.04990294
000280 25 54 90 bc 79 c9 b0 3d 83 87 5f be 4c ad ad be
       -0.017618248 0.08632178 -0.21829037 -0.33921278
000290 07 fe d7 be d3 11 33 bf 41 89 99 be 32 b2 b6 be
       -0.42185995 -0.6994907 -0.2998753 -0.35682827
0002a0 c3 bb b9 3d c5 15 b5 3d c7 d9 31 3e e9 4c 03 3d
       0.09069016 0.08842043 0.17368232 0.03205577
0002b0 95 a1 02 3e 47 50 ba 3e ff fa 4a be 40 45 d6 be
       0.12756951 0.36389372 -0.1982231 -0.4184971
0002c0 c7 e8 4b 3e 27 a8 59 3e 0b 61 9a 3e d5 ec 79 bf
       0.19913016 0.21255551 0.30152163 -0.97627
0002d0 cf 89 e0 3e 3e 6b 8d 3d 3a e0 19 bd ac 49 13 3e
       0.4385514 0.069052204 -0.037567355 0.14383572
0002e0 93 10 9e 3d da 81 88 3d c3 b3 95 bd ee 9c be 3d
       0.07718005 0.06665392 -0.073096775 0.09307276
0002f0 9a 58 63 be 7b 21 eb 3e ad 6a fb 3e 9f 1c 55 3f
       -0.22201768 0.4592398 0.49104825 0.832468
000300 48 e5 0a bf 1a 0e a2 bd 34 e6 f1 be bd 5c 16 bf
       -0.54256105 -0.07912846 -0.47245944 -0.5873526
000310 47 aa 0f be 77 a7 9f bd 17 7c 9a be dd 3e 82 3d
       -0.140298 -0.07795613 -0.30172798 0.063596465
000320 d6 11 67 be 8e ac 3f 3e c4 ef 51 bd f6 74 53 be
       -0.22565398 0.18718168 -0.05125405 -0.20650086
000330 48 1d c6 be 3f 9d bd 3d 4d 20 8a be 22 d2 35 3e
       -0.38694215 0.09258508 -0.2697777 0.1775594
000340 cd 8d fc 3c 7a 27 95 bd cd 44 79 3d 6a d4 d5 bc
       0.030829335 -0.0728292 0.06085663 -0.026102263
000350 cb 85 f5 bc 76 95 74 bd e5 12 93 bd 11 0d 6e bd
       -0.029971024 -0.05971285 -0.07181338 -0.05811793
000360 51 17 5d be 03 a0 84 be bc 45 43 3f 15 65 9b be
       -0.21590926 -0.2590333 0.7627828 -0.30350557
000370 d3 54 ac 3e ba d5 eb 3e 0f 39 b2 bd f7 81 7c 3d
       0.33658466 0.46061498 -0.08702289 0.06164738
000380 5a 2b f5 be 76 1d 29 3e 63 d0 c1 be a4 8d 63 3d
       -0.47884637 0.16515145 -0.378543 0.055555
000390 77 2e 76 be 77 90 2f 3e 33 8a fe 3e 04 ea 82 bc
       -0.24041162 0.17144953 0.49714813 -0.015980728
0003a0 8c 0c b9 bd ee 7b 9d 3c 99 86 b5 bd a8 f5 b6 bd
       -0.09035596 0.019224133 -0.08863563 -0.08933574
0003b0 09 1b 25 bb 4d 65 f0 3c 57 c9 ef bc 80 50 c4 bd
       -0.0025193116 0.029345179 -0.029270811 -0.09585667
0003c0 a5 29 c6 bc 7c 5c b8 3d 0d a3 21 3d b0 22 b8 bd
       -0.02418978 0.09002015 0.039462138 -0.08990991
0003d0 c6 20 89 3e 6d 1d 61 be ab 6b 0d bf 08 63 ae bf
       0.26782817 -0.21983881 -0.55242413 -1.3623972
0003e0 4c 08 56 3d 06 ef ec 3d de 55 09 bb ee 0b 9d 3e
       0.052254006 0.115690276 -0.0020955722 0.30673164
0003f0 1a 44 1f 3f dc 70 c9 be 42 fe 7a 3d f3 3e cb be
       0.6221329 -0.39343917 0.061277635 -0.39696464

fc1.bias f4 [256]
000000 fd 03 e6 be 1f 3a 19 bd c5 a7 6f 3d b3 e9 1a bf
       -0.44924918 -0.037408944 0.058509607 -0.60512847
000010 f7 cb 55 be 9a 2a fa bd b3 c1 56 be ed 45 87 be
       -0.20878588 -0.12215157 -0.20972328 -0.26420537
000020 9f 47 87 be bd 89 90 bd a7 6b e0 be 76 7c a2 3c
       -0.2642183 -0.070575215 -0.43832132 0.019834738
000030 a0 e6 9f be 37 ba 8b be 8d 76 1a be 5b 3f a2 3e
       -0.3123064 -0.27290508 -0.15084286 0.3168896
000040 31 52 5b bd d8 bf 83 3c ac 0d 17 bf 47 42 58 bc
       -0.05354518 0.01608269 -0.59005237 -0.0131993955
000050 82 14 54 3d 28 8d 45 be 8d cf d0 bd 19 da 54 bc
       0.05177737 -0.19292128 -0.10195837 -0.012991452
000060 1c 8a e3 3e 48 75 17 bf ba 00 4d be c9 94 00 be
       0.44441307 -0.5916333 -0.20019808 -0.12556757
000070 1b f8 94 bc 7a 49 b6 bc 1e 03 db 3c ff ea d5 3d
       -0.018184712 -0.022251833 0.026734885 0.104452126
000080 0c 22 96 be 0a 9a fa bc 03 e0 cf be 36 f4 ca bc
       -0.2932285 -0.03059103 -0.40600595 -0.024774652
000090 68 55 6b be 7c 01 80 3d 42 11 07 3f 2e f1 51 bd
       -0.22981799 0.06250283 0.5276071 -0.051255397
0000a0 f7 8a cd be 84 50 ab 3d d4 ff 97 bd 10 bd 0c bf
       -0.40145084 0.083649665 -0.07421842 -0.54975986
0000b0 5b 76 a5 be 4b 0b b2 3d ec 61 46 be 3d 62 e9 be
       -0.3231686 0.0869356 -0.19373292 -0.45582762
0000c0 53 b2 a4 3e 12 a4 67 3d 37 a9 77 3c a9 36 1e bf
       0.321673 0.056552954 0.015116028 -0.61802155
0000d0 6f 91 7f bd 6d a6 2b bc f5 7b cd bc 23 e0 fa 3d
       -0.062394556 -0.010476691 -0.025083521 0.12249782
0000e0 4f 6c e3 3d 93 71 ba 3d 5e f4 91 be cd 33 01 bf
       0.111046426 0.09103694 -0.2850675 -0.50469667
0000f0 4b 0e d9 bc d5 14 3b be 1d 4f 9b 3e 8f 38 9c bd
       -0.026496073 -0.18269666 0.30333796 -0.07627975
000100 f6 c1 e4 3d 85 94 fd be 20 87 1c 3e d9 29 1c 3f
       0.111698076 -0.49527374 0.15285921 0.61001354
000110 42 e2 15 bf c1 2f 91 bd fa a0 f3 3e b3 aa 60 3d
       -0.5854837 -0.070891865 0.47583753 0.05485029
000120 eb 05 0e be 36 f0 fe bd 58 73 88 3e 7f 42 cf 3e
       -0.13869445 -0.1244816 0.266505 0.4048042
000130 a7 52 7e be 30 44 c4 3e 9a 7d be bd d5 ec 94 3c
       -0.24836217 0.38333273 -0.093013 0.018179337
000140 37 bd 9f be 2c 3b 06 be 5a fa 06 bf ba bc 08 3d
       -0.31199047 -0.1310851 -0.52725756 0.03338311
000150 d7 2c 42 3d 83 a3 00 bf c1 b5 e3 be a8 99 3d 3e
       0.047406044 -0.502495 -0.44474605 0.18515646
000160 98 1e 6b be be 7b 8b be 9f f2 96 be 15 9c f1 be
       -0.2296089 -0.27242845 -0.2948198 -0.47189394
000170 74 0d 07 bd f1 aa 99 be 9d b9 13 be 9a bf cf bd
       -0.032971814 -0.3001323 -0.14426275 -0.10143967
000180 e6 56 e9 be ab ee 4c bd ed 2e 8d 3d 2c 12 40 bd
       -0.4557411 -0.0500323 0.06893716 -0.04689233
000190 aa 78 06 3d 40 a7 bf be 26 96 5d bd 32 ab d2 be
       0.032829918 -0.3743229 -0.05409827 -0.41146237
0001a0 8e bd 57 be 61 b9 e3 3c 8c d6 0b be b6 6a be 3c
       -0.21068403 0.027798356 -0.13656062 0.023244243
0001b0 16 7e 87 3e 5d 9d 82 3d f9 cf c5 bc 4b 15 c4 be
       0.26463383 0.06377671 -0.02414702 -0.38297495
0001c0 50 c4 a8 bd 1f b5 55 be bf 5b e0 be 4e 46 a3 be
       -0.08240569 -0.20869873 -0.43819997 -0.31889576
0001d0 07 1a 27 be ae 68 b5 3d 0a 46 b9 be b8 5b 41 be
       -0.16318522 0.08857857 -0.36186248 -0.18882644
0001e0 06 fb 27 be c2 ca a6 bd b8 6f a8 be 6f 5a 59 be
       -0.16404352 -0.08144142 -0.32897735 -0.21225904
0001f0 ea ac 45 3e 30 72 fe bd eb 68 84 be 7a 43 29 bf
       0.19304243 -0.12424123 -0.25861296 -0.66118586
000200 4a c2 01 be 82 bb 86 bd 9c 70 e9 be 80 8c 0e 3e
       -0.12671772 -0.06578733 -0.45593727 0.13920784
000210 24 bd fe bd 26 f5 3c bd b1 95 2d be f2 5a aa 3d
       -0.124384195 -0.04613223 -0.16951634 0.08318128
000220 ca fc 0b bf 61 03 11 3e 14 cf 3e be 36 43 7d be
       -0.546826 0.14161445 -0.18633682 -0.2473267
000230 cf da 07 3d fa 9f 20 3c 43 54 3c be ca 12 8f be
       0.033167657 0.009803766 -0.18391518 -0.27944022
000240 ee a6 05 bf 11 df 7c be c4 5c d9 bd a0 0f 89 bc
       -0.5220784 -0.24694468 -0.10613397 -0.016731083
000250 ec 00 08 be 9e 56 07 be 59 75 3b bf 8c 97 df 3e
       -0.13281602 -0.13216636 -0.73225933 0.4367031
000260 af de 9d 3e 64 93 d3 bd 33 9f c0 3d 48 ec 44 bf
       0.30833957 -0.10330847 0.09405365 -0.76923037
000270 50 c4 0c bf 16 a3 cc bb 97 cf bd bd 4d 04 25 be
       -0.5498705 -0.0062450273 -0.0926811 -0.16114922
000280 20 99 de be 49 44 8c 3c 6e ff 55 3e d9 f2 23 be
       -0.434762 0.017122405 0.2089822 -0.16010608
000290 28 ab 64 be c1 2f 57 be 92 2d 01 bf 24 c3 8f be
       -0.22330916 -0.2101431 -0.5046016 -0.28078568
0002a0 a4 c9 00 be 08 74 ec bd 08 bd d2 be 1b 89 2a be
       -0.1257692 -0.11545569 -0.41159844 -0.16653864
0002b0 09 55 3f be 70 31 2b 3c 86 ab a1 be a6 28 3d 3d
       -0.18684782 0.010448799 -0.31576174 0.046181343
0002c0 f7 c4 fe be a5 6b 96 be 59 89 a5 be 9a fd ae be
       -0.49759647 -0.29379 -0.3233135 -0.34177858
0002d0 ac c6 2c be f7 49 73 be 52 9e ff 3a 6c bd 42 be
       -0.16872662 -0.23758684 0.0019502139 -0.19017571
0002e0 f8 df ca be cf a3 77 3e 39 28 0c 3e b0 8e d9 be
       -0.39624 0.24183582 0.13687219 -0.42491674
0002f0 0e e6 08 bf 9e 99 58 3e dd 74 0b be 40 c7 52 be
       -0.53476036 0.2115235 -0.13618799 -0.2058382
000300 fa 47 6f 3d d7 5c 19 bf 65 90 fa 3d 33 de b0 bd
       0.05841825 -0.5990729 0.12234572 -0.08636131
000310 37 42 c8 bd b5 47 28 be e7 82 39 3e 35 e8 96 be
       -0.097782545 -0.16433604 0.18116342 -0.29474035
000320 96 d8 f8 3c b8 ec 85 be 15 03 42 be b2 06 75 be
       0.030376714 -0.26157165 -0.18946488 -0.23928335
000330 20 b0 12 be a1 2b 13 3f 5e 94 bf 3b 1c 47 4c be
       -0.14324999 0.5748845 0.005846544 -0.19949001
000340 2c a8 eb 3d 14 01 df 3c 05 bb 90 3e 6d f9 94 be
       0.115066856 0.027222194 0.28267685 -0.29096547
000350 71 1a 07 bd f2 dc 95 be 4f 4c 16 bf 32 aa 86 3c
       -0.0329842 -0.2927013 -0.5871019 0.016438577
000360 fe 58 92 be 08 99 5a be 92 28 97 be 3b 6e 8c 3e
       -0.2858352 -0.2134744 -0.2952314 0.2742785
000370 9d 0b 6d bd 97 cd c0 be 1c 9a 30 bf ed 64 87 be
       -0.057872403 -0.37656853 -0.6898515 -0.26444188
000380 21 7a be be 24 a4 f7 bd 89 d4 42 be 8a 60 ee bd
       -0.37202552 -0.12091854 -0.19026388 -0.11639507
000390 0c f3 f8 be be a7 1c bd ed ca e1 3e a1 43 90 bd
       -0.4862293 -0.03824591 0.44100133 -0.07044149
0003a0 dc 3d 49 bc 9c 8b 66 be 00 70 94 be 05 57 93 be
       -0.012282815 -0.22514194 -0.289917 -0.28777328
0003b0 c5 38 b6 be 4a 5e a9 be 94 d3 83 bd 86 92 01 3e
       -0.35590187 -0.3307975 -0.0643684 0.1265355
0003c0 9a d9 70 b9 1a 19 72 3d de 95 01 bf 20 03 aa bd
       -0.00022969246 0.05910597 -0.50619304 -0.08301377
0003d0 cf f6 8d be 8a 66 65 bd 4f 6d de bd 09 9d 1b be
       -0.27727363 -0.056005992 -0.10860693 -0.15196623
0003e0 c9 27 62 bd 30 98 44 bd 0d 56 74 3e c7 c2 1f be
       -0.055213723 -0.0479967 0.23860951 -0.15601645
0003f0 95 fa 37 be 26 88 2f bd 5a e9 e5 bc a9 2a f7 3e
       -0.17966683 -0.04285445 -0.028065372 0.48274735

fc2.weight f4 [256, 256]
000000 d7 bf 0f 3d bc cf 94 bd c9 87 08 3e ea d2 4b be
       0.035095062 -0.07266185 0.13333048 -0.19904676
000010 e7 b0 47 bf 9d 9d 6e bf ce 99 8d be 29 99 19 be
       -0.78004307 -0.9320925 -0.27656406 -0.14999832
000020 61 6d 6d 3d 29 cf 24 3e 2b 99 87 be 03 9b af bd
       0.05796564 0.1609465 -0.26484045 -0.08574488
000030 69 86 ea bd d9 f7 90 be 4e de 37 bd de 39 86 3e
       -0.11451418 -0.28314093 -0.04488974 0.26216024
000040 ff 47 92 3b 34 3a 37 bf 0c 42 7d 3d ff 83 6d 3e
       0.004464149 -0.71573186 0.061830565 0.23194884
000050 3b 4b 67 bd f4 ed 09 be 3c 5e 0d 3d 58 f1 33 3e
       -0.05646823 -0.13469678 0.034513697 0.17572534
000060 38 80 6b 3d 6f 23 8a bf c0 42 0c 3e 8c ca 41 bf
       0.057495326 -1.0792063 0.13697338 -0.75699687
000070 99 ba 86 3e 53 8f ff 3e 0c e4 73 bd e6 4a b6 3e
       0.26314238 0.49914035 -0.059543654 0.35604018
000080 52 8f 14 3c b8 2c 50 bc 04 f2 49 bf 20 94 37 3e
       0.009067373 -0.012705974 -0.7888491 0.17927599
000090 92 d1 c8 be aa 11 3c 3e f7 74 8e bd 70 7b 0a be
       -0.3922239 0.18366113 -0.06955903 -0.1352365
0000a0 32 c8 13 3b 43 1d a2 3e 38 ab 6b 3d 78 43 05 be
       0.0022549746 0.3166295 0.057536334 -0.13014019
0000b0 05 8f d1 be f6 0d 91 39 56 77 c7 be 79 5d fe be
       -0.40929428 0.00027666957 -0.38958234 -0.4968069
0000c0 20 7b e7 be f0 36 ed bd c4 86 32 be c2 90 2d be
       -0.45211124 -0.11582744 -0.17434222 -0.16949752
0000d0 9b 49 c7 3a fe df 0b 3e e8 2c a5 3c 47 9b 88 3e
       0.0015204431 0.13659665 0.020163015 0.26680967
0000e0 12 3e e2 3d 68 47 f4 bd c0 82 21 bf 4d 19 31 3e
       0.11046995 -0.11927682 -0.63090134 0.17294808
0000f0 4d 26 9f bd e9 26 b5 bd b9 ed 66 bf 08 d0 99 bb
       -0.07770977 -0.08845312 -0.90206486 -0.0046939887
000100 da dc 85 3d cc 65 4c 3d fa f9 8a 3d e5 c2 56 3d
       0.06536265 0.04990177 0.067859605 0.05243196
000110 ea cf 61 3e ad 77 cf be ae 68 57 3e ed 62 5f 3e
       0.22051969 -0.40520993 0.21036026 0.21815081
000120 a0 a6 d0 bd 85 12 83 3e 91 5e b2 3e f3 e5 be b9
       -0.10188031 0.25600067 0.34837773 -0.0003641095
000130 15 6e a8 38 d8 59 49 3e 6f 21 8d be 37 cd 51 3d
       8.0313686e-05 0.19663179 -0.2756457 0.0512211
000140 8b ec 2d bf fe d4 cf bc e0 9e 97 be e0 27 80 be
       -0.6793906 -0.025370117 -0.296134 -0.25030422
000150 cd f4 85 3d fc 8c 19 3e b0 e8 98 bf a8 71 ad 3e
       0.06540833 0.14995188 -1.194601 0.33875775
000160 02 6d 90 3c eb 8a 2d be 60 ea 7a 3c cf f1 b5 be
       0.017630104 -0.16947524 0.015314668 -0.35536048
000170 ed be 55 be e9 0b e9 bd 8c 28 9e 3d f4 38 fc bd
       -0.20873614 -0.11379225 0.077225775 -0.123155504
000180 25 74 71 3e 37 5a 88 be fb bc 59 bd 09 87 d2 bd
       0.23579462 -0.26631328 -0.05315874 -0.10279662
000190 9a 5f 09 3e 49 b8 f7 be 40 5e cb bd ca 04 df bd
       0.13415375 -0.48382786 -0.09930086 -0.10889585
0001a0 5d a8 57 3e e2 e3 81 be af 9c a8 bd 94 6b aa be
       0.21060319 -0.25369173 -0.0823301 -0.332852
0001b0 5d 39 8e bd 4c ad 71 bf db 61 7c 3e 77 0d 16 3d
       -0.06944535 -0.94405055 0.24646704 0.036633935
0001c0 99 f2 96 3e 37 a0 85 be 8e 2e 0f be 0f a1 84 3e
       0.29481962 -0.26098797 -0.13982603 0.25904128
0001d0 9d d3 0b be 78 d3 0c bf 88 fb 96 be 9b c0 30 be
       -0.13654943 -0.55010176 -0.29488778 -0.17260973
0001e0 d6 fc 84 be bf 47 dd bd f9 6e 3b be be d3 83 be
       -0.2597415 -0.108047 -0.18304051 -0.25747484
0001f0 ab 6d e2 3e d1 d9 23 3e 63 b4 b1 ba 88 fd dd be
       0.44224295 0.16001059 -0.0013557788 -0.43357491
000200 f3 12 09 be bf a4 c9 b8 a3 ef ea 3e 4a b8 c8 3d
       -0.13386135 -9.615113e-05 0.45885953 0.09800775
000210 dc cc ec 3d 45 61 b5 be 90 fa d0 3d 79 f9 92 bc
       0.11562511 -0.35425773 0.10204041 -0.017941223
000220 96 86 51 be 3e 66 90 be 37 a3 6b 3e dd 94 77 bd
       -0.20461497 -0.28203005 0.2301148 -0.0604447
000230 f8 01 98 be 2a 4a 55 3e e9 59 82 bd 6a 66 e2 bb
       -0.29689002 0.20829073 -0.06364805 -0.0069091814
000240 e1 db fb bd 6b c9 e7 be f2 6a 57 3d d0 58 59 3c
       -0.12297798 -0.45270857 0.052592225 0.013265803
000250 7a c3 1e 3f 70 f7 a3 bd be ef 1a bf 2a 53 a4 be
       0.62017024 -0.08006179 -0.6052207 -0.320947
000260 df 02 c6 3e 9c 87 0f be 7d 31 6a bd 36 0b 53 3e
       0.38674065 -0.14016575 -0.057176102 0.20609745
000270 86 db c1 3e 07 70 ac be 3d bf 00 3d 3f a1 80 be
       0.37862796 -0.3367922 0.03143238 -0.2512302
000280 69 78 f9 bd 62 20 75 bd b3 4c 18 3e 1d 79 d0 3c
       -0.121811695 -0.059845336 0.14873008 0.025448376
000290 19 f6 13 3e f6 d5 80 be be 90 48 be 18 87 a8 3d
       0.14449348 -0.2516324 -0.19586465 0.08228892
0002a0 8b c7 3c be ac e6 3d bc f3 27 be be ce a5 96 3d
       -0.18435495 -0.011590641 -0.37139854 0.073558435
0002b0 05 bc 00 3e 9c 4c 22 bf f1 8d 12 be c7 ad 63 3e
       0.12571724 -0.63398147 -0.14311959 0.2223426
0002c0 a6 94 71 bf 68 19 2b bf e1 61 6f 3e 88 4c 02 3e
       -0.94367445 -0.6683564 0.23377182 0.12724507
0002d0 e1 87 e9 be ca 52 87 3e ba 57 c3 bd 28 f9 5d 3e
       -0.4561148 0.2643035 -0.09538217 0.21677077
0002e0 94 86 24 3d 12 57 46 be aa ff f8 3d 54 d1 1c be
       0.040167406 -0.19369152 0.12158139 -0.15314227
0002f0 43 f3 f8 3e ff 7a 06 be 23 b3 28 bf 4b f7 82 be
       0.48623094 -0.13132857 -0.6589834 -0.25579295
000300 b9 0f a6 bd 42 75 c0 3e 85 de f8 be 88 d2 92 be
       -0.081084676 0.3758946 -0.4860727 -0.28676248
000310 73 fc 31 be f6 de 9c bf c6 99 56 3e 53 d9 b7 3d
       -0.17381458 -1.2255542 0.20957097 0.08976998
000320 f2 b2 63 3e 6c 6a 76 3e 0d 4a 36 bd 6a 83 31 be
       0.22236231 0.24064034 -0.044504214 -0.17335287
000330 59 77 39 be 2d 91 08 be 4e 81 6d 3e 6d 7a a5 3c
       -0.18111934 -0.1333663 0.23193857 0.020199979
000340 91 11 da 3d b6 9e 9c bd 6b 62 21 3d 2e 73 01 be
       0.10647882 -0.07647459 0.0394005 -0.12641594
000350 9e 29 68 3d 4a 52 18 3e 42 13 30 3e 1b 90 8f 3c
       0.056680314 0.14875141 0.17194846 0.01752477
000360 b3 56 24 3d 89 3f 68 be bf e9 4e bd 1d 8f 81 3e
       0.040121745 -0.22680487 -0.050515886 0.253045
000370 4a a4 04 3e 29 08 8e bd 10 a2 d3 bc fb ab 51 3e
       0.12953296 -0.0693515 -0.025834113 0.20475762
000380 70 63 55 bd 24 3b a6 3c e0 66 1a be 82 97 9b bc
       -0.052096784 0.020291872 -0.15078306 -0.018993143
000390 16 2d d7 3c 64 85 e9 bd be 18 03 bb 4e 35 4f 3d
       0.026266616 -0.11402395 -0.0020003761 0.050587945
0003a0 2f d2 78 be a4 cc f8 3d bf a0 a9 3e 1a 3d 2c 3e
       -0.24298929 0.12148407 0.33130452 0.16820183
0003b0 04 14 f7 3d f9 33 ac be 77 c6 47 3e 5f dc 2a be
       0.120643646 -0.33633402 0.19509302 -0.16685627
0003c0 dd b4 fc 3d 56 31 3b be 19 d3 03 3e 53 31 1a 3f
       0.123391844 -0.18280539 0.12873496 0.6023151
0003d0 8b 80 55 be 2d c5 3e be 08 ff 17 be 45 43 4e be
       -0.20849817 -0.18629904 -0.1484338 -0.20142849
0003e0 d2 ef 27 be 46 ed bc be 7e f9 29 3e 89 7c 94 3d
       -0.16400078 -0.36899775 0.1659908 0.07250316
0003f0 9a 81 ed ba a6 bb aa bc bd d7 0c be b2 64 32 3e
       -0.0018120289 -0.02084143 -0.13754173 0.17421225

fc2.bias f4 [256]
000000 cc 72 88 3d e1 31 ca 3d c7 8d 4a be f9 d4 7f 3d
       0.06662521 0.09872795 -0.19780646 0.062458966
000010 ae 60 e9 3d fa 55 e7 be e6 7e 0d be 0e 57 b8 bd
       0.11395393 -0.45182782 -0.13817939 -0.09000979
000020 1f ca 11 bf 2d 18 d6 be 3f dc e3 be fa d3 aa 3d
       -0.5694904 -0.4181532 -0.44503972 0.083412126
000030 46 30 87 3e aa c7 80 be 0a f3 15 bf 51 11 17 be
       0.26404017 -0.25152332 -0.58573973 -0.147527
000040 80 d9 ac be 32 71 a3 be fd ec 8d be ae a2 a9 bd
       -0.3375969 -0.319223 -0.2771987 -0.08282982
000050 ce 15 cf 3d 0f 89 5c 3b 97 a8 6a 3d 82 e8 2b be
       0.10111581 0.003365103 0.057289686 -0.16787913
000060 b1 99 b8 3d 40 45 82 3e 69 41 83 bd 24 96 44 be
       0.09013689 0.2544346 -0.0640896 -0.19197899
000070 49 5a 85 3d 27 50 f5 be 1e 94 5e bc 63 4b 68 3e
       0.06511361 -0.47912714 -0.013585119 0.22685008
000080 cb 9b 00 bf fc 2e 28 be ea a1 d8 bd 56 b1 ce bc
       -0.5023772 -0.16424173 -0.10577758 -0.025231045
000090 e6 88 90 3e b0 1c 6a 3d 10 c3 c5 be cf 0d 62 be
       0.28229445 0.057156265 -0.38625383 -0.2207558
0000a0 f3 7d 26 be 51 52 9f bd 79 e2 15 bd 12 61 a6 be
       -0.16258983 -0.077793725 -0.036592934 -0.32495934
0000b0 97 95 f9 be 5d ec 88 be 29 4a 0a bf d0 36 60 3e
       -0.4874694 -0.2674283 -0.5401941 0.2189591
0000c0 ce c8 87 bd b8 eb 8d be be 0d 4e 3e 1d d0 fc be
       -0.06630097 -0.27718902 0.2012243 -0.49377528
0000d0 45 1a 67 3e f3 ea 08 bd 76 e2 c2 bc 65 f4 97 bd
       0.22568615 -0.03342719 -0.023789626 -0.074196614
0000e0 a2 f5 cb be 91 bd 77 3d a9 35 e6 bd a7 5c 5b be
       -0.3983584 0.06048352 -0.112407036 -0.21422063
0000f0 68 56 a6 bd 3f 1d a1 bd 4c 05 94 be ad 45 06 3e
       -0.081219494 -0.078669064 -0.2891029 0.13112517
000100 09 4a b0 be 85 79 08 bf 88 6d df 3d ff 2c 0b 3e
       -0.34431484 -0.53310424 0.10909563 0.13591383
000110 c5 a1 0a be e9 58 33 bc df b3 42 3e 5f 7b c9 be
       -0.13538273 -0.010946491 0.19013928 -0.39351937
000120 99 e3 80 3e b8 9a e2 be f9 1a 2a be 84 e9 61 3d
       0.25173643 -0.44258666 -0.16611852 0.05515434
000130 68 51 dc 3d 58 0a e6 3d 44 ae 32 be f0 a2 4f be
       0.107577145 0.11232442 -0.1744929 -0.20277
000140 bc 13 2e bb f4 81 57 3d 7a aa 27 3e de 6b c8 be
       -0.0026562056 0.052614167 0.16373625 -0.39144796
000150 c9 6c 0f 3e 84 55 6d bc 84 d7 8d be 84 bb 89 3d
       0.14006342 -0.014485721 -0.27703488 0.06725219
000160 8f 4d c6 bd ac 7e 52 3e b9 8c 17 be cf 6f 5d be
       -0.09682762 0.20556134 -0.14799775 -0.21624683
000170 7a 2a 29 3e 31 e9 e2 be f7 43 82 be 53 0e 11 3d
       0.1652011 -0.44318536 -0.25442478 0.03541405
000180 20 6c 20 3d eb 9b 07 be 8e 1a 14 bf 85 05 cc 3d
       0.039165616 -0.13243072 -0.5785302 0.0996199
000190 b0 38 19 bf 82 94 cc 3b 87 69 41 3e d4 d2 63 3e
       -0.59852123 0.0062432894 0.18887912 0.22248393
0001a0 7c 1e d9 be 7a 8a ff be 83 e9 c2 be 44 19 86 bd
       -0.4240607 -0.49910337 -0.3806878 -0.06547788
0001b0 b1 4d 86 be 66 81 f5 3c c0 0e 01 bc aa 12 d8 3d
       -0.2623115 0.029968929 -0.007877052 0.10550435
0001c0 c1 fe 0b be ae 14 4e be 9c 7b 86 3d 45 2a 3a 3e
       -0.136714 -0.20125076 0.06566545 0.18180187
0001d0 72 3a 49 bc 18 f9 98 3d a7 9b 7c 3e a0 74 74 3e
       -0.012282001 0.07469386 0.24668752 0.23872614
0001e0 6d d0 17 be 88 e4 85 bd b1 d3 02 be 02 f8 f7 3d
       -0.14825602 -0.065377295 -0.12776066 0.121078506
0001f0 b2 b9 95 bd 46 1f a8 bc b9 36 b2 3d bb 72 4d be
       -0.07310809 -0.020522725 0.08701844 -0.20063297
000200 b4 9c c7 3e 7f d7 4f bf 36 54 60 be 77 36 2a 3e
       0.38986742 -0.81188196 -0.21907124 0.16622339
000210 ef 06 ec bd 6c 3f 56 3e ec f6 7d be d2 8c 38 3e
       -0.1152476 0.20922631 -0.24801224 0.18022469
000220 fa b8 f5 be 9d 26 39 be 68 04 db be a2 8b bb 3e
       -0.47992688 -0.18081136 -0.427768 0.3662997
000230 7c 52 b9 be 9b 44 b8 3d 4b 41 b2 3b 6c e0 e3 be
       -0.36195743 0.089974605 0.0054399124 -0.44507158
000240 46 4a 06 bf 48 a0 d7 bd 17 40 17 be da 9f 66 bd
       -0.5245708 -0.10528618 -0.14770542 -0.05630479
000250 e3 c2 c0 bd 9e f0 33 3b 40 d0 e5 be 12 ad 33 3e
       -0.09412172 0.0027456651 -0.44885445 0.1754649
000260 01 9a d6 3d 5d 2c 84 be bf b2 0d bf 9d f6 2d be
       0.10478593 -0.25815096 -0.5535087 -0.16988607
000270 fc 26 9a be c8 0c 2d 3e 30 c2 d4 be 67 81 3e bd
       -0.30107868 0.16899407 -0.41554403 -0.046510126
000280 77 a2 c5 3d 22 c0 d8 be d2 b7 bb bd a4 9f e9 be
       0.09650128 -0.42334086 -0.0916592 -0.4562961
000290 4b 84 57 be 74 ab 8b be 36 e6 2c 3d fd a5 4c be
       -0.2104656 -0.27279246 0.042211734 -0.19985195
0002a0 cd 25 34 3d e1 6c f6 3c 7c b7 96 3d b4 79 85 bd
       0.043981362 0.030081214 0.073592156 -0.06517354
0002b0 e7 ac 47 bc ce a6 71 3e 52 06 76 3e ac 8a bf bd
       -0.012187219 0.23598787 0.24025849 -0.093526214
0002c0 f8 6d b9 be 90 20 e5 bc df 07 82 3e cf 0c 3d 3e
       -0.36216712 -0.027969629 0.2539663 0.18461917
0002d0 1c 02 c5 3d 6a e9 0c bf 22 b3 b1 be b3 e9 c6 3d
       0.09619543 -0.5504366 -0.3470698 0.09712543
0002e0 3f 94 f6 bd 67 d1 2e bd ac 3d c9 be 70 70 27 bf
       -0.120399944 -0.04268017 -0.39304864 -0.6540594
0002f0 bd 86 0f bf b5 fd c7 3d 09 6b 3e be 32 5f 68 be
       -0.5606497 0.09765188 -0.18595518 -0.22692564
000300 7c 0b 46 bd 34 b4 b0 3d b5 3b b2 3e 2c f6 80 be
       -0.048350796 0.08628121 0.34811178 -0.25187814
000310 4a 31 1f 3e d3 c6 69 bd 49 50 4b 3d c0 ec 2c be
       0.15546146 -0.05707438 0.049637113 -0.16887188
000320 0d 1e be be 34 89 10 be d7 5a 0e 3e 41 19 c3 3e
       -0.37132302 -0.14114839 0.1390184 0.38105205
000330 da 5e 8c be 2a 4c c4 be 2a 31 96 be de f6 b9 be
       -0.27416116 -0.3833936 -0.29334384 -0.36321157
000340 41 7c da be 93 61 46 3d f5 7d 87 3d 5c 6c c9 be
       -0.42672923 0.048432898 0.06615821 -0.39340484
000350 63 79 08 be dc ee bb bd e8 44 70 bd 33 41 b6 be
       -0.13327555 -0.09176418 -0.058659464 -0.35596618
000360 5a 99 c8 be 51 95 62 3e 87 6b 04 3f 32 a3 04 3d
       -0.39179498 0.22127272 0.51726574 0.032382198
000370 d2 3c 86 3d aa 4f 88 3e 45 ac 84 3e df 45 47 be
       0.06554569 0.2662328 0.2591268 -0.19460247
000380 e0 f4 31 bf 4c b9 18 3d 84 c9 5d 3d 4d c2 25 bd
       -0.69514275 0.037286088 0.05414726 -0.040468503
000390 81 01 d9 be ef 84 92 be 7c 25 35 be 70 8d 83 be
       -0.4238396 -0.28617045 -0.1769008 -0.25693846
0003a0 04 c4 60 bd 61 d6 55 be 46 fd f8 be b1 58 6a bd
       -0.054874435 -0.2088256 -0.48630732 -0.05721349
0003b0 20 f2 d9 bd a7 e8 1e 3d 13 40 89 3d 45 4f a7 be
       -0.10641885 0.038796093 0.06701674 -0.32677665
0003c0 e8 06 2e be 3d d7 18 bf ec bb 1b be 2a 6d ee be
       -0.16994822 -0.5970343 -0.15208405 -0.4656766
0003d0 bf 02 5f be a8 02 df bd d0 11 9f bd cf 59 84 3d
       -0.21778391 -0.108891785 -0.07767069 0.06462442
0003e0 4e 4f 48 3e 00 d4 07 3e 3e d2 5b bc dd 9e 52 be
       0.19561502 0.13264465 -0.013416825 -0.20568414
0003f0 8a 38 96 3b 41 fc 93 be 3c e3 b6 be 3f a9 06 bf
       0.0045843767 -0.28903392 -0.3572024 -0.52602

output.weight f4 [8, 256]
000000 e8 29 ce bd 6b 4d a3 3e b5 dc 85 3d c9 3a 1f 3f
       -0.10066587 0.31895003 0.06536237 0.62199074
000010 96 69 f4 bd 77 4b ea bd 23 43 76 3d c4 4e 55 3d
       -0.119342014 -0.11440175 0.06012262 0.05207707
000020 0e 94 a4 3e f5 a7 65 bd 70 9b 6f 3d d3 c3 f1 3c
       0.32144207 -0.05606838 0.058497846 0.029512322
000030 05 d9 2c 3e 39 8e b4 3e bb aa e0 be 55 4e a8 3d
       0.16879661 0.35264757 -0.43880257 0.08218066
000040 57 3d e3 3c ab bb 75 3d 26 57 36 3d 6d 38 d0 3d
       0.02773921 0.059993427 0.044516705 0.10167012
000050 c0 4e a1 3d 7a 19 01 bd cb 3b d5 b9 99 fe 63 3d
       0.078763485 -0.031518437 -0.00040671075 0.055662725
000060 c1 92 6f bd 24 ee b5 3c ea 28 2e 3d c8 24 fd 3d
       -0.058489565 0.02220828 0.042519487 0.12360531
000070 84 8a 0b 3f e8 72 95 bd 0f df 8f bd ec 37 94 40
       0.54508233 -0.07297307 -0.07024967 4.6318264
000080 79 44 49 3e 0c b3 a4 3d e1 00 c7 3d 28 5b 0a 3d
       0.19655026 0.08041963 0.097169645 0.03377834
000090 11 b3 da 3e 31 0b e5 3d 60 d0 b1 3e eb 40 c4 3e
       0.42714742 0.11183775 0.3472929 0.38330778
0000a0 ad dd 59 bd 72 1c 05 bd 12 ad 34 be 71 7e 66 3e
       -0.053189922 -0.03249783 -0.17644146 0.22509171
0000b0 fc 55 ea bc 9a 2b 13 3d c4 f3 91 be 65 53 1b bd
       -0.028605454 0.035930254 -0.2850629 -0.037921328
0000c0 52 68 1a 3e e2 f8 59 3d a7 a2 db bd 34 ab fe be
       0.15078858 0.05321587 -0.10724383 -0.49739993
0000d0 b3 75 33 be a4 61 49 3d 6f d5 e9 bc 8c 67 85 3b
       -0.17525367 0.049165383 -0.028544156 0.0040711816
0000e0 50 39 a6 3c 82 2e ed 3c 43 91 a6 bc fc 51 ca 3d
       0.020291 0.02895284 -0.020332938 0.098789185
0000f0 69 57 01 3d 53 88 09 bd df 71 05 3e d0 3e e0 3d
       0.0315775 -0.033577275 0.1303172 0.109494805
000100 6a 06 11 be cb 5f 43 be ad 9e 8b 3e 62 0a db 3c
       -0.14162603 -0.19079511 0.27269498 0.02673835
000110 7c 81 20 bc ee 7e c3 bf 4b 65 80 3e b4 3a b7 be
       -0.0097964965 -1.5273111 0.2507728 -0.35786974
000120 63 46 69 be 24 89 d3 bd a2 85 a9 3c da 9a 7b 3d
       -0.22780757 -0.10328892 0.020693604 0.061426975
000130 90 ef 2a bd e3 db 88 bd 8c 76 98 3d 49 5b aa 3c
       -0.04173237 -0.06682565 0.07444486 0.020795481
000140 d9 0f fd bd 5f 71 e7 3a 29 8b 2d bf b6 8c 80 bf
       -0.12356538 0.0017657689 -0.67790467 -1.0042942
000150 91 e3 e1 3f 31 25 0c 3f f4 2a 72 be b5 1e 07 bd
       1.7647573 0.5474425 -0.23649198 -0.03298827
000160 19 f0 a6 be 2f 72 c0 be c2 12 61 c0 fa 87 c7 3d
       -0.32605055 -0.37587115 -3.51677 0.09742732
000170 1c f2 37 3d b4 0c db 3d 88 5d 22 be d1 67 37 3f
       0.044908628 0.10695782 -0.15855992 0.71642786
000180 17 b9 c4 be a3 4c 69 3e 74 03 63 bf c4 97 19 be
       -0.38422462 0.22783141 -0.88677144 -0.149993
000190 9e b0 b7 bb 17 d4 d2 bd 97 43 91 bd f2 13 a1 3a
       -0.005605771 -0.10294359 -0.0709297 0.0012289269
0001a0 b7 6b 8a 3c bb 1a 13 be a7 d8 a4 3e 7a 2c 5c bc
       0.016897066 -0.14365666 0.32196543 -0.013438338
0001b0 66 d3 0b be 68 da 0c 3e 64 b6 e4 bd 9b a8 1c bc
       -0.13654861 0.1375519 -0.11167601 -0.009561683
0001c0 3d dc 14 be e6 e6 91 bf 41 84 99 3f bf be 43 be
       -0.14537139 -1.139859 1.1993486 -0.19115733
0001d0 da 68 86 bc 93 d8 19 bd ca ac 91 3d ad 0e 11 40
       -0.016407419 -0.037560057 0.07113035 2.2665207
0001e0 aa a1 9d 3e ac 02 89 3e 94 56 c4 bd 61 a0 1f be
       0.30787402 0.2675985 -0.09586826 -0.15588523
0001f0 5f 8a bd be 32 d7 6c 3e 0d a4 32 bd 65 3b 1f 3f
       -0.3701963 0.23128965 -0.043613482 0.62200004
000200 94 ef f7 3e 99 85 00 bf bd ec fb 3b 8e 6f f9 bc
       0.4842497 -0.50203854 0.0076881335 -0.030448701
000210 3e 12 c3 3f 14 88 8b bd 7c 04 6f 3e 6e a2 f5 be
       1.5239942 -0.06813064 0.23341554 -0.47975487
000220 24 6f b5 be 42 c7 c9 bd d3 00 99 3e fe 70 0d 3f
       -0.35436356 -0.098524585 0.2988344 0.5525054
000230 69 36 2b be fb 48 b3 bd e0 d4 3b 3d 65 64 f2 bd
       -0.16719975 -0.08754154 0.04585731 -0.11835555
000240 e4 b6 c7 bd 7f 3d 08 3e 65 3a f8 bc cb 23 91 3d
       -0.097516805 0.13304709 -0.030301282 0.07086905
000250 4c 54 fa bd 4f 16 1a 3e e0 be 11 bf 0e 90 9c 3d
       -0.122231096 0.15047573 -0.5693188 0.07644664
000260 a0 94 db 3b 1d 3c 5e be 49 06 db 3d 6c 97 10 be
       0.006701067 -0.21702619 0.10694558 -0.14120263
000270 3e 1c a7 bc 47 f8 66 be 91 8b d7 be 72 87 20 be
       -0.02039921 -0.22555648 -0.42098668 -0.15676668
000280 a9 26 87 3d fe 6a 8c 3e ac 88 8d 3d 28 8a 83 be
       0.06599171 0.2742538 0.06910834 -0.25691342
000290 87 6e 50 bd 8c 3b ad 3d 98 1d e4 3b f4 d3 27 bb
       -0.050886657 0.08458623 0.0069615357 -0.0025608512
0002a0 bb 5a 5a be c7 bd 0b 3e 0f c5 c4 be 06 3d 62 3b
       -0.21323673 0.13646613 -0.38431594 0.0034521236
0002b0 75 bf de ba e2 67 70 3d f8 45 ac bc fe 3d 10 3e
       -0.0016994315 0.05869282 -0.021029457 0.14086148
0002c0 c2 3b ea be 83 c9 23 bd 2b 56 d3 bd 88 21 20 3d
       -0.45748717 -0.0399871 -0.103191696 0.039094478
0002d0 4e a6 42 be 91 a3 36 be 95 a4 d9 3d 0c 4c b9 3f
       -0.19008753 -0.17835833 0.10627095 1.4476333
0002e0 9f 17 7a bb 20 11 a5 bc 0d 87 85 3e bc a0 75 3e
       -0.0038161052 -0.020149767 0.26079598 0.23987097
0002f0 27 61 88 be 07 f7 60 be a0 22 62 3f f4 f8 0e 3f
       -0.2663662 -0.21969233 0.88334084 0.5584862
000300 94 12 00 bd 9b ce 16 3e 9e 60 e1 bd b1 fd e5 3c
       -0.031267717 0.14727251 -0.110047564 0.028075071
000310 13 00 78 3d 7a b5 a4 be ff 24 56 bc f6 dd 66 3e
       0.060546946 -0.32169706 -0.013070344 0.22545609
000320 76 2b e7 3d 24 66 ae 3c 90 d2 8d bb c2 cf 81 be
       0.112875864 0.021288939 -0.0043280795 -0.2535382
000330 d6 6f 5b 3e bb e2 9f 3e 5f 83 d9 be f7 29 d1 3b
       0.21429381 0.3122767 -0.4248304 0.0063831764
000340 45 8a 16 3e e2 38 57 3e 03 bc 53 bd a0 dc 37 3e
       0.14701183 0.21017793 -0.051692974 0.17955256
000350 1b a8 d3 3d 41 31 d0 3e b0 0e 61 3e 7f 32 8b 3e
       0.10334798 0.40662578 0.21978259 0.27186963
000360 e6 e1 f3 be 1f 7d 0b 3e e1 05 9a bd b7 c1 52 bf
       -0.47633284 0.13621949 -0.075206526 -0.82326835
000370 87 5b 47 bd 59 46 12 bd 46 60 55 3e 95 19 16 3d
       -0.04867127 -0.03571162 0.20837507 0.03664549
000380 64 c7 29 be a0 0d 39 bc 4a 15 b0 bc 07 a1 b9 be
       -0.16579968 -0.011294752 -0.021494526 -0.36255667
000390 af a7 81 3f 09 de 9e ba 3c f3 ef 3d 33 3c 97 bd
       1.0129298 -0.0012120615 0.11716315 -0.07384529
0003a0 df a7 26 3f 48 fa 27 3d 0c 09 9b be d6 24 e9 be
       0.650999 0.04101017 -0.3028034 -0.45535916
0003b0 5a ce 36 3e 69 e9 20 3e 2a 1b 01 be e9 b8 06 3e
       0.17852154 0.15714039 -0.12608019 0.13156475
0003c0 b7 af a9 3d 10 bf 2b be 91 ec 17 3f d8 15 dd 3d
       0.08285468 -0.16772103 0.59345347 0.10795182
0003d0 44 de f9 be 31 77 5d bd e0 8c 19 be 7e 43 ba 3b
       -0.48802388 -0.054068748 -0.14995146 0.005684315
0003e0 c8 ac a5 bd 02 a1 46 3e 53 e2 70 bd fd e3 2f 3e
       -0.08089596 0.19397357 -0.05880959 0.17176814
0003f0 bb c9 27 be 0b 0d 95 bd d4 5a 68 3e 33 de 40 3d
       -0.16385548 -0.072778784 0.22690898 0.047086906

output.bias f4 [8]
000000 b4 75 4e 3e 1a f9 db 3d 00 d2 0d 3e 16 af 08 3e
       0.20162088 0.10740872 0.1384964 0.1334804
000010 3e 41 c9 bd 0d 73 aa 3d 1a 39 82 3d 28 cb 9f 3d
       -0.09826897 0.083227254 0.063585475 0.07802421
